CoCo_cartpole_20250305_0053.pt (torch, 17712 bytes, 8 tensors)

layers.0.weight f4 [32, 8]
-0.37017453 0.22950992 -0.24460177 0.25394127 -4.9823675e-23 -0.044076882 -0.0023118851 -2.3153095e-24
0.07260248 0.1134718 -0.20737334 -0.4068512 0.08778425 0.035118867 0.074523866 -1.7654855e-05
-0.33274472 -0.4272515 0.31707045 0.40177733 1.7559795e-16 -0.0068224217 4.835369e-18 -0.037434775
-0.22621368 -0.48116526 0.5430864 -0.28818893 -0.0034517355 0.012290203 0.04134541 0.053528752
-0.54598945 -0.21638764 0.23096478 -0.24507448 0.08974423 -0.068415664 -0.0036035324 -0.00026365876
0.21346913 0.47475046 -0.37074542 0.42504922 0.06190078 0.043023333 0.062427893 -0.030572541
-0.5256466 -0.47911754 0.26531908 -0.21150042 6.7041473e-26 -9.244717e-20 -4.289192e-10 0.049135357
0.017594684 0.1636248 -0.3980066 -0.066033415 -0.0502493 0.010711725 -0.031695753 -0.029008046
0.29235673 -0.14218365 0.19255911 -0.22438197 5.1135794e-24 -0.09526205 1.3964584e-05 0.09901822
0.373929 0.28073028 0.34427822 -0.034202203 0.01102326 0.0321222 -3.9477472e-06 0.006703472
0.6211128 0.07523486 0.40014347 0.20221429 -0.00065979204 3.4470248e-24 -0.013803292 -0.0017130031
0.38926822 0.0878982 -0.3445187 -0.1107317 0.0028054672 1.6383114e-18 2.4094329e-24 9.043232e-05
0.21937585 0.124089815 0.26788476 -0.09638269 -1.5660907e-18 -0.03109404 0.07402249 -0.0720873
-0.54332715 -0.17028023 -0.18490371 0.19346544 0.08218307 -0.060107924 0.015191525 -0.075348936
0.0033146674 -0.13127975 0.3557095 0.54872733 0.089288056 0.07398468 0.0499016 0.116441526
0.54181224 -0.27279812 0.18662718 -0.04994728 -2.2316473e-21 -0.0082650455 0.041386835 0.0013275308
-0.01016151 0.0056887325 0.048893347 -0.014602894 0.00058349886 -0.014948992 0.018086126 0.020100215
0.65540177 -0.3641124 -0.10021243 0.5268095 -0.0004916556 5.334411e-07 0.08454705 1.0974346e-26
-0.54032475 0.04492392 -0.12889321 0.007022022 3.811357e-05 -0.05070874 0.05659396 3.1856785e-06
-0.5167656 -0.44518098 0.08795437 -0.20919465 0.062124223 1.1381233e-22 -0.012126812 3.110137e-10
0.07384928 -0.18980592 0.2593839 -0.3769424 0.04834395 -0.00010603616 -5.638528e-05 0.008993919
0.47014412 -0.26514733 0.31206816 -0.49045366 -0.055291038 -2.6866137e-06 -0.020790111 0.05117796
-0.12463226 -0.015292799 -0.30753878 0.49633965 -0.035043355 -0.0002868148 -0.00019866764 2.1942089e-11
0.0482292 0.059931457 0.046719953 -0.16197471 8.9240046e-11 -1.9135206e-05 -0.10032261 -6.690211e-08
-0.3096468 -0.43783426 -0.09146088 0.20500803 0.094777636 2.4058492e-05 -2.689689e-12 -6.099153e-12
0.41579896 0.520127 0.059470497 -0.06333492 -0.09870224 -0.01266256 -0.045410197 -0.046983715
-0.5917647 0.18715726 -0.23459278 0.337513 0.0008384074 0.002982136 -2.515188e-07 0.017392775
0.30299777 0.3338832 -0.21927315 0.1519116 0.015537715 -0.00022312722 -0.06557925 -3.9845007e-05
-0.27982774 0.10365376 0.2410279 -0.27779642 1.659251e-14 -0.0002344188 0.03176487 -0.010196447
0.3019552 -0.20987459 -0.2553259 -0.32489097 8.862363e-15 -4.037067e-11 1.4283204e-23 -0.00017165861
-0.4022674 -0.43220955 0.22273974 -0.059632964 0.1160367 -1.10018555e-05 0.0436226 -2.7339236e-05
0.17304856 -0.14638616 0.31355816 -0.43548363 -4.910984e-05 0.004533507 -0.004059761 -0.0084013855
00000000: 8487 bdbe a604 6b3e e378 7abe 9704 823e
00000010: b9ee 709a f689 34bd ff82 17bb 6e23 3398
00000020: 9cb0 943d e763 e83d ad59 54be cd4e d0be
00000030: 3bc8 b33d cdd8 0f3d f89f 983d 8319 94b7
00000040: 845d aabe b5c0 dabe 0f57 a23e c2b5 cd3e
00000050: 5e73 4a25 9f8e dfbb c564 b222 3555 19bd
00000060: 8fa4 67be 4b5b f6be b607 0b3f 808d 93be
00000070: 8336 62bb d95c 493c ce59 293d f740 5b3d
00000080: f7c5 0bbf b994 5dbe 0882 6c3e cef4 7abe
00000090: d3cb b73d 831d 8cbd 3e29 6cbb ae3b 8ab9
000000a0: a797 5a3e 7e12 f33e 58d2 bdbe 0da0 d93e
000000b0: ac8b 7d3d 3c39 303d 64b4 7f3d 4473 fabc
000000c0: c790 06bf e54e f5be e7d7 873e 9193 58be
000000d0: 95fc a515 e348 da9f 03cd ebaf 2842 493d
000000e0: ba22 903c 428d 273e 85c7 cbbe 873c 87bd
000000f0: 36d2 4dbd 3b80 2f3c 68d3 01bd 48a2 edbc
00000100: c8af 953e 9798 11be 372e 453e 63c4 65be
00000110: 70d2 c518 c018 c3bd 6e49 6a37 11ca ca3d
00000120: 9f73 bf3e e1bb 8f3e 3c45 b03e 9c17 0cbd
00000130: e79a 343c 9192 033d e476 84b6 cda8 db3b
00000140: 4001 1f3f bc14 9a3d 9bdf cc3e 4311 4f3e
00000150: e5f5 2cba ae59 8518 3427 62bc d986 e0ba
00000160: 2a4e c73e f903 b43d c164 b0be 4dc7 e2bd
00000170: eedb 373b a8c5 f121 bc6b 3a18 7ba6 bd38
00000180: 10a4 603e cd22 fe3d 3128 893e 4a64 c5bd
00000190: 3c1d e7a1 eeb8 febc 1a99 973d 82a2 93bd
000001a0: 7d17 0bbf f15d 2ebe 6657 3dbe ce1b 463e
000001b0: 994f a83d ba33 76bd e0e5 783c 8b50 9abd
000001c0: e43a 593b 336e 06be 8e1f b63e 6579 0c3f
000001d0: a8dc b63d 4885 973d 9f65 4c3d e578 ee3d
000001e0: 35b4 0a3f 32ac 8bbe 321b 3f3e 8595 4cbd
000001f0: 569e 289d 1d6a 07bc 3e85 293d 8b00 ae3a
00000200: 767c 26bc 8c68 ba3b 6444 483d fa40 6fbc
00000210: f2f5 183a 9eec 74bc 5b29 943c 35a9 a43c
00000220: 69c8 273f f16c babe 2d3c cdbd fddc 063f
00000230: 73e2 00ba cb31 0f35 0127 ad3d 8c5e 5914
00000240: b952 0abf 2502 383d 95fc 03be fd18 e63b
00000250: 22dc 1f38 f8b3 4fbd 11cf 673d 8ac9 5536
00000260: c04a 04bf c3ee e3be 6c21 b43d 1f37 56be
00000270: f875 7e3d 3697 091b 89af 46bc 49fb aa2f
00000280: 4b3e 973d 7c5c 42be f7cd 843e 98fe c0be
00000290: 4e04 463d bb5f deb8 3c7f 6cb8 3b5b 133c
000002a0: bbb6 f03e 64c1 87be 66c7 9f3e be1c fbbe
000002b0: db78 62bd ac4b 34b6 0650 aabc fb9f 513d
000002c0: 333f ffbd a68e 7abc b975 9dbe 3b20 fe3e
000002d0: 9f89 0fbd a15f 96b9 7051 50b9 3101 c12d
000002e0: fb8b 453d b07a 753d 6c5d 3f3d b3dc 25be
000002f0: ae3d c42e 8b84 a0b7 f175 cdbd d3ab 8fb3
00000300: 068a 9ebe d02b e0be d84f bbbd a0ed 513e
00000310: c71a c23d 38d1 c937 2145 3dac 4998 d6ac
00000320: 9ae3 d43e 0b27 053f 5697 733d bdb5 81bd
00000330: 6624 cabd a076 4fbc 0b00 3abd ff71 40bd
00000340: e47d 17bf 27a6 3f3e 1739 70be 81ce ac3e
00000350: 91c8 5b3a f16f 433b 7b08 87b4 4b7b 8e3c
00000360: 8622 9b3e bdf2 aa3e 2489 60be b78e 1b3e
00000370: e691 7e3c 42f7 69b9 6a4e 86bd 401f 27b8
00000380: 9545 8fbe 6c48 d43d 05d0 763e 553b 8ebe
00000390: b973 9528 51ce 75b9 e11b 023d 000f 27bc
000003a0: df99 9a3e 5de9 56be 14ba 82be 1c58 a6be
000003b0: 6fa6 1f28 558d 31ae 8023 8a19 42ff 33b9
000003c0: fef5 cdbe 924a ddbe e315 643e b241 74bd
000003d0: a6a4 ed3d 9c94 38b7 9dad 323d 9056 e5b7
000003e0: a433 313e 41e6 15be b28a a03e b6f7 debe
000003f0: 4afb 4db8 d08d 943b be07 85bb f7a5 09bc

layers.0.bias f4 [32]
0.47542387 0.17344484 0.3418541 0.02748175 0.09793839 -0.015702954 0.051215064 0.2656653
0.34779158 -0.13231638 -0.11331288 0.06373178 0.41023073 0.3952752 0.13859458 0.025470315
0.44640663 0.30726334 0.29502606 -0.114593774 0.09888091 -0.18277015 0.042350937 0.23184441
-0.06348924 0.07829454 0.26937032 0.31137627 0.4693961 0.30468804 -0.1852654 0.109980464
00000000: c26a f33e 869b 313e 8007 af3e 6821 e13c
00000010: ec93 c83d 7ba3 80bc e3c6 513d 4805 883e
00000020: bd11 b23e f27d 07be 9510 e8bd cf85 823d
00000030: c309 d23e 8361 ca3e bdeb 0d3e 1fa7 d03c
00000040: 698f e43e 9f51 9d3e a80d 973e 24b0 eabd
00000050: 1382 ca3d 1928 3bbe 2d78 2d3d 9f68 6d3e
00000060: a606 82bd e358 a03d e8ea 893e b66c 9f3e
00000070: b054 f03e 1200 9c3e 37b6 3dbe 703d e13d

layers.1.weight f4 [32, 32]
-1.6175405e-06 -2.0317317e-21 -0.0005768195 -0.0025251326 -1.9305637e-05 -3.808165e-20 -3.185756e-12 1.5910582e-13
-0.0038946187 7.966677e-06 0.0015279246 2.1799865e-25 -4.7934486e-06 0.0019415702 -1.5686207e-25 2.7313441e-05
4.278826e-26 -1.3139743e-05 -0.0028369413 1.8085224e-05 5.998235e-20 -7.2505214e-12 0.0020731017 9.643792e-26
0.0062385243 9.9912494e-26 -0.0054876353 1.5820007e-14 0.0013322344 -0.000517894 -0.009208118 -0.004466589
-0.1475953 0.023219509 0.33602086 0.3729866 -0.11190108 -0.34818888 0.21324961 -0.3382142
0.06330216 0.37276608 0.34348255 0.03912887 0.16025195 -0.08528123 0.118057154 0.5132318
-0.023809846 0.14234342 -0.29528305 -0.20375325 0.15235741 0.27247208 0.18759213 -0.085773036
0.027236821 0.18434006 0.105570234 -0.21511969 -0.009500604 0.0053420174 0.0628577 0.1285256
-0.088115305 -0.012568453 0.25056013 0.32627615 0.25268352 0.077584326 0.049256645 0.012930235
0.06215418 0.005203976 -0.2767382 -0.19697477 0.16003284 -0.033165555 0.044089474 -0.31614366
0.022327784 0.045402262 0.12618172 0.40152314 0.24703482 -0.043265022 0.07339388 0.15949172
0.11444329 0.3099699 -0.016231997 0.17623878 0.020670168 -0.16063663 0.0591044 0.16046616
0.16990504 0.15201214 -0.010430712 -0.121834956 -0.076060705 -0.050404936 0.25301492 0.18097879
0.2504926 -0.1552611 -0.31278747 0.04840561 -0.041554056 -0.043737624 -0.04689219 -0.21667574
0.0873414 0.017148176 0.2789617 0.44238412 0.23942244 -0.11953717 0.09569841 0.27915674
0.14571683 0.041209076 0.2351743 0.07649805 0.08122418 0.17011197 0.09321704 0.090609394
-0.15551989 -0.19178489 0.43501008 0.33045396 0.25862116 -0.0989173 0.24351875 -0.30526933
0.33454922 0.30353966 0.5756733 -0.16921528 0.21768938 0.08176065 0.18084744 0.16671497
0.25844526 0.22471638 0.015249584 0.047644436 0.1527673 0.16125955 0.042971946 0.06495725
-0.093645535 0.02103664 0.11668198 -0.27919817 0.082039915 -0.104900375 0.292943 0.097007774
-0.056350153 0.017481936 0.11140335 0.26812217 0.2533625 0.1059583 0.1622977 -0.19427039
0.24573185 -0.16572818 -0.16005842 0.021299833 -0.0044425107 -0.07990672 0.053734615 -0.09416306
-0.020182388 0.040466916 0.103147045 0.1475023 0.02113827 -0.23338945 -0.003006567 0.07967702
0.06911456 0.3710815 -0.15171926 0.13229665 0.21070454 -0.11741619 0.096205056 -0.023857897
0.041813564 -0.052433874 -0.0067570675 -0.0045360248 0.0521086 -0.09967328 0.2839222 0.13077195
0.14101145 -0.2661752 -0.31199336 -0.00087060756 0.11201404 -0.08198566 0.077026345 -0.13255876
0.011487477 0.05633371 0.110112056 0.45107102 0.22837357 0.012127562 -0.101455174 0.13854204
0.0044766543 0.42878112 0.13212116 0.24990742 0.09602542 0.01658228 0.1907158 0.18298888
0.05235063 0.1227292 0.20211051 -0.069686435 0.07235714 -0.13921435 0.2905514 0.14209881
-0.09800828 -0.08111617 -0.31818303 -0.050925575 0.20453517 0.21535918 0.10242635 -0.19021009
0.27801937 -0.016882824 0.063512236 0.4218954 0.090370834 -0.22638991 0.13483065 0.16029246
0.27939886 0.29185674 -0.060113546 0.11804845 0.09733033 0.08493598 -0.079561 -0.10016021
00000000: 451a d9b5 6883 199d b435 17ba b27c 25bb
00000010: 8af2 a1b7 e4d5 339f 7a2d 60ac 2123 332a
00000020: dc3c 7fbb 9ea8 0537 a444 c83a 44ef 8616
00000030: 69d7 a0b6 497c fe3a 932f 4296 2b1f e537
00000040: 90e0 5315 c472 5cb7 faeb 39bb b9b5 9737
00000050: 1ba1 8d1f e41a ffac e0dc 073b cbc4 ee15
00000060: 896c cc3b 115f f715 9fd1 b3bb 747e 8e28
00000070: 5e9e ae3a 47c3 07ba a5dd 16bc 775c 92bb
00000080: 3923 17be d736 be3c ed0a ac3e 1af8 be3e
00000090: 652c e5bd d045 b2be 1b5e 5a3e 692a adbe
000000a0: 90a4 813d 32db be3e f2dc af3e 9845 203d
000000b0: 1619 243e eda7 aebd f3c7 f13d 2963 033f
000000c0: de0c c3bc 79c2 113e 572f 97be b1a4 50be
000000d0: 9503 1c3e 7681 8b3e 2718 403e c6a9 afbd
000000e0: c11f df3c a4c3 3c3e 3535 d83d 5648 5cbe
000000f0: 6ca8 1bbc 170c af3b 8abb 803d 379c 033e
00000100: cc75 b4bd eaeb 4dbc 6b49 803e ab0d a73e
00000110: bc5f 813e 88e4 9e3d 56c1 493d 56d9 533c
00000120: 6295 7e3d 1d86 aa3b a1b0 8dbe c1b3 49be
00000130: a6df 233e 9bd8 07bd 2a97 343d 95dd a1be
00000140: c2e8 b63c b9f7 393d c835 013e 7194 cd3e
00000150: b2f6 7c3e aa36 31bd 884f 963d cc51 233e
00000160: 3e61 ea3d 60b4 9e3e f7f8 84bc f077 343e
00000170: 7c54 a93c ee7d 24be 7517 723d 3e51 243e
00000180: 96fb 2d3e 12a9 1b3e 94e5 2abc 9b84 f9bd
00000190: b7c5 9bbd 6875 4ebd 2c8b 813e 8152 393e
000001a0: 9140 803e c4fc 1ebe ae25 a0be f644 463d
000001b0: 9634 2abd 3926 33bd 0612 40bd 3fe0 5dbe
000001c0: 0ce0 b23d 557a 8c3c 11d4 8e3e 2c80 e23e
000001d0: 282b 753e e7cf f4bd 87fd c33d a2ed 8e3e
000001e0: cb36 153e d9ca 283d 88d1 703e 02ab 9c3d
000001f0: dd58 a63d d531 2e3e 93e8 be3d 6b91 b93d
00000200: 9b40 1fbe 4263 44be a4b9 de3e 4331 a93e
00000210: fe69 843e 2795 cabd fb5c 793e 434c 9cbe
00000220: 094a ab3e 8d69 9b3e 535f 133f c546 2dbe
00000230: f7e9 5e3e 2172 a73d 1230 393e 54b7 2a3e
00000240: f052 843e 0d1c 663e 64d9 793c d026 433d
00000250: 086f 1c3e 3921 253e 5a03 303d 4f08 853d
00000260: 3bc9 bfbd 0855 ac3c f6f6 ee3d 10f3 8ebe
00000270: 8b04 a83d 02d6 d6bd a0fc 953e 03ac c63d
00000280: 6bcf 66bd 4736 8f3c 7127 e43d 4f47 893e
00000290: bbb8 813e aa00 d93d 5e31 263e d1ee 46be
000002a0: 21a1 7b3e a6b4 29be 5be6 23be fd7c ae3c
000002b0: 7b92 91bb 22a6 a3bd d418 5c3d 90d8 c0bd
000002c0: 8955 a5bc a3c0 253d c23e d33d d80a 173e
000002d0: 2a2a ad3c a5fd 6ebe d309 45bb b52d a33d
000002e0: ef8b 8d3d 65fe bd3e 4b5c 1bbe c678 073e
000002f0: eec2 573e e677 f0bd 2807 c53d a371 c3bc
00000300: b344 2b3d e7c4 56bd 646a ddbb efa2 94bb
00000310: d46f 553d 8121 ccbd 405e 913e 15e9 053e
00000320: 4e65 103e 1e48 88be 98bd 9fbe 7c39 64ba
00000330: 9e67 e53d 19e8 a7bd fdbf 9d3d 7cbd 07be
00000340: f935 3c3c 2dbe 663d 6e82 e13d c8f2 e63e
00000350: c3da 693e afb2 463c bbc7 cfbd f7dd 0d3e
00000360: e6b0 923b 3389 db3e c54a 073e bbe7 7f3e
00000370: faa8 c43d 90d7 873c 014b 433e 7061 3b3e
00000380: 9d6d 563d 7259 fb3d 0ff6 4e3e c3b7 8ebd
00000390: fb2f 943d 358e 0ebe 27c3 943e 5a82 113e
000003a0: 91b8 c8bd 3c20 a6bd e3e8 a2be 5697 50bd
000003b0: ab71 513e 1e87 5c3e e8c4 d13d 6fc6 42be
000003c0: 8e58 8e3e d94d 8abc b412 823d ad02 d83e
000003d0: 5814 b93d c2d2 67be 0c11 0a3e b523 243e
000003e0: 5e0d 8f3e 3f6e 953e 9f39 76bd 63c3 f13d
000003f0: 2055 c73d eaf2 ad3d e1f0 a2bd cc20 cdbd

layers.1.bias f4 [32]
-0.000120804536 0.21020329 0.08528636 0.28445202 0.21509504 0.19176 0.24695638 0.2263976
0.047001295 0.080665186 0.14810602 0.25015742 0.17037289 0.25875592 0.12582316 0.16298342
0.18643649 0.0038422332 0.17269737 0.17161179 0.22340079 0.16920958 0.064337045 0.096970074
0.20187217 0.15009005 0.23961484 0.15852015 0.028580172 -0.03291154 0.22839487 0.017547166
00000000: 7158 fdb8 883f 573e 9daa ae3d b2a3 913e
00000010: e041 5c3e bc5c 443e 22e2 7c3e c6d4 673e
00000020: 6e84 403d ca33 a53d 1ba9 173e a214 803e
00000030: 3b76 2e3e a87b 843e c9d7 003e 20e5 263e
00000040: 35e9 3e3e facd 7b3b 94d7 303e 00bb 2f3e
00000050: 2dc3 643e 4745 2d3e 24c3 833d 3f98 c63d
00000060: 94b7 4e3e 35b1 193e 985d 753e 1b53 223e
00000070: f720 ea3c 40ce 06bd 58e0 693e 13bf 8f3c

layers.2.weight f4 [32, 32]
-0.0034519413 -0.029532196 -0.014385901 0.010033687 -0.021812998 0.0998527 0.13649535 -0.16811772
-0.06920168 -0.13121916 -0.07506136 -0.04193222 -0.20228507 -0.17282917 -0.12069932 -0.06301967
-0.06557059 0.056407973 0.0075958036 -0.1581423 -0.12404866 -0.15423612 0.13634844 -0.14970748
0.060282715 0.14785612 -0.18588488 0.013763599 0.009454312 -9.947282e-19 0.090243086 0.06864587
-2.208739e-05 0.17036106 0.22461839 -0.08858453 0.3972068 -0.05134352 -0.0982337 0.055087928
-0.25241625 0.019557877 0.16406168 0.24114464 0.06589814 -0.22302058 -0.087257706 -0.14015584
0.26097253 0.26520467 -0.37296262 -0.17074151 0.1264857 0.19707131 0.24708706 -0.032314997
0.070021234 0.1745389 0.089116424 0.115474656 0.030150922 0.24099988 -0.22525913 0.1874963
0.009079163 0.10084609 -0.03213817 0.035774812 -0.1202253 -0.15724838 0.02134245 0.10151313
-0.13981485 -0.08269787 -0.0836657 -0.049781576 -0.05710147 -0.02041767 -0.07064965 -0.023668917
0.08636753 0.104276136 0.097283505 -0.17952192 -0.09930812 0.13020234 -0.16190119 -0.0020428863
0.13022484 -0.17172472 -0.05775762 -0.07497973 0.09834839 0.00034638273 0.07033119 -0.14728515
-0.003408499 -0.43483087 0.15515415 0.1701052 0.10311722 0.21060136 0.20161566 0.10778983
-0.087617636 0.024494885 -0.028903423 -0.30150947 0.30428806 0.07244375 0.12194091 0.123086825
0.09737424 0.07217645 -0.3432702 0.22785905 0.0018297286 -0.14469501 0.20109981 0.2046903
0.14782244 0.28764346 -0.055690017 -0.032741424 -0.029003998 -0.2696652 0.30870482 0.19309503
-0.005934302 0.10241254 0.07447435 0.0142933205 -0.0007533199 0.20587297 0.07378188 0.003962914
0.0439722 -0.09102505 0.26472428 0.009416854 -0.0015773557 -0.02681893 -0.015245499 0.063388355
0.063663505 0.26904005 -0.18561022 -0.014940202 -0.09164983 0.18089588 -9.745185e-06 0.13168506
0.03747128 0.17768686 -0.08567413 -0.10167552 0.16251045 -0.2443789 0.14468592 0.15504259
-0.0022516174 -0.16118991 0.021092882 0.034069844 -0.18086801 -0.08894213 0.030036664 -0.005523081
-0.06679858 0.10852524 0.1285348 -0.17126086 0.05076153 0.21826321 0.15513887 0.086656004
0.07964539 -0.15966767 -0.18387195 0.042535625 0.10217146 0.1282861 0.052977864 -0.12853539
0.14260331 -0.102376625 0.15150757 0.14490432 -2.4893865e-07 0.20619996 -0.1308131 -0.013529145
-0.0016356687 0.23392409 0.16604441 0.06854237 0.28697205 0.08324808 0.15566474 0.14619404
-0.016962392 -0.019817676 -0.09145093 -0.21470754 0.09378756 0.24380797 -0.0643256 0.25113073
0.12423698 -0.01270733 -0.074520476 -0.0050625345 0.26772365 0.2807841 0.07556296 0.0053466987
0.08494541 0.026124919 0.30132568 0.31969798 0.023700034 -0.1771114 0.15968357 0.27230504
5.58905e-05 -0.11582013 0.13685207 0.1482321 -0.11547778 0.0017174778 -0.08269049 -0.0040216744
0.03185342 0.30610472 0.11220251 -0.35307214 0.20338857 0.3223125 0.16092274 -0.0031429906
0.04883159 -0.1195478 -0.3702076 -0.09013311 0.23813514 0.15348768 0.20491531 -0.03409118
0.22405715 -0.12760553 0.2699159 0.29875207 -0.06641773 -0.07445559 0.11230182 0.07474963
00000000: f739 62bb 81ed f1bc d8b2 6bbc 5564 243c
00000010: 2cb1 b2bc 937f cc3d 70c5 0b3e 0d27 2cbe
00000020: 9cb9 8dbd 515e 06be c5b9 99bd 1fc1 2bbd
00000030: d123 4fbe 21fa 30be 3531 f7bd 7510 81bd
00000040: e049 86bd 0c0c 673d 38e6 f83b 0ef0 21be
00000050: 390d febd 13f0 1dbe ed9e 0b3e eb4c 19be
00000060: 02eb 763d 9867 173e 9b58 3ebe b880 613c
00000070: 42e6 1a3c c5cb 92a1 5ed1 b83d 3596 8c3d
00000080: 4f48 b9b7 2173 2e3e 5d02 663e ce6b b5bd
00000090: b15e cb3e 954d 52bd c02e c9bd e1a3 613d
000000a0: b43c 81be d737 a03c c9ff 273e 9fee 763e
000000b0: 9bf5 863d 825f 64be 2bb4 b2bd 0385 0fbe
000000c0: 319e 853e e8c8 873e f5f4 bebe ddd6 2ebe
000000d0: 7885 013e 10cd 493e 6404 7d3e bb5c 04bd
000000e0: 4b67 8f3d 53ba 323e ac82 b63d fa7d ec3d
000000f0: 11ff f63c acc8 763e 54aa 66be 08ff 3f3e
00000100: c5c0 143c 6588 ce3d 50a3 03bd 9c88 123d
00000110: af38 f6bd b805 21be 5dd6 ae3c 1ee6 cf3d
00000120: a02b 0fbe 805d a9bd ec58 abbd c4e7 4bbd
00000130: 3be3 69bd f542 a7bc c4b0 90bd 51e5 c1bc
00000140: 76e1 b03d ba8e d53d 933c c73d 98d4 37be
00000150: 0e62 cbbd c353 053e 6dc9 25be f2e1 05bb
00000160: a959 053e 9bd8 2fbe 4193 6cbd f98e 99bd
00000170: e16a c93d b49a b539 cd09 903d ebd1 16be
00000180: 2061 5fbb 27a2 debe bbe0 1e3e 0f30 2e3e
00000190: 1f2f d33d e2a7 573e 5674 4e3e eac0 dc3d
000001a0: e070 b3bd 7fa9 c83c dfc6 ecbc 735f 9abe
000001b0: a5cb 9b3e 645d 943d 28bc f93d f214 fc3d
000001c0: 256c c73d 3fd1 933d 1dc1 afbe e253 693e
000001d0: 81d3 ef3a ee2a 14be 1ced 4d3e 569a 513e
000001e0: c45e 173e 0146 933e 371b 64bd df1b 06bd
000001f0: cb99 edbc 8f11 8abe 8f0e 9e3e b4ba 453e
00000200: 8974 c2bb aabd d13d 0286 983d 882e 6a3c
00000210: 717a 45ba 5dd0 523e f41a 973d 55db 813b
00000220: 321c 343d 576b babd f189 873e 2649 1a3c
00000230: 46bf ceba 5fb3 dbbc 42c8 79bc c1d1 813d
00000240: 0362 823d 9ebf 893e 9b10 3ebe c0c7 74bc
00000250: e8b2 bbbd c53c 393e 407f 23b7 73d8 063e
00000260: 7c7b 193d 8bf3 353e eb75 afbd 413b d0bd
00000270: 2469 263e 763e 7abe 8c28 143e 7cc3 1e3e
00000280: df8f 13bb f80e 25be fbca ac3c d28c 0b3d
00000290: 7735 39be 4b27 b6bd 730f f63c f6fa b4bb
000002a0: b2cd 88bd 7b42 de3d a09e 033e 025f 2fbe
000002b0: 52eb 4f3d 6480 5f3e b9dc 1e3e b478 b13d
000002c0: 1f1d a33d ec7f 23be ee48 3cbe d639 2e3d
000002d0: 453f d13d 6e5d 033e 51ff 583d c89e 03be
000002e0: 9a06 123e d6aa d1bd cd24 1b3e cc61 143e
000002f0: dea5 85b4 1526 533e dff3 05be 59a9 5dbc
00000300: ef63 d6ba cc89 6f3e 8c07 2a3e f15f 8c3d
00000310: 00ee 923e f87d aa3d 9466 1f3e e4b3 153e
00000320: b7f4 8abc ae58 a2bc a04a bbbd 4bdc 5bbe
00000330: b113 c03d cca8 793e 24bd 83bd 3594 803e
00000340: f56f fe3d 6832 50bc 319e 98bd 9ee3 a5bb
00000350: 1313 893e efc2 8f3e c1c0 9a3d 5c33 af3b
00000360: dcf7 ad3d ed03 d63c 5c47 9a3e 74af a33e
00000370: 9326 c23c b15c 35be 1784 233e 916b 8b3e
00000380: f86b 6a38 1b33 edbd f322 0c3e 28ca 173e
00000390: 9d7f ecbd fe1c e13a a259 a9bd 40c8 83bb
000003a0: bb78 023d c2b9 9c3e 6eca e53d dfc5 b4be
000003b0: 1845 503e 2506 a53e eec8 243e a2fa 4dbb
000003c0: a203 483d 7ad5 f4bd da8b bdbe b597 b8bd
000003d0: b3d9 733e e02b 1d3e 52d5 513e 31a3 0bbd
000003e0: 3d6f 653e 06ab 02be 6b32 8a3e 08f6 983e
000003f0: 0506 88bd 2c7c 98bd 7ffe e53d 5616 993d

layers.2.bias f4 [32]
0.14920981 -0.1412538 0.043312136 0.22107612 0.19796889 0.007983816 0.14591189 -0.020195479
-0.006773483 0.081099056 0.23034358 0.063451394 -0.0656095 -0.0063629295 -0.071439214 -0.052319683
0.14285617 -0.12454619 0.016563648 -0.002012277 0.120595984 0.15264067 0.07000063 0.12855233
-0.037817392 -0.0010435089 0.08225493 0.0402368 0.30790403 0.08974028 0.025443576 -0.0012301115
00000000: 75ca 183e d6a4 10be 1168 313d c761 623e
00000010: 5bb8 4a3e 8dce 023c ed69 153e fd70 a5bc
00000020: 18f4 ddbb 4317 a63d 30df 6b3e cef2 813d
00000030: 465e 86bd 1f80 d0bb b94e 92bd 2a4d 56bd
00000040: e348 123e 1312 ffbd 7db0 873c 68e0 03bb
00000050: 07fb f63d d64d 1c3e 7e5c 8f3d 39a3 033e
00000060: 69e6 1abd 59c6 88ba 4675 a83d 58cf 243d
00000070: 99a5 9d3e c0c9 b73d 0c6f d03c b13b a1ba

layers.3.weight f4 [34, 32]
0.018442838 -0.09901986 0.036740065 0.05290939 0.07770302 -0.22714818 -0.09885407 -0.09836456
-0.0003215594 -0.17658415 0.08596477 -0.1624337 -0.24430491 -0.0057811826 -0.10229297 -0.03126809
-0.093355335 9.443244e-06 0.1260218 -1.1022524e-22 -0.13669129 0.06538341 -0.063332334 -0.0072657745
-0.22156176 0.001413876 -0.16289845 0.1541441 0.15536726 -0.17999098 -0.3254431 -3.0361958e-05
-0.03274437 0.007203458 -0.10207584 0.1925558 0.19456409 -0.08065544 0.13194616 0.21305326
1.3428444e-08 0.0047286577 0.12258224 0.087587796 0.059935078 -0.0007826866 -0.37499806 0.11271839
0.15586673 -0.0132087525 0.18707208 -1.658487e-24 0.23457147 -0.09798545 0.19633888 -0.20867984
0.28634888 -2.7491337e-26 -0.10012586 -0.05512339 0.022471767 0.1552921 -0.20736153 0.00016787363
-0.15400785 -0.07974929 0.048044637 0.045415793 -0.098045334 -0.014091732 -0.18812501 0.017660975
-0.007136804 0.045761712 0.052218605 -0.20381905 -0.011315462 2.3521516e-09 -0.23423204 -0.17197649
-0.029501468 -0.000843405 -0.15839544 0.008248257 -0.0678838 -0.34206563 -0.23202854 -0.2663812
0.022249438 -1.7214557e-05 0.15008123 0.008360056 -0.07375533 -0.0014903676 0.15138 3.2024033e-08
0.13506581 0.27648842 -0.09470365 0.07063071 0.05132766 -0.23586448 -0.05307105 -0.13980353
-0.0017957572 -0.3348411 0.0054936623 0.06938189 0.00455249 -5.2833373e-05 -0.011807028 0.07156668
0.05230549 -0.00022508865 -0.1375988 1.3646944e-12 -0.1973303 0.11743401 0.031575926 -0.003302053
-0.1528719 -6.6273065e-10 0.124604166 0.11965319 -0.46491113 -0.23326673 -0.5528163 7.955399e-05
-0.08637749 -0.42661762 0.1049516 -0.017196344 -0.18460575 -0.24097486 0.07319344 -0.027492885
0.0011229959 -0.12418743 -0.039044853 -0.067773916 -0.21850544 0.005966947 -0.23159885 0.03050779
0.036219776 0.0006300541 0.09540699 0.0082838675 -0.02230604 0.03995278 -0.22732003 0.33572635
-0.11418899 -2.9738251e-08 0.15772292 0.04205237 0.12648825 -0.20867689 -0.10952557 2.2328395e-25
-0.05093399 0.27091566 -0.13183609 -0.044067174 -0.015299899 -0.24723226 -0.18108171 -0.052679826
0.00012596094 -0.18019763 -0.08131719 -0.11026673 0.04166211 2.430554e-10 0.04972255 -0.23131126
-0.02722933 0.0026845047 0.062531635 -1.2751046e-06 -0.21751821 0.10204859 0.10124908 0.105311565
-0.086451076 7.851784e-06 -0.009273467 -0.11533621 -0.17958415 -0.015744438 -0.43652537 3.042734e-19
-0.15663742 0.1126138 -0.034816824 -0.32627198 -0.07336647 -0.21985841 0.047868002 -0.054717906
9.515647e-08 -0.35809278 0.11883603 -0.10358826 -0.12955935 -3.4233613e-05 0.22682373 -0.0458177
-0.054627527 -6.000927e-05 0.074192785 -0.00018768004 -0.22780418 0.07795316 -0.098246284 0.31235
-0.23686302 0.0015291442 -0.0065055005 0.098939985 -0.44420442 -0.2709213 -0.38447022 -0.007870382
0.13645159 0.028105384 -0.0088318465 0.09558205 0.09098589 -0.002040527 -0.18811502 -0.13846023
0.0013019694 0.2506516 -0.0104004955 -0.18007857 0.13489474 1.4298592e-08 -0.2784657 -0.06378424
-0.058316734 -0.0016748795 -0.048802786 -4.4367963e-09 -0.09687986 -0.39857697 -0.16480066 -0.33450013
-0.107408084 -0.008709501 -0.14625177 0.09716441 -0.07168266 0.038118884 0.30219913 0.00014279774
00000000: 6f15 973c edca cabd c07c 163d 84b7 583d
00000010: c322 9f3d 8899 68be 0174 cabd 5c73 c9bd
00000020: f996 a8b9 7ad2 34be 4c0e b03d 0555 26be
00000030: 112b 7abe 1370 bdbb fa7e d1bd f812 00bd
00000040: 1531 bfbd 6d6e 1e37 dc0b 013e 0f41 059b
00000050: cdf8 0bbe bde7 853d 62b4 81bd bc15 eebb
00000060: 16e1 62be ce51 b93a dace 26be f3d7 1d3e
00000070: 9818 1f3e 8e4f 38be 7aa0 a6be cfb1 feb7
00000080: f61e 06bd fc0a ec3b 230d d1bd 592d 453e
00000090: cf3b 473e ae2e a5bd e51c 073e a22a 5a3e
000000a0: ecb2 6632 dbf2 9a3b 660c fb3d 3b61 b33d
000000b0: 7c7e 753d 352d 4dba bfff bfbe e6d8 e63d
000000c0: 879b 1f3e 8669 58bc d38f 3f3e b851 0098
000000d0: 8133 703e 98ac c8bd 0f0d 493e 2bb0 55be
000000e0: 529c 923e 6921 0895 c90e cdbd 10c9 61bd
000000f0: b616 b83c e404 1f3e 9556 54be 3c07 3039
00000100: 3cb4 1dbe 9953 a3bd 74ca 443d e905 3a3d
00000110: fecb c8bd 02e1 66bc d8a3 40be c0ad 903c
00000120: dadb e9bb a270 3b3d 2de3 553d f1b5 50be
00000130: 7d64 39bc 7da3 2131 86da 6fbe 9b1a 30be
00000140: 10ad f1bc f417 5dba 6a32 22be b323 073c
00000150: a906 8bbd 3a23 afbe e498 6dbe 1e63 88be
00000160: 7444 b63c fb67 90b7 e5ae 193e 9ef8 083c
00000170: 090d 97bd 7058 c3ba 5c03 1b3e cc8a 0933
00000180: b14e 0a3e e48f 8d3e fdf3 c1bd d5a6 903d
00000190: f43c 523d 7586 71be 0861 59bd a828 0fbe
000001a0: 9d5f ebba 4b70 abbe 2e04 b43b 1818 8e3d
000001b0: 0e2d 953b 6799 5db8 4472 41bc 8d91 923d
000001c0: 483e 563d c605 6cb9 b3e6 0cbe 4c10 c02b
000001d0: f410 4abe 3e81 f03d c255 013d 4267 58bb
000001e0: 748a 1cbe 862b 36b0 7830 ff3d bb0c f53d
000001f0: d508 eebe 79dd 6ebe 5e85 0dbf 39d6 a638
00000200: aee6 b0bd a06d dabe ddf0 d63d 59df 8cbc
00000210: 4a09 3dbe 1dc2 76be 71e6 953d c238 e1bc
00000220: 7d31 933a fb55 febd 7fed 1fbd 0dcd 8abd
00000230: e4bf 5fbe 6186 c33b 4028 6dbe 79eb f93c
00000240: 305b 143d 372a 253a bd64 c33d 0fb9 073c
00000250: 28bb b6bc 87a5 233d 95c6 68be 53e4 ab3e
00000260: ebdb e9bd 1b73 ffb2 1e82 213e 1b3f 2c3d
00000270: 2386 013e 65af 55be f14e e0bd c134 8a16
00000280: 29a0 50bd 75b5 8a3e 0a00 07be c87f 34bd
00000290: 6dac 7abc 742a 7dbe 7c6d 39be cdc6 57bd
000002a0: 6214 0439 ba85 38be a089 a6bd 86d3 e1bd
000002b0: e3a5 2a3d 029f 852f dfa9 4b3d dcdc 6cbe
000002c0: 0b10 dfbc 84ee 2f3b 9610 803d 4324 abb5
000002d0: 18bd 5ebe dafe d03d ad5b cf3d 97ad d73d
000002e0: 430d b1bd 28bb 0337 bdef 17bc 6435 ecbd
000002f0: e8e4 37be 7bfa 80bc 4180 dfbe 7f9c b320
00000300: 8f65 20be 10a2 e63d 169c 0ebd 1f0d a7be
00000310: 2941 96bd 9022 61be 3d11 443d e21f 60bd
00000320: d358 cc33 f057 b7be 4e60 f33d 1526 d4bd
00000330: 35ab 04be 1096 0fb8 7b44 683e 57ab 3bbd
00000340: 1dc1 5fbd 77b2 7bb8 63f2 973d facb 44b9
00000350: 8045 69be e8a5 9f3d 5935 c9bd 57ec 9f3e
00000360: 388c 72be 916d c83a 182c d5bb 0ca1 ca3d
00000370: c36e e3be 32b6 8abe 48d9 c4be c6f2 00bc
00000380: f7b9 0b3e 433d e63c 73b3 10bc 86c0 c33d
00000390: cf56 ba3d 5dba 05bb 39a1 40be 85c8 0dbe
000003a0: d8a6 aa3a 6855 803e d766 2abc 8466 38be
000003b0: d921 0a3e dfa5 7532 0e93 8ebe 50a1 82bd
000003c0: 87dd 6ebd a187 dbba 6ee5 47bd 7972 98b1
000003d0: f368 c6bd 4812 ccbe 81c1 28be 9a43 abbe
000003e0: c5f8 dbbd 4bb2 0ebc 06c3 15be 22fe c63d
000003f0: 5cce 92bd 8c22 1c3d d8b9 9a3e fabb 1539

layers.3.bias f4 [34]
-0.016246498 0.19769196 -0.020348396 -0.019075941 0.16426633 -0.022097657 0.062105488 -0.20211828
-0.12513566 -0.03994163 -0.15437336 -0.16364838 0.010294832 0.15411964 -0.035258647 -0.13232936
0.1386065 -0.11682054 -0.116756715 0.0019226971 -0.1324794 0.035728604 -0.07563601 -0.12504388
0.057926625 -0.09815437 -0.1827155 0.029500896 -0.11918134 -0.16633189 -0.11234369 0.012612498
-0.18420833 0.07259306
00000000: 6017 85bc c36f 4a3e aeb1 a6bc 2645 9cbc
00000010: 6f35 283e 2506 b5bc 5362 7e3d 18f8 4ebe
00000020: 9023 00be d699 23bd 0d14 1ebe 7193 27be
00000030: a8ab 283c 8ad1 1d3e 5f6b 10bd 5981 07be
00000040: ddee 0d3e 9b3f efbd 251e efbd 0203 fc3a
00000050: aea8 07be 2858 123d 0de7 9abd 810b 00be
00000060: 7844 6d3d 2905 c9bd c619 3bbe ddab f13c
00000070: 5915 f4bd e852 2abe 7314 e6bd a7a4 4e3c
00000080: 1ca1 3cbe acab 943d
