CoCo_cartpole_20250305_0034.pt (torch, 17712 bytes, 8 tensors)

layers.0.weight f4 [32, 8]
00000000: ebe5 1ebd 15e8 45be 519f e9be 775a b1be
00000010: 215e 693d 5e9b 11bd a3de 323b ec98 64bd
00000020: 862f b8be 9be3 e5be 9d22 aa3e 34c8 b1be
00000030: 6b40 2c1b 4609 8d3d 0f37 8dbd 4e18 bfbc
00000040: d98a 893e f5da efbe d48e be3e 6178 143d
00000050: 3961 df3d 6851 7f3b cb7c 1a3c 01ad 3434
00000060: 8aa4 9fbe 2c49 a2be 049d ae3e 8f44 e3be
00000070: 29d9 a89c 1c38 093c c655 4cbd b460 c43c
00000080: 7125 b23e d99e ca3e 8d4e debe 1fd4 61bc
00000090: 339f 80bd 4fdf c93c 88fe 923b 503b f0ba
000000a0: 755b 7e3e cd3f 053f 715f a23e e8e5 cd3d
000000b0: b04d 273c 2441 fa22 491e 30bc ba13 ab3d
000000c0: bba8 f3bb d9db 543e d533 81be 47c7 5f3e
000000d0: d78f 42bd 3f74 01b7 c14e 26bc 9069 92bd
000000e0: 88ee fdbe 17b6 4d3e 09ce 07be 19c4 3dbd
000000f0: 6f74 ecbb 6e46 c296 23b3 f3bc 893e ee3c
00000100: 943f b1be c99e 48be 2907 81be 3e1d 0dbd
00000110: 8a01 adbb 71ba 04bc f1bc 8332 ae94 e5bd
00000120: e079 91bd 190c 683d 70a1 73be ee05 6d3e
00000130: 9987 1296 482c 65ba fef7 6bbc 2264 ff3a
00000140: 90e1 2fbf 58b1 d23e f931 f2be a5cf 863e
00000150: 2499 8e3d 08fc 863d 1e4e 29bb e240 2c1f
00000160: 2c25 ea94 a9f4 269e f963 c215 1c02 bf15
00000170: ac28 38bc 1893 c6bb ea84 253a f1cd 2bbc
00000180: 6ec1 96be acea a7be a342 a63e f395 963e
00000190: 5f30 ca38 3d61 ab36 8019 5f31 534c 5cb9
000001a0: 0394 debb 693d 313e 9c14 e43e ce63 b73e
000001b0: 04b2 9b3d b9e3 99b6 0bb6 40bc cc5a 8495
000001c0: cae9 083f d34b 073c cc9c 8c3e ab67 0abe
000001d0: b648 cebd 0b06 abba 9baf a4bb 6088 3438
000001e0: 3785 ef3d 4aa8 793e b83e 85be f652 933e
000001f0: 0e76 42b6 d03d 4c30 6a64 483c 28b7 34bb
00000200: 9fa4 8b3e 4a56 34be 958f 5bbe 37b5 c5be
00000210: 55c3 a2bb 1789 d9bd fb41 76ba 8e1d 16bc
00000220: f27f 06bf 21a7 6c3e 4d9b 403d 1ac0 8f3e
00000230: 2b1c 2d3c 4b28 6d34 f572 0fbc 30f0 283d
00000240: 00a5 0bbf 8d9f c53e 693d ad3e 4269 7ebe
00000250: 5bf2 dfbc 4288 2fbd cf77 45ba acd6 29bc
00000260: 884f 7ebe 63d8 603e 29d8 95be be08 d1be
00000270: b874 f139 cc18 6dbd 666e 9238 f24c 43bc
00000280: 58e4 2abe 2a1e 08bf b38f 75be 30e3 c3be
00000290: 2969 1a3d b371 323a c74c 2c3d abaf a4bd
000002a0: 3fe7 513e 4e1f bd3d 5426 f9be ca11 d63e
000002b0: 8474 37bb d8d5 48b7 72e9 873d 81ec f6bc
000002c0: 9a29 b13e 25ae 2f3c b916 bb3e e561 c2be
000002d0: f6ba e1bd 2154 9e38 3985 dabd 09e5 04bc
000002e0: 8b0e 3e3e f2a8 9abc 20ee 523d 548d 81be
000002f0: e771 32b2 9f32 4495 442e ecbd b099 29b8
00000300: 565c a03c 4feb 27ba ee5c 3339 8029 86b8
00000310: 1536 e932 3007 8a27 71f0 f1b2 df8d 96bd
00000320: 544c c6bd 8a8c ba3e df03 3cbe db57 ad3e
00000330: 19db 13bd 8e05 29bd 24dc 493a dc46 203d
00000340: 5170 cb3e 721d f73e 4f12 d5be 2c4b 99bc
00000350: 0fe2 24bd 1b06 84b6 e06a 043d 99cc 55bd
00000360: 1a32 4a3e 2655 eabd d154 cebe 5568 ecbc
00000370: 9ff1 1ebd d0b2 d0bd 6580 71b8 05f7 253c
00000380: a0b8 a4be 8396 d5be 4576 c03e 7b93 01be
00000390: 5f3c ed3d 2046 29a3 e5cc 399f 6c48 a9a7
000003a0: f416 d93d 0de3 8a3e 16d7 edbe f404 cb3e
000003b0: a129 243b 40fd 0abd 023a 2ea1 d431 04bd
000003c0: b930 40bc 9a62 76be 12cb cebe 48d1 053f
000003d0: 2974 bf3d fd9f 833c 58d0 119f 6d54 0bbc
000003e0: 55d7 1cbe 69ca ddbe 747d c53e 2abe 72be
000003f0: a710 019e c873 763d 2c51 2928 c4c0 1837
-0.038793486 -0.19326814 -0.4562936 -0.34639332 0.056974534 -0.03554856 0.0027293346 -0.0558099
-0.35973758 -0.44900212 0.33229533 -0.34723055 1.4248321e-22 0.068865344 -0.06895267 -0.023327019
0.26863745 -0.46846738 0.37218344 0.036247615 0.109072156 0.0038958434 0.009429167 1.6826745e-07
-0.3118022 -0.3169645 0.34104168 -0.44388244 -1.1173442e-21 0.008375194 -0.049886487 0.023971893
0.3479419 0.39574316 -0.43419304 -0.013783484 -0.06280365 0.024642615 0.004485909 -0.0018328223
0.24839576 0.5205048 0.3171344 0.10053617 0.010211393 6.7831606e-18 -0.010749408 0.08353372
-0.0074358857 0.2078699 -0.25234857 0.21853362 -0.047500458 -7.716065e-06 -0.010150612 -0.07149041
-0.49596047 0.20088993 -0.1326219 -0.04632959 -0.0072160284 -3.1386838e-25 -0.029748505 0.029082553
-0.3461882 -0.19591822 -0.25200775 -0.034451716 -0.0052797245 -0.008101092 1.5336328e-08 -0.11209999
-0.07103324 0.056652162 -0.23792052 0.23146793 -1.1836573e-25 -0.0008742255 -0.014402388 0.0019484798
-0.68703556 0.41150928 -0.4730375 0.26330295 0.06962803 0.0659104 -0.0025833915 3.6476087e-20
-2.3642624e-26 -8.838561e-21 7.8513705e-26 7.7147614e-26 -0.011240166 -0.0060600154 0.0006314056 -0.010486112
-0.2944445 -0.32796228 0.32472715 0.29411277 9.6411204e-05 5.107517e-06 3.2465266e-09 -0.00021009268
-0.0067925467 0.17308582 0.44546974 0.35818332 0.07602313 -4.5862657e-06 -0.011762152 -5.345763e-26
0.53481734 0.008257824 0.27463377 -0.13516109 -0.10072462 -0.0013048066 -0.0050258166 4.3042353e-05
0.116953306 0.24380603 -0.26024413 0.28774232 -2.897697e-06 7.430261e-10 0.012230972 -0.002757499
0.27274033 -0.17611042 -0.21441491 -0.38614818 -0.004967133 -0.10621851 -0.0009393987 -0.00916232
-0.5253898 0.2311063 0.047023106 0.2807625 0.010565798 2.2087004e-07 -0.008755435 0.041244686
-0.54548645 0.3859829 0.33835915 -0.2484484 -0.027337244 -0.042854555 -0.00075328065 -0.010366123
-0.24835026 0.21957545 -0.2926648 -0.40826982 0.00046054064 -0.057884976 6.982386e-05 -0.011920201
-0.16688669 -0.53171027 -0.23980598 -0.38259268 0.037697945 0.00068071036 0.042065408 -0.080413185
0.2049837 0.092344865 -0.48662055 0.41810447 -0.0027993033 -1.1970718e-05 0.06636323 -0.03014207
0.34602052 0.010722672 0.36540774 -0.37965313 -0.11021988 7.549697e-05 -0.106699415 -0.008111247
0.18560235 -0.018879388 0.051496625 -0.25303137 -1.0386862e-08 -3.9621818e-26 -0.11532262 -4.0435873e-05
0.01957528 -0.0006405608 0.00017105389 -6.397348e-05 2.7149364e-08 3.8310487e-15 -2.8165433e-08 -0.073512785
-0.09682527 0.36435348 -0.18360852 0.3385609 -0.03609762 -0.041265063 0.0007700345 0.039130077
0.39734128 0.48264652 -0.4161553 -0.018712603 -0.04025465 -3.9346173e-06 0.032328486 -0.052197073
0.19745675 -0.11442022 -0.40299085 -0.028858343 -0.038804647 -0.10190356 -5.7578454e-05 0.010129695
-0.32172108 -0.41716394 0.37590232 -0.12653916 0.115837805 -9.176358e-18 -3.934476e-20 -4.6985443e-15
0.10600081 0.2712635 -0.4645316 0.39652216 0.0025049227 -0.033932924 -5.9030266e-19 -0.032274082
-0.011730366 -0.24061051 -0.40389305 0.5227246 0.09348328 0.0160675 -3.0877282e-20 -0.008504015
-0.15316518 -0.4331849 0.38572276 -0.23705354 -6.832647e-21 0.06016901 9.398986e-15 9.104788e-06

layers.0.bias f4 [32]
00000000: 4989 053e 1cad a0bc 9462 f33e 89be bd3c
00000010: 8aab 8dbd 25f4 c43c b8fb 223d 9ec5 bb3e
00000020: 6f31 9ebd 4bb6 d53e b174 29be 9342 62bd
00000030: 11d0 4bbe 4f94 f43d 614f d43b b03b 1c3d
00000040: 5a84 863e 6fad 393e 1e3b e73e ce1d 123d
00000050: 9c8c 55be f63d db3d 736a 313e b51e c23e
00000060: fff9 aabd 5141 63be 4125 9d3e 0ca7 873e
00000070: a250 913d 4abb 86bd 24a9 11be 06a1 b7bc
0.13040651 -0.019613795 0.47536147 0.023162143 -0.06917484 0.024042198 0.03979084 0.36674207
-0.077242725 0.4174064 -0.1654842 -0.05523927 -0.1990359 0.1194235 0.0064791893 0.03814286
0.2627285 0.18132566 0.4516229 0.035672955 -0.2085442 0.107051775 0.17325763 0.37914053
-0.08348464 -0.22192885 0.30692485 0.26494634 0.070954576 -0.06578691 -0.14224678 -0.02241565

layers.1.weight f4 [32, 32]
00000000: 8a66 ba3d 6e16 78be b1b4 c0bd c1e1 03be
00000010: dae7 353c 4e8e 5a3e 2c60 423d ae20 213d
00000020: c5a2 c23e 96b9 243e da69 ac3e b003 dd3b
00000030: a450 ac3d b739 c73d 0f40 013e c3b5 01be
00000040: 739a 75bc 5c86 813e 9f8a 8a3e 6cbe 293e
00000050: cb99 793e 8090 46be c510 2abc d008 5cbe
00000060: 549a 0c3b 501f 1f3e dbca c83d 3588 90bd
00000070: f085 d0bc d260 373b b4b6 5c3e 3490 11be
00000080: 09bc 52bd ba19 8c3d 91a0 e1bd 0992 40bc
00000090: 69b8 133e 6704 21be be2e 303d 37ac 373b
000000a0: 029b 9dbe 3ff8 1c3e 64bc 1ebe 57bc 7e20
000000b0: dd79 edbd e2b4 84bb 0e22 3abd db36 d13d
000000c0: 1bcd ec3d b6e9 bbbd fcba 2e3e 99f7 953c
000000d0: 8fb1 afbe 5044 653e a8e6 0bbd 4f75 713e
000000e0: 86d6 4ca5 ac01 74be 16e9 f43d df1f 3e3e
000000f0: 2cbf 113d 8a70 443e f0c8 843e 0c69 b23d
00000100: b133 40a1 0acb 6abb 9196 15b6 1082 d127
00000110: 312f 2995 cceb 521a 4315 24bb 4b66 8632
00000120: 9809 ddbb d5ab 7cb2 bac7 843b c8e7 8538
00000130: 37f3 8695 3c77 8e36 97e6 9ab4 eb6d 0731
00000140: a20e 6515 6417 11b8 5d93 fdba 7a29 0cbc
00000150: de4a 0d3b 7bfb 44ba 28a2 5a9b 2882 9117
00000160: 717d 4ebb 646d 863a 4889 6c14 a0a0 e511
00000170: 9cc1 2696 0ad4 acb4 6877 11b9 2a31 95bb
00000180: 16dc 1bbd 3fec 4dbc 45c3 663e ff85 c03d
00000190: 637d a03a d0b3 74be 6179 ef3d a70f 3c3c
000001a0: 5ca9 c3be c2a6 3c3d 82a3 5fbe eec7 193b
000001b0: cad9 f13d 239a 4d3d 4483 97bd def7 273d
000001c0: 1efd c0bc 7246 f2bd c66d 223e 6460 2f3e
000001d0: ef6a 9abe 17db 9a3d 5081 583e a587 103e
000001e0: c745 e816 8dd7 d0be c7b7 643e 3bdb 293d
000001f0: 25e9 113e 464e 3a3e cf0e 363d 9707 633e
00000200: dfa2 cf3d a150 6c3e 94a5 033e 007a 3d3e
00000210: 5c27 633e 6c8f 16be 50b9 ecbc 0311 5d3e
00000220: 9eca a2be d2f4 8b3d 292b 9bbe 7f89 9fbb
00000230: 455f aa3e e2ce 3b3e 0670 d8bd e26d 97bd
00000240: baae 513e 41bd 363d 5982 3abd 7de6 c8bd
00000250: 0ed4 cbbe 3bbd 9abd d2fe dbbd 5405 cc3d
00000260: a9ce 8f1a 0f09 d9be bb8d 07bd d6b9 4d3d
00000270: bc03 5c3e 86f5 2f3e 4305 27be 06c2 cd3d
00000280: 836b 5ebd 13ae a23e d01c 2b3e 6698 903e
00000290: 93cc 1abd 101a c9bd e407 4f3d 1e0f e23d
000002a0: d28d b8be 32b3 1e3e 5896 c4be b9a8 20bc
000002b0: d7ff 283e fc91 e13d 9339 49be cac3 163e
000002c0: 7d54 0f3e a32e 9b3d c987 113e f6a4 903d
000002d0: cc6e 9ebe 23ea 0c3d 81a6 aebc 6cfd 3c3e
000002e0: fd88 5c1c becb e9bd bdb2 683b df93 0cbc
000002f0: 2529 593e 84ff a8bd 1958 8fbc 8d41 8f3e
00000300: 1f04 733d 33c2 95be 267a 373e 203a 83be
00000310: b852 0bbd ec02 1b3e e19d 0dbc ba37 48bd
00000320: ff57 10bd 8f21 50bd e010 1dbe 5e19 dbbb
00000330: b130 2b3e 8e1b 303e 8c40 503e efc8 1cbe
00000340: 1c76 0e3e c65e 08be 35c5 0ebe 8e6b 4d3d
00000350: d425 f8bd 06e4 a0bd 40c2 963d 46e4 3ebe
00000360: b78f 4c3b 9c53 e2bc 17c6 2e3e 087a 983d
00000370: 5fbd ddbc 2611 64be cc8c 313e 42aa e63d
00000380: b94a 1f3e 9ce0 c0bd fc89 02bf c450 a9bd
00000390: aa0c 473e e0e7 67bc 1580 a43e 455e 1d3e
000003a0: fbe5 813e 1ac1 5a3e 45e2 d83e 24ba d427
000003b0: a656 513e 9252 bcbd 7bb7 fabb 2571 243e
000003c0: 793c 4e3e b0fe c73e 03e9 9dbd 04a6 8a3d
000003d0: 00d3 803e 2b7f cd3d 1942 65be 74b3 063d
000003e0: 3e2b a8b6 2026 cb3e 4229 4a3d f7e0 a93b
000003f0: ed36 00be f569 223e 7362 b53e 9e55 46be
0.09101589 -0.24227306 -0.09409464 -0.12879087 0.011102641 0.21343347 0.047454998 0.039337806
0.38014808 0.1608642 0.33674508 0.0067448243 0.084138185 0.09727805 0.12622093 -0.12666993
-0.014990437 0.2529782 0.27058885 0.16576546 0.24375074 -0.1939106 -0.010379975 -0.21487737
0.0021454291 0.15539289 0.098043166 -0.070572294 -0.025454491 0.0027981293 0.2155407 -0.14215165
-0.051448856 0.068408445 -0.11016954 -0.0117535675 0.14425816 -0.15724336 0.043013327 0.0028026232
-0.30782324 0.15329073 -0.15501553 2.1576953e-19 -0.11595509 -0.004049883 -0.045442633 0.10215541
0.11562558 -0.09175436 0.17063516 0.01830654 -0.34315154 0.2238934 -0.034155518 0.23579906
-1.7766863e-16 -0.23828763 0.1195852 0.18566845 0.035582706 0.19183555 0.25934553 0.08711442
-6.5120543e-19 -0.0035826587 -2.2290371e-06 5.8150167e-15 -3.4166506e-26 4.3617457e-23 -0.0025037087 1.564617e-08
-0.0067455284 -1.4707401e-08 0.0040521296 6.385107e-05 -5.4505894e-26 4.2458105e-06 -2.8852511e-07 1.9707567e-09
4.6257725e-26 -3.459248e-05 -0.0019346286 -0.008554811 0.0021559517 -0.000751428 -1.8084933e-22 9.403261e-25
-0.0031507874 0.001025599 1.1942029e-26 3.6228822e-28 -1.3470466e-25 -3.2191775e-07 -0.0001387276 -0.00455298
-0.038051687 -0.0125685325 0.22535427 0.09400558 0.0012244399 -0.23896718 0.11693073 0.011478341
-0.38215148 0.04605747 -0.21839717 0.0023465115 0.11809118 0.050195824 -0.07398084 0.04100787
-0.023558196 -0.118298426 0.15862188 0.17126614 -0.3015971 0.07561319 0.21143079 0.14114244
3.7525657e-25 -0.40789452 0.2233573 0.04146884 0.14249094 0.18193921 0.044447716 0.22170864
0.10138487 0.23077632 0.12856132 0.1850357 0.22182983 -0.14703149 -0.028896958 0.2158852
-0.3179521 0.06833805 -0.30306366 -0.0048686857 0.3327581 0.18340638 -0.10568242 -0.07394005
0.20476809 0.04461408 -0.045534465 -0.09809587 -0.39810222 -0.07555624 -0.107419625 0.09961954
5.947729e-23 -0.42389724 -0.03309415 0.050226055 0.214858 0.17183504 -0.16310601 0.10046773
-0.05430175 0.31773433 0.1671021 0.2824127 -0.037792753 -0.09819424 0.050544634 0.110380396
-0.360457 0.15498045 -0.38395953 -0.009805852 0.16503845 0.110141724 -0.19650869 0.14723125
0.13997073 0.075772546 0.14211954 0.07062714 -0.30943906 0.034402978 -0.02131963 0.18456048
7.2968947e-22 -0.11415814 0.0035506927 -0.008580177 0.21207102 -0.08251861 -0.017498063 0.279797
0.059330102 -0.29249725 0.1791769 -0.25630283 -0.034014434 0.15137833 -0.008643598 -0.04888127
-0.03524017 -0.050813254 -0.15338469 -0.0066863736 0.16717793 0.17198011 0.20337123 -0.15311025
0.13912243 -0.13317403 -0.13942416 0.0501514 -0.1211659 -0.07855992 0.07361269 -0.18641767
0.003121359 -0.027627759 0.17067753 0.074451506 -0.027067838 -0.22272167 0.17338866 0.11262943
0.15555848 -0.09417841 -0.509918 -0.08267358 0.19438425 -0.014154404 0.3212897 0.15367992
0.25370774 0.21362725 0.4236013 5.9043634e-15 0.2044321 -0.091954365 -0.007651267 0.16058786
0.20140256 0.390615 -0.07710459 0.06769946 0.2516098 0.10034021 -0.22388496 0.032885984
-5.011824e-06 0.39677525 0.049355753 0.0051842886 -0.12520953 0.15860732 0.35426673 -0.19368598

layers.1.bias f4 [32]
00000000: a11e f1bd 6a68 ab3d bf74 0116 fd07 433e
00000010: a247 673e b5ef 523d b895 0fbc 181f 693c
00000020: f091 613e 3185 a83c ac24 8f3e ce55 ed3d
00000030: cb81 bbbc b179 773e f895 57ba 672c 573e
00000040: 2186 8d3b 58d6 cc3d 94f4 073e 8336 0ebc
00000050: c869 183e 697d 9fbd 8457 0f3e 8899 093d
00000060: 130a 5c3d 5ed0 4c3d 714f 533d 86fb 0bbe
00000070: 5221 6fba 6028 773e e9df 5f3e 2d60 683e
-0.1177342 0.08369525 1.0457376e-25 0.19046016 0.2258592 0.051498134 -0.008763723 0.014228605
0.22028327 0.020571323 0.27957666 0.115886316 -0.022889039 0.24167515 -0.0008223946 0.21013032
0.004318968 0.1000182 0.13276893 -0.008679989 0.14884102 -0.07787592 0.13998228 0.033593684
0.053720545 0.050003402 0.051589433 -0.13670167 -0.00091220916 0.24136496 0.21862759 0.22692938

layers.2.weight f4 [32, 32]
00000000: 9d52 3daf e0bb f4bb 0e68 8634 f757 23bc
00000010: bb28 dfbb 0a1c 2d3b 098c 0e3a 5cb9 e136
00000020: e574 66bb d16d 7136 15c1 d8bb b3c2 25b4
00000030: 3594 1514 8d0f ec15 ff13 353b c106 ddb9
00000040: 0180 0cbc 650e 3e3b b37f b9bb 5dbf 359f
00000050: 52b3 5097 4939 fc39 f3a1 142c 2e83 003a
00000060: 27b9 ce34 80ce 3616 2010 263c a3c9 1dbc
00000070: 2e7a 77ba ce60 e9b9 ebaf 4ebb f664 b316
00000080: 4962 eb3c e5c7 cdbb 55b9 302f de8c ddbb
00000090: 40c4 2cbd b508 46bc 1552 11bd ad6e bf22
000000a0: 6d39 a4bb 16b4 f3bb 89da d4bb aa97 02bb
000000b0: df4f ccbb 4b11 01bc 915f a03b 2b63 c6bb
000000c0: 66bf ce1d b6e4 e13b c204 c0bb b11c 39bc
000000d0: 7b8d d6bb dfcc 6136 3122 12b8 f980 243d
000000e0: dec9 a1b9 27f5 63bc 0dd8 08bd 48f0 cbbb
000000f0: cff9 c7bb 204c f6bc f67e dc3c d45d 17bb
00000100: 251d 1bbe fbf1 80bd e93f 4895 ff5a 333e
00000110: 5d34 813e c11a de3d 47fe 94bd 131f 76be
00000120: a620 773e 9722 4a3d f271 8c3d 7d95 343e
00000130: 99bd cebe 7a3e 6d3e 3b64 2838 bac8 6abc
00000140: 0785 debc fbdf 903e 0510 233d 0d6d c63c
00000150: a086 d9bc 2867 7fbd fe81 d3be ae52 83be
00000160: 1f04 0d3e 9e46 443e 8c06 f53d b8b9 4dbe
00000170: 031d f63d 8249 5c3d 63a5 1b3e 009a 423e
00000180: e9f3 b2be 81f6 333e e376 28bc eedd 013e
00000190: 974c 023e 9271 0d3e 9114 8ebd 5316 2ebe
000001a0: b4cb 413e a598 5d3e 52f0 373d 7414 acbd
000001b0: 9497 d5be 48e5 2a3d 0c2b ae3b 0e36 8a3e
000001c0: bad0 29be 4b0b 3e3d 4948 f33d 9542 bebe
000001d0: ab7f 093e 7bc4 15be d6a4 8cbe d37a afbe
000001e0: dfad 153e 6236 103e d742 b0bd 4361 72be
000001f0: 41e0 e13c afcd 0d3e 745f 433d 35ba ce3d
00000200: e82f b2be 8c51 313e 8cb5 c6b8 107c 8b3e
00000210: f6b0 073e 3ad4 253e 0fa2 5b3d 4730 57be
00000220: 715a 033e fcc0 693e 6032 bd3c 66ee ee3d
00000230: cb9d 82be 3be6 983e 8f4e 9eba c82e da3d
00000240: d2b9 81be 46ec 873e e3c3 ad3e 9db3 abbe
00000250: cd67 29bd fda7 a1be 7b2a 23be 97fe 3dbd
00000260: f0fb 2fbd 0b2c 1e3e bdd1 db3d 8ea3 bfbe
00000270: fcbc 7f3e b85e 4a3e 1b88 493d afd9 6e3e
00000280: ec68 c6be 0c31 053e 7c3e f33a 3082 373c
00000290: 42ab 36bc dd37 883d 8eab 17be 9750 7abe
000002a0: 58fa 8f3d a43b 013e 1463 013d 6f1f 1a3e
000002b0: 58f2 c9be 2847 1f3e 1a24 93ae 3af4 333e
000002c0: 34dc fa3d 0fad 8d3e 29f7 e13e 1c22 d8be
000002d0: a973 593e 05d1 3abe e7ca e8bc 246c abbe
000002e0: b451 563e 09ee 00bd 7725 c239 f120 b8be
000002f0: b65e 113e f11b 393e d741 0b3e bef7 713d
00000300: fea7 83be aeaa c33d 6bf3 09b9 373b 2e3e
00000310: d575 203e 24de 9f3e 5c56 1fbe 7f2f 0cbe
00000320: 5605 943e 2cdf cf3d aa3a 623e a95d 133e
00000330: 5d2f 36bb 914a 463e d9d3 6fa0 a2e4 513e
00000340: 9d9d 81be a2d1 bd3d 60e7 553e f131 1abc
00000350: 9d4d 723e 4b64 6fbe 554f 9dbe b84e 5b3e
00000360: 1553 77bd 02f5 0c3e 9411 47bd 4eb3 25be
00000370: dd66 a33e 122b ae3d 3908 f83d c7e6 b63e
00000380: 9506 903d c263 ffbd 88c5 a7b9 31f9 ba3d
00000390: 489f 42be abcf a7bd 6d53 29bd 15fa 8e3d
000003a0: 2280 07be 1e33 0d3e cc5b 93bd cd77 f63d
000003b0: a867 7cbd 4285 cd3c c2b6 1a34 11d0 a93c
000003c0: a295 03bd 51a2 c8bc d364 49bd adb9 a1bd
000003d0: b5c3 be3c 024b 9b3d d2b3 0539 3314 ea97
000003e0: 9d78 213e b5ce b23d 3dda ebbc 1f9d 34bd
000003f0: 0982 6ebd 14af f3bd 2ca0 1dbd 845b e1bd
-1.72188e-10 -0.0074686855 2.5035155e-07 -0.009969703 -0.0068102754 0.0026414418 0.0005437737 6.727101e-06
-0.003516489 3.597572e-06 -0.006614814 -1.5437654e-07 7.551806e-27 9.5344176e-26 0.0027630327 -0.00042157437
-0.00857544 0.002900028 -0.005660975 -3.8486533e-20 -6.743476e-25 0.00048107866 2.1121965e-12 0.000490236
3.8505206e-07 1.4767003e-25 0.01013568 -0.0096305935 -0.00094405084 -0.00044513348 -0.003153796 2.8982725e-25
0.02873339 -0.006279933 1.607295e-10 -0.0067611774 -0.042179346 -0.012087037 -0.03547867 5.1887836e-18
-0.0050117285 -0.0074372394 -0.006495778 -0.0019926825 -0.0062351073 -0.007877658 0.004894205 -0.006054302
5.4725647e-21 0.0068937195 -0.005859942 -0.0112983445 -0.0065476275 3.3646863e-06 -3.4840956e-05 0.04016206
-0.00030858716 -0.013913429 -0.033409167 -0.006223712 -0.0061027776 -0.030065596 0.026916008 -0.0023096697
-0.15147837 -0.06296154 -4.0440095e-26 0.17515181 0.25235263 0.10844947 -0.07275062 -0.24035291
0.24133548 0.049349394 0.06857671 0.1763515 -0.40379027 0.23168364 4.014767e-05 -0.0143300835
-0.027163042 0.28295884 0.0398102 0.024221921 -0.026553452 -0.062354237 -0.41310114 -0.25649017
0.13771103 0.19167563 0.11964139 -0.20090377 0.12017252 0.05378104 0.15199809 0.19004059
-0.34951714 0.17574503 -0.010282251 0.12682316 0.12724529 0.13812855 -0.069375165 -0.17000704
0.18925363 0.2164026 0.04490692 -0.084023386 -0.41717207 0.041722566 0.00531519 0.26994365
-0.16583529 0.04639749 0.11879022 -0.37160173 0.13427608 -0.14625733 -0.2746951 -0.34273395
0.14617108 0.14083245 -0.08606499 -0.23669915 0.027572753 0.13847993 0.047698453 0.1009411
-0.34802175 0.17316264 -9.4751915e-05 0.2724309 0.13251099 0.1619424 0.053621348 -0.2101451
0.1282747 0.22827524 0.02309531 0.11666565 -0.2551101 0.29863152 -0.0012077856 0.10653454
-0.25337082 0.2654745 0.33938512 -0.33535472 -0.041358758 -0.31573477 -0.15934174 -0.046385374
-0.042964876 0.15446489 0.10733364 -0.3742947 0.24974436 0.19762695 0.049202066 0.23325227
-0.38751924 0.13006991 0.001855805 0.011200473 -0.0111492295 0.0665128 -0.14811537 -0.24444805
0.07030171 0.12620407 0.03158863 0.15051053 -0.39442706 0.15554488 -6.691199e-11 0.17573634
0.12249032 0.27671096 0.4413388 -0.42213523 0.21235527 -0.18243797 -0.028417064 -0.33480942
0.20929605 -0.031477008 0.00037030477 -0.35962632 0.14196286 0.18077065 0.13599335 0.059074156
-0.25714105 0.09554039 -0.00013156018 0.17014776 0.1566995 0.31224167 -0.15560287 -0.13689993
0.2891032 0.101499885 0.22092691 0.14391197 -0.0027799227 0.19364382 -2.0314182e-19 0.20497373
-0.25315562 0.092685 0.20889044 -0.009411321 0.2366242 -0.23378102 -0.30724588 0.21416748
-0.060381968 0.13765338 -0.04860075 -0.1618168 0.31914416 0.08504309 0.12110943 0.35722944
0.070325054 -0.12470199 -0.00031999894 0.09129561 -0.19006073 -0.081939064 -0.041339327 0.06981293
-0.13232473 0.13789031 -0.07195243 0.12034569 -0.06162229 0.025087956 1.4408855e-07 0.020729097
-0.032125123 -0.024491461 -0.04916842 -0.07896743 0.02328668 0.07582666 0.00012750857 -1.5126995e-24
0.15768667 0.087308325 -0.028790588 -0.044095155 -0.05822948 -0.11898628 -0.03848283 -0.11003783

layers.2.bias f4 [32]
00000000: fe87 c8bb 34b6 d6bb fcae 433e 0d16 df3d
00000010: f5cc 823e cdbe 153e 1964 c33c 7e2d 0dbe
00000020: 438e 08be 2e43 bebb 364d a8bd 3c2c 1d3d
00000030: 04b1 6f3d 9fae 7f3e eac3 e6bd f4b1 213e
00000040: 9058 29bd 472b 823d 2e06 323e 1fc3 0bbc
00000050: c9fb 393d 2072 41bc 4bcc ceba 00ce b53d
00000060: e8a8 a1bd 4d58 5a3e ddb6 a23d d48d af3d
00000070: d69e adbc 7a36 103d 2ecf b83d cf1a be3d
-0.006119727 -0.006552482 0.1910972 0.10892878 0.25546995 0.14623566 0.023851441 -0.13786885
-0.13335519 -0.0058063483 -0.08217852 0.038372263 0.058518425 0.24968956 -0.112678364 0.1579054
-0.041344225 0.06355911 0.1738517 -0.008530407 0.045406137 -0.011806995 -0.0015777437 0.08877182
-0.078935444 0.21322747 0.07945035 0.085719734 -0.021193903 0.035208203 0.090238914 0.09282457

layers.3.weight f4 [34, 32]
00000000: f86c 531d 8225 5e38 fe0a 1cbe 44cc 3dbe
00000010: ac5c 333d 1740 91be e45b ccbd fa28 8ebd
00000020: 42ab e1bb bc7f 26bc 1771 093c 8535 123e
00000030: 430a 17be 8fdc 193d 82fe 36be aba3 293d
00000040: a3d4 7bbd cb32 66be f4f7 853d c876 0bb6
00000050: b434 da3c 182b 30be a69c 03b3 d86b 903c
00000060: 3421 83be b233 003d 3a85 603c 032a 2cbd
00000070: 1ceb 97be 33c0 213e 1cb3 063b 4e51 9bbe
00000080: c1a0 eaba 938d edbb b378 393e 3947 953e
00000090: cb0f 633e dc74 343e 9caf 493e c588 82bd
000000a0: a8bb ae3a f849 1e22 e6b2 fab5 858b 31bd
000000b0: 661e e83d 839b f13d b65b 32be 19b6 38bd
000000c0: 96a8 0a3e 0268 95bd ef31 9d3e 09e5 8b15
000000d0: 7fe8 c93d bc68 ebbb af9d c8aa 084b 513e
000000e0: a22d a63e 2d28 8a3c 10e0 cdbd 17b5 6f3e
000000f0: 792f 8dbd bd4e 18be ffbf 523e 0798 563e
00000100: e5d2 8e38 a746 54af 4a1d 1bbe 7488 45bd
00000110: ad6e e03d 59d2 d4bd 7ad7 4fbe af3e ecbd
00000120: ef50 33b7 a24f 6934 4849 9f39 412b a93d
00000130: a093 b53b 2d2c f23b cba2 aebe d971 6ebd
00000140: f40c 16be 1dfc e83d 814a 623d 4dce a4b6
00000150: c250 19be 8dc3 0abd 079a cc27 0621 9cbd
00000160: aa80 62bd 8168 41be 92bb 603b cbd7 91bd
00000170: d6d7 f33d 299b 2ebe 9c88 26bc a807 5e3c
00000180: 9d1d 29bc c04c febb a367 4cbc 74e8 b83d
00000190: 4c4a b2bd 28b0 4cbd 7e12 e73d e66c 02bd
000001a0: 4546 10ba 5455 bb2e 8096 083c a9e5 c8bd
000001b0: 26b1 3abe bb32 55bc 865a e63c be2d 3ebe
000001c0: 7126 f7bd 88fd c1be 88ad 37be 8ec5 bc36
000001d0: e934 1c3e d778 b23d b417 0039 7375 933c
000001e0: e227 4ebe 78e8 b83d a627 68bc c895 d8bc
000001f0: 24a3 c0be 1980 273e 627f e6bd 6fad a2be
00000200: 5503 f43a 8c4b 83bb 9704 e3bc cee4 3fbe
00000210: 6c2f a53d ba34 80bd 7aad 5b3d 2aa2 cbbd
00000220: c825 0f3c 148d 9131 2079 cd3b 01e5 29be
00000230: 0f69 b3bd 8bdb 653d 60c4 d0be 770d 173d
00000240: c2ee a9bd cc7f b4bd c078 b43d e55d a8b8
00000250: a894 fbbc 4025 1b3e fff7 dfa6 8f46 0c3d
00000260: 7b88 23be 5edd 153d 179a 1c3d 3a7c 6f3b
00000270: 602a 6fbe 478b 213e 4e40 efbc 5fa1 5f3c
00000280: 611c 2137 cbd9 a5bb 61be 01be 1ec8 12bd
00000290: 6574 853d 35e0 81be b6be ff3d f4b9 39bd
000002a0: f60c c931 9415 2e3b 5ee1 00b6 e8d3 cd3c
000002b0: 487f bdbe d097 7dbe fbf7 90bd d736 4f3c
000002c0: 8235 b6bd 4cde c3be f8a5 9a3d af35 1c3a
000002d0: 01ef bc3d 3e9f 26bd 8933 ad38 9be4 2abe
000002e0: 70ff 31be 6c50 a63c 0286 263c 5068 0bbd
000002f0: e0ea 98be adb1 b53d b346 a03d e1eb 83bc
00000300: 28e6 ad34 13bd 4ebd 8e88 6dbd dca2 afbd
00000310: 4d58 943d a0a0 3dbe fa34 a53d d0a8 cebc
00000320: b397 81b4 30b6 103b 15d0 a923 eac7 dbbd
00000330: 4fec 8abe 84c9 45be 4f96 f23b a0f7 e0bd
00000340: a650 96be e8df c1be 8211 4dbe 0e71 bb14
00000350: c1f6 563c 1145 24bd ed8b bc39 d45f 413d
00000360: 87b6 3abe 7dfe e63d 5dcb 2d3e 89b7 4c3e
00000370: 9f62 a0be 94dd 913e 7c0e 2ebd fa13 58be
00000380: 66d6 183b ceaa 4c3b 0810 52bd d691 c6bd
00000390: fe82 01be d5ea 093d fd0a aabe 3765 65bd
000003a0: ce44 e4bb 07e1 262a 6125 e51c 56fe 9abd
000003b0: 0107 c33d 5b0d ec3d 6960 92be b90c 3ebe
000003c0: aba5 c13d 7d81 953d 406f 4f3c d2e0 391f
000003d0: 02c7 d7be 5f51 e2bc 18f5 eaba c5c0 adbb
000003e0: cf4c 05bd e7ad babe 6624 a43d ee3a 18be
000003f0: 313a b43d e3f5 a1be b7ea bbbe 9ac2 1d3e
2.7981953e-21 5.2963856e-05 -0.15238568 -0.18534952 0.04378955 -0.2836921 -0.09978464 -0.069414094
-0.0068868706 -0.01016229 0.008388779 0.14278229 -0.14750008 0.037563857 -0.17870525 0.04141585
-0.061482083 -0.22480313 0.06541434 -2.0781754e-06 0.026636459 -0.17203939 -3.0643285e-08 0.017629549
-0.2561127 0.0312993 0.013703639 -0.042032253 -0.29671562 0.15795974 0.0020553535 -0.30335468
-0.0017900692 -0.007249543 0.1811245 0.291559 0.22173993 0.17622703 0.19695896 -0.06373743
0.0013331072 2.1452152e-18 -1.8678518e-06 -0.043345947 0.11333923 0.1179724 -0.17417797 -0.045095537
0.13540873 -0.072952285 0.3070216 5.6503007e-26 0.09858798 -0.007184116 -3.5636552e-13 0.20438778
0.3245669 0.01686486 -0.10052502 0.23408924 -0.0689382 -0.14873786 0.20581053 0.20956431
6.81037e-05 -1.9306388e-10 -0.15147892 -0.048225835 0.1095861 -0.10391683 -0.20297042 -0.115353934
-1.0688075e-05 2.1728786e-07 0.00030381442 0.08260203 0.00554128 0.00739052 -0.34108576 -0.058214042
-0.14653379 0.11376212 0.055246834 -4.9115974e-06 -0.14972213 -0.033877898 5.678837e-15 -0.07623486
-0.055298485 -0.18887521 0.0034291488 -0.07121237 0.11906402 -0.17051376 -0.010164406 0.01355163
-0.010322002 -0.007760614 -0.012475881 0.09028712 -0.08705577 -0.049972683 0.11282824 -0.031842135
-0.0005503635 8.518933e-11 0.008336663 -0.09809429 -0.1823164 -0.013012583 0.028119337 -0.18572137
-0.12067879 -0.37888741 -0.1793729 5.625835e-06 0.15254559 0.087144546 0.00012215861 0.01800034
-0.20132402 0.09028715 -0.014169609 -0.026438609 -0.37624466 0.16357459 -0.11254765 -0.31772944
0.0018616716 -0.0040068086 -0.02771215 -0.18739626 0.08065686 -0.06260057 0.053632237 -0.0994304
0.008737035 4.236094e-09 0.0062705427 -0.16591264 -0.08760273 0.056117576 -0.40774822 0.036878075
-0.082974926 -0.08813438 0.08812094 -8.0283535e-05 -0.030710533 0.15150928 -1.5540953e-15 0.034246977
-0.15970032 0.036588065 0.03823289 0.003654255 -0.23356009 0.15775786 -0.029205468 0.013649314
9.602955e-06 -0.0050613633 -0.1267028 -0.035835378 0.06516341 -0.2536637 0.12487547 -0.045343354
5.8513434e-09 0.0026563155 -1.9204667e-06 0.025125459 -0.3701117 -0.24764943 -0.070785485 0.012647352
-0.088969246 -0.38255537 0.07551187 0.0005958927 0.09225274 -0.04067921 8.258882e-05 -0.16688769
-0.17382598 0.02030202 0.010163786 -0.034035027 -0.29866695 0.088717796 0.07825985 -0.016103687
3.2391222e-07 -0.050473284 -0.057991557 -0.08575985 0.072434045 -0.18518305 0.08066745 -0.02522698
-2.4138498e-07 0.0022081248 1.8411143e-17 -0.1073149 -0.27133414 -0.19315153 0.007403172 -0.10984731
-0.29358405 -0.3786614 -0.2002621 1.8926767e-26 0.013120354 -0.04010493 0.00035962407 0.04721053
-0.18233691 0.112790085 0.16972108 0.19991888 -0.31325242 0.28489363 -0.042494282 -0.2110137
0.002332115 0.0031229737 -0.05128482 -0.09695785 -0.12647626 0.03367122 -0.33211508 -0.05600473
-0.00696621 1.4821834e-13 1.5163611e-21 -0.07568042 0.0952282 0.11525985 -0.2858918 -0.18559541
0.09455427 0.073000886 0.012660801 3.936124e-20 -0.42144018 -0.027626691 -0.0017925827 -0.005302521
-0.032543954 -0.36460802 0.08014755 -0.1486623 0.08800162 -0.3163291 -0.3670251 0.15406266

layers.3.bias f4 [34]
00000000: b5c4 cf3d 5f30 f83d a9d0 0dbe c3c7 05be
00000010: f2aa 003e bc2b fab9 a55f c1bc bb85 f6bd
00000020: f49d f0bd aca9 f7bd 5b08 e1bd 06ea 03be
00000030: 1a90 20bc 3671 0fbe 5040 3bbe 565f ec3c
00000040: 2e43 fe3d a300 f4bc 52bd 37be 6362 05be
00000050: 142d 2abd d54e 55be d6f6 21be a478 14be
00000060: abe1 03be 392c 43be 560f 143c be91 1ebe
00000070: 7ef3 5bbe aa51 cfbd 1c10 d2bc 574c 033c
00000080: 362e 7cbd d0e3 8bbd
0.10144941 0.12118601 -0.13849129 -0.13064484 0.1256521 -0.000477163 -0.023605177 -0.12037226
-0.11748877 -0.12092909 -0.10987922 -0.12882242 -0.0097999815 -0.1400803 -0.18286252 0.028854053
0.12415157 -0.02978546 -0.17943314 -0.13025813 -0.041546896 -0.20830853 -0.15816817 -0.14499146
-0.12879054 -0.19059838 0.0090368595 -0.15485284 -0.21479604 -0.10122998 -0.025642447 0.008013806
-0.061567508 -0.06830561
