CoCo_cartpole_20250305_0047.pt (torch, 17712 bytes, 8 tensors)

layers.0.weight f4 [32, 8]
000000 20 9d c7 be 70 83 cb bd f9 50 c7 3e 9a 1a bb bd
       -0.38987064 -0.09937179 0.38928965 -0.09135933
000010 e9 41 d7 3d 31 1d af 3d 79 cf e5 3c 56 f8 a2 bd
       0.10510618 0.0855049 0.028053032 -0.079575226
000020 c0 42 4b 3d 69 9e 7a 3d 98 10 50 36 94 18 2b 97
       0.049624205 0.061186228 3.1004074e-06 -5.52841e-25
000030 ea 47 56 3d db b3 de 21 ad 6d 1c bd c2 d8 49 28
       0.052314676 1.5090912e-18 -0.038190532 1.1204743e-14
000040 b8 c4 b1 3e f8 17 12 3e 2c d5 b0 be 8f ec ed be
       0.34720397 0.14266956 -0.34537637 -0.46469542
000050 eb e4 87 bd f5 1a 23 b8 04 84 68 bb 62 7d 53 3d
       -0.066354595 -3.8887334e-05 -0.0035479078 0.051633246
000060 62 96 4d be 0c d7 41 be a8 6a 02 bf c4 29 92 be
       -0.20076898 -0.1892969 -0.50943995 -0.2854749
000070 a9 dc 16 bd 0d 3d d5 a6 24 a1 f3 3c 85 3b 26 38
       -0.03683153 -1.4796392e-15 0.029739924 3.9632916e-05
000080 2d 14 3a 3f 1d 9e bb bd af 84 d3 3e e3 a4 b7 bd
       0.72687036 -0.09161017 0.41312167 -0.089669965
000090 cb 83 17 bd 31 d1 1f 3c 94 21 71 3a 84 e9 86 3d
       -0.036990922 0.009754465 0.0009198424 0.06587508
0000a0 dc 11 0b bf 9f 80 53 3e e8 df d0 be cf 77 c7 3e
       -0.54324126 0.20654534 -0.40795827 0.38958594
0000b0 fc 2f 88 bd ab 8d de 3d 23 3d 1c b9 79 fb 84 b9
       -0.06649777 0.10866865 -0.00014900095 -0.00025364364
0000c0 52 78 9c 3c 9d 1c 69 3c 7f 0c 76 bd b2 6c 0a 3e
       0.019100342 0.014228013 -0.06007051 0.13518026
0000d0 24 18 9c 3b ea 91 17 3c e2 e6 bd b9 7b 5b 46 16
       0.00476362 0.009251097 -0.0003622091 1.6023179e-25
0000e0 e4 8b b2 be 36 36 54 3d 87 1f ac be bd 4b 12 be
       -0.34872353 0.051809512 -0.33617803 -0.14286704
0000f0 a6 35 cf bd 44 af 3c bd da c2 6a ad ca 62 97 3d
       -0.101176545 -0.046065584 -1.3344626e-11 0.073918894
000100 f2 b5 87 bd 75 f4 fa 3e 44 cb ba be f1 ef ea bd
       -0.066265 0.4901463 -0.36483204 -0.114715464
000110 a0 24 92 3b 33 d5 84 b9 3b a8 89 ba 7b 01 35 b6
       0.0044599324 -0.00025335848 -0.0010502407 -2.6971964e-06
000120 99 aa ce be cd 93 c5 bd 26 5e c7 3e ae e5 db bd
       -0.4036453 -0.096473314 0.38939017 -0.10737167
000130 dc 00 0d 34 39 1b ed ba 26 90 ac 3b d6 cc 21 15
       1.3131961e-07 -0.0018089778 0.0052662073 3.2675278e-26
000140 c9 b9 c3 3d c4 10 16 3e 36 39 81 be d2 cb ec be
       0.0955692 0.14654833 -0.2523896 -0.46249253
000150 ac 89 2c b6 20 a1 84 3d 8a cf 4a 3d 64 9d c3 3d
       -2.5710133e-06 0.06476045 0.04951433 0.09551504
000160 d0 f5 fd 3e 80 91 fd bd ea d0 2a 3e 0c 8e 22 3e
       0.49601603 -0.123812675 0.16681257 0.15874499
000170 e2 40 5d a5 b9 cf 66 bd 95 11 55 3b 4f 4f c8 bd
       -1.9190678e-16 -0.056350444 0.00325117 -0.09780752
000180 3d ac 28 3f 07 0a ac be 0a 63 55 3e da ad 0f be
       0.65887815 -0.336014 0.20838562 -0.14031163
000190 43 1a e9 ba c5 76 32 bd 24 d5 d4 bd 19 fc 32 35
       -0.0017784316 -0.0435703 -0.10392216 6.667702e-07
0001a0 bc bf 05 be 77 a7 cf bd c8 76 05 bf d0 ef 8c be
       -0.13061422 -0.10139363 -0.5213437 -0.27526712
0001b0 f2 d1 78 bb ba c0 a1 bc 35 6b 2a bc d4 d6 a1 38
       -0.0037966934 -0.01974522 -0.010401537 7.717093e-05
0001c0 fb db d1 be 69 aa 0a be ab 06 39 bd ca 8b 82 3e
       -0.40988144 -0.13541569 -0.045172375 0.25497276
0001d0 aa 96 58 9c 53 d0 b3 bc 6d c2 36 3d 13 e9 99 bb
       -7.1663134e-22 -0.021949923 0.044619013 -0.004696974
0001e0 02 dd 9d bd da 78 fa bd 54 f3 0a 3e 1d ca eb 3d
       -0.077081695 -0.12230082 0.13569385 0.115131594
0001f0 69 9f b9 3d a4 0c 6d ba ed f5 e9 3d 61 03 71 bc
       0.09063608 -0.0009042716 0.1142386 -0.014710278
000200 dd 7e 77 3d 6e b4 14 be 7f 07 da 3e ad 84 bc 3e
       0.06042372 -0.14521953 0.42583844 0.36819974
000210 a1 55 7d 3a 30 2f d1 3d 08 19 5f 16 4c 93 1f bc
       0.0009663944 0.102140784 1.8021695e-25 -0.009739708
000220 8f f8 a8 bd a1 60 df bd e3 ec 08 bf 6b dc 0e 3f
       -0.08250534 -0.109071024 -0.5348646 0.5580508
000230 c2 a2 bd 3c 80 db d4 b8 51 21 99 ba 0c b7 6e 3b
       0.023148898 -0.00010149833 -0.0011682903 0.0036425022
000240 a0 e2 75 3d 54 ba a7 3e 9c 22 e9 be 0c 71 68 3e
       0.06003058 0.32759345 -0.45534217 0.22699374
000250 49 ee 5f bb dc 4c 05 3b 5f 49 31 b8 35 77 bc 3d
       -0.0034169129 0.0020340001 -4.226842e-05 0.092024244
000260 96 f1 d7 be 9c f6 8e be 70 e0 00 3e 5a 28 43 3e
       -0.42176503 -0.27922523 0.12585616 0.19058362
000270 c8 8e 0a 17 92 e1 97 3d eb 85 00 3b f2 73 ef bc
       4.477042e-25 0.07416071 0.0019611071 -0.029230092
000280 a9 7a 17 3f 41 33 0d 3d 83 62 9b be 10 27 c5 be
       0.5917154 0.034472708 -0.30348596 -0.38506365
000290 10 22 3e 36 2d d5 59 bb bd d5 ec bc ec 5f 57 1c
       2.8332033e-06 -0.0033238635 -0.028910512 7.126151e-22
0002a0 95 53 68 be 92 f7 7b be 66 ed ac be 51 b7 b9 be
       -0.22688134 -0.2460616 -0.3377487 -0.36272672
0002b0 d6 14 ef 15 c0 08 a5 3d 90 34 a9 3d 7c 4f 4b b5
       9.6564205e-26 0.080583096 0.082619786 -7.573906e-07
0002c0 a5 45 d3 3e 5a 32 66 bd 83 3c 17 3e 09 15 3b 3e
       0.41264072 -0.056200363 0.14769177 0.18269743
0002d0 74 b6 fe 13 c3 22 14 36 2f 86 73 bd 44 c9 81 2e
       6.4298527e-27 2.2073953e-06 -0.05945414 5.901993e-11
0002e0 5d f8 ea 3d 55 f7 c4 3e 6f e6 ab 3d 6c b9 00 be
       0.11473153 0.3846995 0.08393561 -0.12570733
0002f0 31 33 d6 3b c6 71 05 3d 93 d5 54 3a 99 fa bb 3c
       0.006536864 0.032579206 0.0008118983 0.022946643
000300 4b 7d b0 bd 5a 92 f8 bd ba a0 c6 be ad ba 52 3e
       -0.08617648 -0.12137289 -0.387945 0.20579024
000310 96 47 d2 95 8f 2c 73 bd fc 0d 47 b9 4f ec 14 9e
       -8.493127e-26 -0.059368666 -0.00018983328 -7.883922e-21
000320 3f 63 04 3e 36 b6 98 bd 4f be 06 be a3 a9 f5 bd
       0.12928484 -0.07456629 -0.13158534 -0.11995246
000330 ca b3 a8 3c 83 f5 c8 3d 6d 3e 9e 3d a8 aa 24 3d
       0.020593543 0.09812453 0.077267505 0.040201813
000340 23 c7 0e bd 64 b9 bb bd ba ce 82 b8 ac ea b2 38
       -0.03485788 -0.0916622 -6.237389e-05 8.5314125e-05
000350 7e a7 a5 39 bf f9 62 bd 54 10 ac bc c0 37 c3 bc
       0.00031596044 -0.055413958 -0.02100388 -0.023830295
000360 f4 59 1c bd 22 8d 8e be ce f2 8e 3e ae bf 79 be
       -0.038171723 -0.2784205 0.2791962 -0.24389526
000370 5e e4 05 3b 66 1f 8b bb 67 77 a6 14 08 97 28 b8
       0.0020430307 -0.0042456863 1.6808812e-26 -4.019498e-05
000380 6a 3a f3 3e 16 31 c5 be b7 e7 5d 3e 13 30 92 bd
       0.47505504 -0.38514012 0.21670423 -0.07138076
000390 e5 a0 9a 3d d2 a8 20 bd 66 89 71 bc 81 a4 1e 3a
       0.075502194 -0.0392235 -0.014742231 0.00060517347
0003a0 91 3e 06 bf 3c 35 07 bf 35 e2 0e 3e f3 f3 96 be
       -0.5243922 -0.52815604 0.13953479 -0.29482993
0003b0 91 87 72 b8 4e 9f 99 3c 16 e3 0f b6 20 7c 9d 34
       -5.7823552e-05 0.01875272 -2.1440842e-06 2.9333842e-07
0003c0 75 08 43 be 0e 1b ac 3e 81 41 36 be 5f 7a 6e bd
       -0.19046195 0.3361439 -0.17798425 -0.05822217
0003d0 69 6a 8b 3d 9f e1 80 bc 41 6b 99 97 41 34 42 3a
       0.068074055 -0.015732585 -9.914468e-25 0.0007408299
0003e0 4f 2a 97 be f7 da e1 3d 23 ed de 3e a1 39 c6 3e
       -0.29524466 0.11028092 0.43540296 0.38715842
0003f0 13 07 7b bc c8 28 8a 3d ed b1 14 97 6b b4 99 3d
       -0.015321511 0.0674606 -4.8045953e-25 0.07505115

layers.0.bias f4 [32]
000000 b5 56 89 3e f7 99 af bd a4 0f 9a bd cf d4 0c be
       0.26823965 -0.08574288 -0.075225145 -0.13753055
000010 fb c0 af bd ea 7b d4 bc 44 c5 b4 3e 50 d3 7b 3e
       -0.0858173 -0.025937993 0.35306752 0.24592328
000020 53 02 ec 3e 0c 7d 88 3e 5b b4 8a bd c4 79 f5 3e
       0.46095523 0.26657903 -0.06772681 0.47944462
000030 6c e5 c4 bc 7d 09 5e 3e 09 fc d6 3e 6e 5e e0 3e
       -0.024035178 0.21683307 0.41989163 0.43822044
000040 f4 3c 76 be 57 03 8b bd 94 cb 14 3d db 2b 4f 3e
       -0.2404669 -0.067877464 0.03632696 0.20231573
000050 53 6d 4f bd 7d 72 2f be b3 24 da 3e 3b d7 63 3e
       -0.05064137 -0.17133518 0.42606124 0.22250073
000060 50 59 66 bd 6e ae b7 3e 8b 41 91 bd 0d ee 00 3e
       -0.05623752 0.35875267 -0.070925795 0.12590809
000070 7a 55 78 3c 13 5b ad bd 87 c8 e2 3e 55 66 dc bd
       0.015157098 -0.08464637 0.44293615 -0.10761706

layers.1.weight f4 [32, 32]
000000 4d c1 81 bd 75 12 e3 ad 26 c0 84 bd 01 de 8a 3d
       -0.06335697 -2.5815109e-11 -0.06481962 0.06780625
000010 b1 ff e8 bd bb 1c b9 3d 4f bd 13 3e b4 16 d7 3d
       -0.11376894 0.09038683 0.14427684 0.10502377
000020 ee 74 80 3e 3b 97 b6 3d 04 d9 8b bc fb 62 8a bd
       0.2508921 0.08915564 -0.017071255 -0.0675716
000030 38 46 8d be 4a 62 46 3d cf be 01 3e 9f 0e 47 3e
       -0.27592635 0.04843358 0.12670444 0.19439171
000040 47 02 19 3e ad 3e 45 3e b6 a9 15 3d db fe 5f bd
       0.14942275 0.1926219 0.036538802 -0.05468641
000050 22 5c 03 3d 0b a0 33 bd f6 9b d2 3d b6 1a 42 3e
       0.032070287 -0.0438538 0.102836534 0.18955502
000060 6f b0 52 3e e0 6f a4 bd b8 bc ae b3 51 76 5e 3e
       0.20575117 -0.08029151 -8.136834e-08 0.21724822
000070 fd 42 24 be 1b 77 b8 3e 58 75 63 3e 05 21 6c 3d
       -0.16041179 0.3602837 0.22212732 0.057648677
000080 b5 7d 94 3d 98 9d 8a 16 72 ef 08 3e 17 45 d2 bd
       0.07250539 2.2394558e-25 0.13372591 -0.10267084
000090 e4 2e 97 be ce 69 44 3b c1 bc 66 3c 86 14 6a 3c
       -0.29527962 0.002997029 0.014083088 0.01428712
0000a0 82 45 fd 3b e4 89 69 3e 73 5c 3f 3e e8 51 41 3d
       0.0077292332 0.22806507 0.1868761 0.047197253
0000b0 b4 5a a4 be be bf 05 be 68 00 f6 3c e0 42 26 3e
       -0.3210045 -0.13061425 0.03002949 0.16236448
0000c0 f9 da 05 3e 51 2e 05 be 3f 69 8a bd 0f 88 42 3d
       0.13071813 -0.1300595 -0.06758355 0.047493037
0000d0 61 19 2c 3e a2 9d 40 3d 3d 47 b8 3c de 96 96 3e
       0.16806556 0.04702533 0.022494907 0.29411978
0000e0 1a 23 55 be 96 79 66 3e 44 18 24 a8 f7 b5 3f bd
       -0.20814171 0.22507319 -9.1090906e-15 -0.046804395
0000f0 2f 75 8f bc 38 40 b6 3e 1e b1 39 3e 25 ec a8 3d
       -0.017511932 0.3559587 0.18133971 0.08248166
000100 c0 ec 05 3e 61 7d a1 3b 23 10 59 3e 47 57 0b be
       0.13078594 0.0049282764 0.21197562 -0.13607512
000110 03 09 af be 3c 9d d5 ba 84 f8 05 3e 8c 3d 04 3e
       -0.34186563 -0.001629747 0.13083082 0.12914103
000120 5a 45 4f 3e ad 02 7d 3e fc 66 63 bc 0f 37 d0 3d
       0.202413 0.24708052 -0.013879534 0.101667516
000130 40 20 d0 be 94 bf d5 3d ca 98 d0 3d 33 6d 0a 3d
       -0.40649605 0.10436931 0.10185392 0.033795547
000140 24 90 e9 bd af 2b 77 bd 57 98 78 bd da 00 6e 3e
       -0.11404446 -0.060344394 -0.060692158 0.23242512
000150 34 72 8b 3d d5 49 eb 3c 21 cd 0f 3e ed 6a 1a 3e
       0.06808892 0.02872173 0.14043094 0.15079851
000160 cc 43 0e 3e e7 a7 6d 3e 9f 9c ec bb 03 5a 29 3e
       0.1389305 0.23208581 -0.007220819 0.16538243
000170 88 67 7d bd ef 07 0d 3e 0b aa 2c bc 0f 59 b0 3d
       -0.061866313 0.13772558 -0.010538588 0.086107366
000180 21 61 23 3e 7a 98 3e 36 54 a0 2f 3d e6 ac 3e be
       0.1595502 2.840096e-06 0.04287751 -0.18620643
000190 9a 7a 47 be 9a bf 0a 3d 27 a3 73 3e 71 69 0a 3e
       -0.19480363 0.03387413 0.23792706 0.13516785
0001a0 07 f1 e9 bc b3 6d f5 bd 5d e0 f2 3d c0 4c 68 bd
       -0.028557314 -0.11983814 0.118592 -0.05671382
0001b0 ef 4b 33 be 9e d7 ed 3d fc a8 5a 3e 4b c0 81 3d
       -0.17509435 0.11613391 0.21353525 0.06335505
0001c0 30 3f 54 3e c9 6d 25 bc 8f d0 61 3d d4 ec e5 bc
       0.20727229 -0.010096976 0.055130538 -0.02806703
0001d0 6b 4f 65 3e a0 5e eb 3a 94 e0 3e 3e 57 52 db bd
       0.22393577 0.0017957278 0.18640357 -0.107090645
0001e0 ef bb ae 3d 87 6f 46 3e e3 9f 0c 24 4a f5 b3 bd
       0.08531939 0.19378482 3.049309e-17 -0.087870196
0001f0 03 fa a1 be a9 df 84 3e 19 7f 19 3e 6b 2f 16 be
       -0.31636056 0.2595189 0.1498989 -0.14666526
000200 53 94 65 3d a7 49 1e 98 6c 23 79 be 94 94 6c be
       0.056049656 -2.0458206e-24 -0.24329919 -0.23103553
000210 ac 7a ad be 9a 8f ea 3e 0b 34 ba 3d ef 44 5b 3e
       -0.33882654 0.45812684 0.09091958 0.21413015
000220 0a 3f 0e 3e 50 6d c6 bd 00 fc 95 be 71 b3 00 bd
       0.13891235 -0.096888185 -0.29293823 -0.03142113
000230 a3 8b dc be 6a c4 0f 3d 1e 65 38 3b 28 fa 83 3e
       -0.43075284 0.035099424 0.0028136442 0.25776792
000240 d2 3a 17 3e 6e 36 b1 3e 89 ca 9e 3e 2b 91 29 3d
       0.14768532 0.3461184 0.31013897 0.04139821
000250 26 90 85 be 8a 8d be 3c 75 a6 0a be 91 e9 2a 3d
       -0.2608654 0.02326085 -0.13540061 0.041726653
000260 0e 4a 15 3e aa c7 e4 3c 89 a5 92 37 07 df 27 bc
       0.14579031 0.027927238 1.748164e-05 -0.010246045
000270 42 dc f9 bc 2e 23 d9 3e 3d 89 d2 3d e4 f7 8e bc
       -0.030500535 0.42409652 0.102800824 -0.017452188
000280 88 9c 86 3d 92 cd 98 92 ad f4 f5 3d 6b 8a 94 3e
       0.06572825 -9.643226e-28 0.12009559 0.29011855
000290 d4 a0 1b 3e c2 11 7d 3e ba 6d a8 bc 51 20 a6 3e
       0.1519807 0.24713805 -0.020560134 0.3244653
0002a0 2e 44 b9 3d c2 e5 08 bd 2f 24 94 3e ee 92 32 be
       0.09046207 -0.03342224 0.28933856 -0.17438862
0002b0 ea 5d b8 3e fc f7 0e 3e d3 93 03 3e b6 27 d4 bd
       0.3600915 0.13961786 0.12849359 -0.10359137
0002c0 24 52 87 3e 39 3c e2 3d 6b 46 6b 3e 3e 8c 40 3e
       0.26429856 0.11046643 0.22976081 0.18803498
0002d0 61 08 1e bd b5 1e a4 3e b7 58 06 bd 11 f3 69 be
       -0.03858221 0.32054678 -0.03279945 -0.22846629
0002e0 f7 3f 00 3e be de 97 3b 86 c6 23 b3 17 9b b1 bd
       0.125244 0.0046347072 -3.813195e-08 -0.08672159
0002f0 60 5f 74 3e 1e 8c a5 be 43 44 cd 3c a5 70 c1 3d
       0.23864508 -0.32333463 0.025056964 0.09445313
000300 4e 1e 1d 3e 80 a1 5d b9 60 84 30 be 33 d2 7f be
       0.15343592 -0.00021136366 -0.17237997 -0.24982528
000310 e7 8e c0 be de d9 9f be 6d 7f 0d 3e cc 9a 5b 3d
       -0.37609026 -0.31220907 0.1381814 0.053614423
000320 06 19 53 3e d0 04 b3 bd b5 e5 6d be 08 05 d8 3d
       0.20615014 -0.08741152 -0.23232158 0.10547835
000330 33 58 06 bf 65 b0 d2 3d 73 13 93 bd 5e f2 f3 3d
       -0.5247833 0.10287551 -0.07181444 0.11911462
000340 43 df a1 3c 96 2a 28 be 5c c1 16 be 45 e3 43 3e
       0.01975978 -0.16422495 -0.14722198 0.19129665
000350 eb cf 81 bd 84 49 40 bd 45 0a 77 3d 51 2f 9d 3e
       -0.06338485 -0.04694511 0.06031253 0.30700162
000360 02 72 9d bd b9 ca c3 3c e3 ea 79 a9 12 79 c2 3d
       -0.07687761 0.023900377 -5.549284e-14 0.094957486
000370 08 f9 53 be f9 7f e1 3d e0 20 56 3e 4b bd 51 3d
       -0.20700467 0.11010737 0.20910978 0.051205914
000380 fc 0c 4c 96 3d 8f d2 39 32 cc 87 3b bf e2 80 a8
       -1.6483086e-25 0.00040161042 0.004144215 -1.430919e-14
000390 20 62 a1 b3 7d eb 27 ba 83 0c eb bb 88 38 0f bb
       -7.5149956e-08 -0.0006405635 -0.0071731224 -0.0021853764
0003a0 71 2f 8e b9 2a b4 b2 12 0a e5 71 b5 3a 83 b3 b9
       -0.00027119697 1.1277793e-27 -9.011279e-07 -0.00034239312
0003b0 b0 ca 49 a4 fa 9d ca 2c 37 29 76 3b e6 18 b3 ba
       -4.375661e-17 5.7587242e-12 0.0037561187 -0.0013664037
0003c0 81 10 76 a3 ab 2f 47 97 dc 55 45 92 1a 5e ad 3a
       -1.33391816e-17 -6.4360533e-25 -6.226807e-28 0.0013226897
0003d0 72 b7 2e 32 d7 27 fc 9a 3b 14 71 30 7f d5 39 a5
       1.0169844e-08 -1.0428912e-22 8.770404e-10 -1.6118527e-16
0003e0 16 12 1a bc 43 7e e4 b9 49 4e 30 b8 af 45 6c 9c
       -0.009403726 -0.0004358162 -4.203458e-05 -7.8175914e-22
0003f0 d8 c0 ab 3a b6 cf 2b 16 c0 2d 6e bb c9 59 69 16
       0.0013103737 1.3878812e-25 -0.0036343187 1.8849921e-25

layers.1.bias f4 [32]
000000 c8 bd e2 3d a5 c1 0b 3e 81 e4 ba 3d e1 50 ac 3d
       0.11071354 0.13648088 0.09125615 0.08413864
000010 4e 1e 3e 3e 1d 08 75 bc bb 0d 6e 3e 86 62 1d bc
       0.18566248 -0.014955548 0.23247425 -0.009606009
000020 d5 ec 6c 3e 06 f7 27 bc 94 a8 15 3e 51 70 87 ba
       0.23137219 -0.010251766 0.14615089 -0.0010333156
000030 db d0 14 3e bc bd 3f bd ee 03 7d bd 71 bc 85 bc
       0.14532797 -0.046811804 -0.061771326 -0.016325207
000040 c4 0b 2b 3e 62 d5 84 3d bf c3 80 3e 52 70 9f 3d
       0.16703707 0.06486012 0.25149342 0.07785095
000050 6c d6 75 3b 50 7e 04 3e 7d 36 25 3e 52 1b 6c 3e
       0.0037511839 0.1293881 0.16134067 0.23057297
000060 f1 6d 04 3e 29 88 09 3e 24 b4 b1 3d 8a 94 91 3e
       0.12932564 0.13430847 0.08676937 0.2843364
000070 e3 d8 c4 3d c8 44 83 3e c0 05 58 3e 3e b5 02 bb
       0.0961168 0.25638413 0.21095943 -0.0019944455

layers.2.weight f4 [32, 32]
000000 62 30 6d 3e f3 3c 5c 3e b8 a6 55 3e 6b fb 46 3e
       0.23162988 0.21507625 0.2086438 0.19431846
000010 bf c2 d3 bc d3 c8 9c b9 6a b9 bd 3d 1d 80 89 96
       -0.025849698 -0.00029904264 0.092638806 -2.2214395e-25
000020 15 65 05 3e cb df 01 30 ef b7 8f 3e f8 1a 5f 3e
       0.13026841 4.7247956e-10 0.28070018 0.21787632
000030 a0 20 50 3e 91 06 dc bc 4a 57 ac be 43 dc 34 3e
       0.20324945 -0.0268586 -0.33660346 0.17662148
000040 b3 3f 81 bd 52 9c b1 be fd 2b 35 bd be 18 6b 3e
       -0.06310978 -0.34689575 -0.044231404 0.22958657
000050 8f 8c 8c 3a ba ed 3e 3e 03 ba 1a 3e bb 76 80 3e
       0.0010723042 0.18645373 0.1511002 0.25090584
000060 fc d6 5c bd 0c d9 a3 3c 48 e1 36 3d 49 5b c5 bd
       -0.053915963 0.020000957 0.04464844 -0.09636552
000070 8e 56 bf 3e 76 bd 34 bd 31 81 ce bc 5e c2 d1 35
       0.37370723 -0.044125997 -0.025208088 1.5628282e-06
000080 5a 5f ca bb a1 27 8c bb 75 6a 8c bb da 34 b0 ba
       -0.0061759176 -0.004277185 -0.0042851516 -0.0013443485
000090 18 e1 25 bb a0 35 8c bb a4 3e 46 bb d7 fc fd 3b
       -0.0025311168 -0.0042788535 -0.003024974 0.007751088
0000a0 78 3c 8e bb df fa 4a 3b 77 69 8e bb a2 6b 8c bb
       -0.0043407045 0.0030972285 -0.0043460685 -0.004285292
0000b0 7a 68 8c bb 28 81 8c 17 67 5a 8b bb dc f4 a2 bb
       -0.0042849155 9.079892e-25 -0.00425272 -0.004973037
0000c0 2c 44 8c bb 11 a1 8b bb 2c 14 a3 bb 93 44 8c bb
       -0.0042805877 -0.004261144 -0.00497677 -0.0042806356
0000d0 70 ce 1a bb 07 cb 8c bb bf 0c 98 bb e9 64 8c bb
       -0.0023621581 -0.0042966637 -0.0046401913 -0.0042844904
0000e0 c6 74 8c bb 41 25 8c bb cb f9 8b bb ea 9b 8b bb
       -0.0042863814 -0.004276902 -0.004271721 -0.0042605298
0000f0 f6 f4 8b bb 66 8b 8c bb 52 28 8c bb 2a 18 ec 19
       -0.004271145 -0.0042890785 -0.0042772675 2.4411588e-23
000100 d6 16 2e 3e 9a b7 84 3d 85 23 7f bd a1 86 00 3e
       0.17000899 0.06480332 -0.062289733 0.12551357
000110 5c b5 18 3c ec e1 6b 3e 2d 4d e9 bd db 7f cf 3b
       0.009320583 0.23035401 -0.11391673 0.00633238
000120 31 00 87 3e 78 92 0e b2 a9 09 57 be 10 ed 1b be
       0.26367334 -8.298791e-09 -0.20999779 -0.15227151
000130 6b 54 0a bd 05 72 eb bd 01 51 37 3e 35 06 1f 3e
       -0.033771913 -0.11496357 0.17901994 0.15529712
000140 1f 9f 0d 3e 7a aa b2 3e 76 63 a5 3c ab b2 57 3e
       0.13830231 0.34895688 0.020189028 0.2106425
000150 b4 33 cf 3b e9 7c 0f be ba 2e 14 be 79 81 be 3d
       0.006323302 -0.14012493 -0.1447095 0.09302039
000160 06 45 45 be e8 06 6e 3d a2 2a 61 be be 02 03 bd
       -0.19264612 0.058112055 -0.2198892 -0.031985037
000170 0e 8b 4a 3b 4d c8 a3 3e b7 77 44 3e 1b 4b f4 3b
       0.0030905637 0.31988755 0.19186293 0.0074552423
000180 c5 e1 6a 3e 0b bd a3 bd 4c 80 44 3e fe 36 22 3c
       0.22937687 -0.079950415 0.19189566 0.0099008065
000190 ee d7 67 3e a6 84 f3 bd 60 c1 ab 3d 50 69 9a b7
       0.22640964 -0.11890535 0.08386493 -1.840727e-05
0001a0 34 bc 47 bd 30 12 bf 3b 59 ed 85 bd df 57 ab 3d
       -0.04876347 0.0058310255 -0.06539411 0.083663695
0001b0 4a 8b cb bd cb 3c 78 ba 9f ef 7e be 3d b5 65 3d
       -0.09938677 -0.0009469508 -0.24896096 0.056081045
0001c0 85 e5 6b 3e ad a8 12 be 18 76 03 bd f5 85 6a 3e
       0.23036774 -0.14322157 -0.032095045 0.22902663
0001d0 85 af 0b bc 73 9b 2b 3e 9a f6 f5 3c dc 1a 54 bd
       -0.008525734 0.16758518 0.030024815 -0.051783428
0001e0 64 45 a6 3d a8 2d d4 3d de 57 0e 3e ec a1 5f 3e
       0.08118704 0.10360271 0.13900706 0.21839112
0001f0 97 c3 8a 3e 7b 1f 33 be 7c dd 1d 3e c4 a6 de bb
       0.27102348 -0.17492478 0.15416521 -0.0067947824
000200 a0 c6 82 bb 3c 27 8a 3a ed d5 a8 bd 98 84 ae ba
       -0.003990963 0.0010540257 -0.08243928 -0.0013314663
000210 64 fb 04 3b d1 17 9e 3b 9f f5 f0 3c df 68 40 bb
       0.0020291442 0.0048246165 0.029413996 -0.0029359383
000220 90 de 17 bd de 55 45 9a e0 c9 5e bb de f8 27 3b
       -0.037077487 -4.0808008e-23 -0.0033994839 0.0025630514
000230 cd be 53 3b c5 93 ce 3b 2b 97 92 3b e7 75 44 3b
       0.003230977 0.0063042366 0.004473587 0.0029977502
000240 d3 78 d4 3b 55 bc 08 3d a7 ba ab bb b5 3d 58 3d
       0.00648413 0.033382732 -0.0052407566 0.052793223
000250 39 79 01 3c 24 b7 47 bc 7c 30 ce b9 ab 95 d1 bb
       0.007902437 -0.01218966 -0.00039327506 -0.0063960156
000260 9a bb 4f 3c 2d 06 fb 3b b2 60 5c 3c 14 57 ab bb
       0.012679005 0.0076606483 0.013450788 -0.0052288864
000270 01 64 af 39 ae 93 ac 3a 93 42 12 ba 85 d5 60 3b
       0.0003345311 0.001316657 -0.00055793783 0.0034306955
000280 a7 f6 9d 3d e5 02 bb 3b 33 a2 f9 3d 40 2d 65 3e
       0.07713061 0.005707132 0.1218914 0.22380543
000290 4f 78 1e 3d 1d 33 3a bd 14 b0 60 3e bb 76 95 b9
       0.038688954 -0.0454589 0.21942168 -0.00028507956
0002a0 3e c4 1a 3e 7b f9 f2 35 c3 e7 71 3e b9 62 cc bc
       0.15113923 1.8103013e-06 0.23623566 -0.024949418
0002b0 30 9e 63 3e 2d 67 07 be 3c 04 08 be a0 f9 bc 3e
       0.22228312 -0.13222952 -0.13282865 0.369092
0002c0 c6 48 95 bc 0c 86 ab bd 6f a9 91 3e 39 dc 85 3e
       -0.018223178 -0.08375177 0.2844958 0.2614458
0002d0 d6 cc 71 3b 3b 96 b0 bd d4 29 34 3e 45 7f 02 3e
       0.0036895773 -0.08622404 0.17594081 0.12743862
0002e0 7d 98 46 3d a6 1c 23 3e b2 38 aa 3c ea 1b 1a 3e
       0.048485268 0.15928897 0.020778988 0.15049711
0002f0 20 57 3c 3e 67 f5 16 be dc 6f 01 3e 96 aa 12 bb
       0.1839261 -0.14742051 0.12640327 -0.002237951
000300 33 eb 0f 3e ba bf e5 3d 2d 12 f4 3d c2 35 5f 3e
       0.14054565 0.112182096 0.11917529 0.2179785
000310 81 b7 70 bd 26 81 0b 3e 45 96 f6 3d 5b c1 3e 17
       -0.058768753 0.13623485 0.120403804 6.163636e-25
000320 c6 86 d1 3c e8 72 aa 3b 4a 82 80 3e 1e 6c 88 3e
       0.02557696 0.005201686 0.25099403 0.26644987
000330 9a af 2d 3e e9 72 ad 38 10 30 4b be c3 e7 32 3e
       0.16961518 8.2706865e-05 -0.19842553 0.17471223
000340 35 dd f7 3c 68 9e ad be 58 7c 7a 3e ad b5 ae 3d
       0.030256847 -0.33909917 0.24461496 0.08530746
000350 40 41 6b 3b a6 61 8e 3d f5 52 1b 3e 87 78 74 3e
       0.0035897046 0.06952219 0.15168364 0.23874103
000360 18 8a 4d 3e f0 b7 f4 3b be 64 a9 3d 5b fb 60 bd
       0.2007221 0.007468216 0.08271168 -0.05492721
000370 3a a5 fc 3d ae 10 9e bd 93 ae 00 3e 31 01 e3 b5
       0.12336202 -0.07718025 0.12566595 -1.6913165e-06
000380 16 49 31 3e 88 7f 14 3d c8 c0 4a 3e 47 54 0f 3e
       0.17313036 0.036254436 0.19800103 0.13996993
000390 1a f8 ba 3d f8 2d 64 be 76 31 27 3e 9b 33 b4 31
       0.09129353 -0.2228316 0.16327462 5.2445563e-09
0003a0 f8 d4 8e 3d 03 a2 79 3a 81 f3 1e 3d 49 db 4f 3e
       0.06974214 0.0009522738 0.038806442 0.20298494
0003b0 87 ef 93 bd c3 5e cc bd 22 5a 8f be a8 3f 69 3e
       -0.072234206 -0.09979012 -0.27998453 0.22778189
0003c0 5a d6 74 3e 3a 60 dd bd 5b d3 e8 bc f0 20 4f 3e
       0.23909894 -0.108093694 -0.028421095 0.20227408
0003d0 53 e3 b8 3b 8c c6 b1 3d c1 ec f1 3c 86 d9 aa 3e
       0.0056423335 0.08680448 0.029531838 0.33369082
0003e0 08 c9 af 3c cc f4 b9 3e c9 28 73 3d c4 3c 6c 3e
       0.021458164 0.36319578 0.059365068 0.23070055
0003f0 e6 a3 30 3e e6 0e 75 be 99 66 1a 3d 13 83 02 3c
       0.17250022 -0.23931465 0.0376955 0.007965821

layers.2.bias f4 [32]
000000 ee 20 01 bd b1 86 8c bb 17 0a 24 3e 5c de 96 bd
       -0.031525545 -0.0042885174 0.16019474 -0.073666304
000010 9e 22 56 3c df 07 14 3d 20 de bb bd 68 04 58 3d
       0.013069777 0.03614032 -0.09173226 0.052738577
000020 7b 86 00 3e fb 0e 3d 3d ab fb d2 3d 98 49 b8 3d
       0.125513 0.046156865 0.10301908 0.08998412
000030 df f2 4e 3e 69 06 63 bb f8 7f 1d 3e 62 e3 88 3d
       0.20209835 -0.0034641272 0.15380847 0.06683995
000040 f7 bc 3e 97 d8 ec 44 bd 0c db fb 3c df 95 6b 3d
       -6.163082e-25 -0.048077434 0.030744098 0.057515975
000050 c4 f9 76 bd 07 0c 84 be 6e 79 0c 3d 33 d7 b2 bb
       -0.06029679 -0.25790426 0.034295492 -0.0054577827
000060 2d 8f 64 3e 41 b3 b1 bd 4b b6 05 bb 42 46 81 3d
       0.22320242 -0.08676768 -0.0020402845 0.06312229
000070 ab 0a 2d 3e 5a a2 23 95 36 26 d7 3c ee 66 59 3e
       0.16898601 -3.304566e-26 0.026263338 0.21230671

layers.3.weight f4 [34, 32]
000000 bf 4a 60 bd 86 b4 d0 36 c7 4d 33 3d 96 4e 09 bd
       -0.054758783 6.2198988e-06 0.043775346 -0.03352221
000010 6c 8d 28 bc 9d 9a 70 bd c9 39 98 3c 0c f0 a1 3d
       -0.010287624 -0.0587412 0.018582242 0.079071134
000020 43 3d 3a be 4d cc af be db 62 be 3d aa 64 bf bd
       -0.18187432 -0.34335557 0.09296199 -0.09345372
000030 87 21 44 bc 35 de 62 32 e7 da b8 bb 44 22 49 be
       -0.011970884 1.3205455e-08 -0.0056413296 -0.19641978
000040 62 b6 a5 95 82 6d 2b be bb d1 d5 bd 46 4b 78 3d
       -6.693072e-26 -0.16740993 -0.104403935 0.06061866
000050 15 34 df be 88 02 78 be b0 3f 0c bd 74 93 29 1f
       -0.43594423 -0.24219716 -0.034240425 3.5909112e-20
000060 ee dc e3 bd dc 02 c9 be 3e 11 06 bf 82 83 b1 bc
       -0.11126123 -0.39259994 -0.5237006 -0.021669153
000070 40 dc 6a bd bd d1 4a b9 88 67 74 bd 03 c9 15 be
       -0.057338953 -0.00019342355 -0.059669048 -0.14627461
000080 21 98 1e 3e b5 25 de 3b b2 ce 63 be 37 6d a8 3d
       0.1548772 0.0067793974 -0.22246817 0.08223956
000090 a7 3b b2 bb 9d 57 87 3e ec eb b1 3d b8 b3 0e 3e
       -0.00543924 0.2643403 0.08687577 0.13935745
0000a0 f4 25 12 bd 00 88 33 be 8c 52 44 be 6e 05 20 3e
       -0.035680726 -0.17532349 -0.19172114 0.15627071
0000b0 27 73 86 3e 11 af a6 b6 c7 d7 34 3e 57 8f 36 be
       0.2625973 -4.967566e-06 0.17660438 -0.17828117
0000c0 49 5b 3b 3b cd 93 da 3d 82 4b ca bd 51 9c e5 3d
       0.0028588346 0.10672722 -0.09877683 0.112114556
0000d0 ca b0 ff bd ba e6 52 be 0a ec 09 3e 09 e3 ba b7
       -0.12484892 -0.20595828 0.13468948 -2.227865e-05
0000e0 af 28 71 3e 1a 87 e8 bd aa 1e ab bd 93 32 64 3e
       0.23550676 -0.113538936 -0.08355458 0.22284918
0000f0 ba 53 84 3e a9 2a 1e 30 2c 92 ca 3d 86 c8 4d 3e
       0.25845128 5.754069e-10 0.09891161 0.20096025
000100 87 be 49 bc 86 88 cd b6 d6 62 04 be 76 ca f4 bd
       -0.012313492 -6.1253695e-06 -0.12928328 -0.11952679
000110 66 e8 8f bb 59 3d a6 3d db 26 84 3d fd 3b 09 3e
       -0.0043917177 0.0811717 0.064527236 0.1340179
000120 0c f0 18 3e e4 d0 b8 bb 3c 25 c3 3d 8f 09 12 3e
       0.1493532 -0.005640136 0.09528586 0.14261459
000130 fc 55 66 be 18 0c 58 3a 50 99 1b bd cc 7e 11 3e
       -0.22493738 0.0008241548 -0.037988007 0.14208525
000140 14 8e ca 3b 48 c2 05 be d2 de 54 3e 2b 0b 42 be
       0.006181488 -0.13062394 0.20788124 -0.18949573
000150 03 b5 d1 bd 10 02 87 bb 9e dd 86 be 97 b1 56 3b
       -0.10239603 -0.004120119 -0.26340955 0.003275966
000160 5e b4 2a 3d 32 84 59 b9 f9 7b 82 bd 65 88 5f be
       0.041675918 -0.00020743979 -0.06371302 -0.21829374
000170 8d f0 40 be e1 34 8f 3a cd 3f ae 3c 70 9e 41 be
       -0.18841763 0.0010925793 0.021270657 -0.18908095
000180 5d 28 d1 bd a5 77 06 bc ed 43 e8 3d 7a 8d 63 3d
       -0.10212777 -0.008207236 0.11341081 0.055554844
000190 ce 5a 1d bb 02 05 a1 bd 92 cc 6c be ea 10 75 be
       -0.0024010423 -0.07862283 -0.23124912 -0.23932233
0001a0 38 42 99 3c 36 98 c5 be a2 01 ec bd 96 36 16 3d
       0.018708333 -0.3859269 -0.11523749 0.03667315
0001b0 c0 e8 4b 3d d3 48 96 b2 c4 9f 1f 3e af 1d cc be
       0.049782515 -1.7495415e-08 0.1558829 -0.39866397
0001c0 eb 87 57 36 99 9a 03 be 87 00 ad be fa 82 df bd
       3.2116611e-06 -0.12851943 -0.33789465 -0.10913654
0001d0 e8 b3 6a be 5a f3 bd be e8 d2 ac 3d 63 8d 99 37
       -0.22920191 -0.37099725 0.08438665 1.830486e-05
0001e0 c3 64 54 3d 38 43 60 be f1 4b 03 bf 41 f3 0b be
       0.051853906 -0.21900642 -0.5128775 -0.13667013
0001f0 b3 bd 50 be ec 3a 72 28 cc 63 37 be 54 28 37 be
       -0.20384865 1.3446475e-14 -0.17909163 -0.17886478
000200 57 26 31 3d 82 cf a7 b5 e0 ce a5 bd 4f 62 4b bc
       0.043249454 -1.2502862e-06 -0.08096099 -0.012413575
000210 53 80 ab bb 41 a4 85 3d 32 15 74 3d f7 ce b2 bd
       -0.0052338033 0.065254696 0.059590526 -0.08730882
000220 f7 e3 12 be 7b 5b 59 be 3e 78 cb 3a 5b df a8 bd
       -0.14344774 -0.21226303 0.0015523506 -0.08245727
000230 72 9d 2c 3e f8 bc 06 3c d6 83 76 3d c9 e7 fa be
       0.16856936 0.008223765 0.060184322 -0.49004963
000240 8f 2f 23 3c b4 47 1d 3e db 8a 6a be f4 a7 97 bc
       0.009960069 0.15359384 -0.22904532 -0.018512703
000250 54 f2 ec be ed 6f 0d bf 7d a5 b2 3d 3b 89 19 ba
       -0.46278632 -0.5524891 0.08722971 -0.0005856936
000260 ae f5 0b 3c 3b e0 96 be 09 7a 1a bf 0b 12 2a bc
       0.008542461 -0.2946795 -0.6034246 -0.010380278
000270 bf 71 05 be aa 5b c0 9e 9e e0 15 3e a1 b6 c9 bd
       -0.13031672 -2.0366702e-20 0.14636466 -0.09849287
000280 ff 3c 8f bd 87 0a c0 3a 0b 76 18 3e 6f 8d b4 bd
       -0.06994056 0.0014651575 0.1488878 -0.08816039
000290 86 59 a7 bb 6c a6 37 be e9 e0 05 bd 85 2d 44 3a
       -0.0051071076 -0.17934579 -0.032685194 0.00074835896
0002a0 00 6d 27 3e 59 42 18 be ba 13 e2 3c 40 77 d7 3d
       0.16350174 -0.1486906 0.027597297 0.10520792
0002b0 45 a9 1e be 59 3f 6b 38 88 8f cf bd f0 21 b5 be
       -0.15494259 5.6087363e-05 -0.10134798 -0.35377455
0002c0 c3 84 7e 96 82 02 6a 3d 37 52 bf be 6e d2 0f be
       -2.0559849e-25 0.057131298 -0.37367412 -0.14045116
0002d0 67 73 d9 be 10 d5 e0 be 10 86 08 3e 8e 0f 84 1b
       -0.42470858 -0.43912554 0.13332391 2.184762e-22
0002e0 8e 37 86 bd 22 4c 7b be 59 3b 0a bf 4d a1 c5 3d
       -0.06553565 -0.24540761 -0.5399681 0.09649906
0002f0 55 06 cd bb 9b a3 54 ae b4 fe e1 bd d5 38 72 3d
       -0.0062568584 -4.834853e-11 -0.11034909 0.05913623
000300 ee e5 aa bd df de 7d 39 45 37 a0 3e 46 01 65 be
       -0.08344637 0.00024210986 0.31292167 -0.22363767
000310 86 35 8f 3b f2 50 d4 bd 67 38 18 be a9 5c 4c be
       0.004370394 -0.103670016 -0.14865266 -0.19957222
000320 ca 57 9e bc a4 a1 28 be a1 16 48 be 91 cb 5d bc
       -0.01932897 -0.16467911 -0.19539882 -0.013537304
000330 b8 7f d7 bd 9b 25 44 b9 50 22 e5 3b 7e 4b 1b be
       -0.10522407 -0.00018706026 0.0069926158 -0.15165517
000340 c3 94 bb 3b 6c 10 aa bd b2 49 8b be 63 d9 0e be
       0.005724521 -0.083039135 -0.27204663 -0.13950114
000350 9a 12 c1 be 03 79 79 be ff 9e 74 3e 61 a8 35 9d
       -0.37709504 -0.24362569 0.23888777 -2.40422e-21
000360 16 08 9b bd a1 2e 3e be fd d1 52 be a0 ae ef 3d
       -0.07569902 -0.18572475 -0.20587917 0.11703229
000370 b2 e5 28 bd 73 a0 f5 37 4d 51 4b bd 1f e9 c8 bd
       -0.04123468 2.9280991e-05 -0.04963808 -0.09810089
000380 c6 9a b9 bd 79 fa 00 ba 9b 3c 81 be 13 d2 05 3c
       -0.09062724 -0.0004920136 -0.2524155 0.008167761
000390 e4 a4 1a ba 3c 3a 34 be 80 aa 2a 3d 0c 33 4b 3b
       -0.00058992044 -0.1760034 0.041666508 0.0031005768
0003a0 44 04 d4 3b 48 b5 45 3d 69 fe 4b 3e b5 34 02 bd
       0.006470235 0.048268586 0.19921269 -0.031788547
0003b0 8d 10 7a be 9f 9e e2 b0 66 c3 98 be 81 af 34 3e
       -0.24420376 -1.6488747e-09 -0.29836577 0.17645074
0003c0 a6 e9 9f b2 50 59 44 3d 09 45 86 3e 42 58 53 3d
       -1.8616287e-08 0.047936738 0.26224545 0.05159784
0003d0 d1 10 3b 3e d2 f9 d3 bd d3 c6 78 be 3c d7 bc bb
       0.18268134 -0.10350384 -0.24294595 -0.0057629626
0003e0 23 ef 21 be c6 34 4d 3e 6b 96 11 be f9 9b 4f bb
       -0.1581388 0.20039663 -0.14217536 -0.003167866
0003f0 03 d7 dd bd f2 d5 28 3c 3b 39 dd 3d 96 9b 99 bd
       -0.10832026 0.010304915 0.108019315 -0.07500379

layers.3.bias f4 [34]
000000 9a 88 98 3d 43 28 e8 3c 59 a9 7d 3d ed ea 20 3d
       0.0744793 0.02833951 0.06192908 0.039286543
000010 56 14 30 bd 2a 35 11 bd 31 e3 5e bd 88 00 31 be
       -0.042988144 -0.03545109 -0.054415885 -0.17285359
000020 5e 42 80 bd 5d 9f eb bd bc 38 50 be 66 44 f0 3d
       -0.062626585 -0.115050055 -0.20334142 0.11731796
000030 de 41 c1 3d 9e 14 78 3c a8 25 09 3e f0 23 26 be
       0.09436391 0.015141634 0.13393271 -0.16224647
000040 ef 1a cf bd d0 e0 0a be 36 8a b5 bc 54 8f 30 be
       -0.10112559 -0.13562322 -0.02216063 -0.17242175
000050 7a 66 c0 3d 9b 46 32 be 50 00 16 3e e0 dd 8d be
       0.09394546 -0.17409746 0.14648557 -0.2770834
000060 48 a4 ce 3c 6a 1c bb bd 67 5e 81 3d e9 e2 38 3e
       0.02522482 -0.09136279 0.06316834 0.1805531
000070 b5 67 b5 bc f2 33 1f 3e 8c 4a d0 bd a9 fc cf 3c
       -0.022144178 0.1554716 -0.10170469 0.025389032
000080 f4 1f 11 bd e4 95 21 be
       -0.035430863 -0.15779835
