CoCo_cartpole_20250305_0031.pt (torch, 17712 bytes, 8 tensors)

layers.0.weight f4 [32, 8]
-0.52391565 -0.007410301 0.2654114 -0.013695791 -6.0958166e-10 -0.03290295 0.039988685 -0.046874195
-0.11610901 0.07944908 0.036747724 -0.12169021 -0.0060250065 1.0717658e-25 -5.4044856e-25 -0.115466766
0.14354604 0.33023566 -0.3560491 0.40924007 0.007149073 1.04848574e-10 -0.07317535 -5.5702147e-24
0.1170473 0.32547793 -0.31103987 0.33131394 -5.0049527e-25 -0.015807707 0.07451918 0.0012874489
0.09528599 -0.09351762 0.1491446 -0.4860334 0.07181071 -0.092379645 0.115367115 0.030064933
0.34652317 0.025674565 0.27013907 -0.105822615 0.034323473 0.012808975 -0.11129641 -0.05605569
-0.15482199 -0.20553736 -0.311046 -0.22366329 0.0007177821 1.3548278e-08 -0.08523815 0.0885438
0.1175959 0.18135956 -0.356228 0.5527071 -0.11604464 0.03320129 -0.07201824 -0.066361465
-0.56489426 0.3398136 -0.020104283 -0.077119276 -1.5964999e-23 -7.3074655e-24 -1.1751077e-25 -0.055851758
-0.36456192 0.004652413 0.16975354 -0.293646 -4.2667764e-07 1.330385e-05 0.09459103 -5.3106323e-05
0.3087053 0.47358602 -0.385453 0.4131986 1.2014429e-19 -0.06473444 0.0059800246 7.5875617e-10
-0.49968702 -0.61403996 0.17989406 0.40624103 -0.0038453946 -0.0024344276 0.03886452 -1.0055912e-25
-0.348805 -0.19296943 0.29859266 -0.2750785 1.1922603e-07 -0.00041372344 2.3506308e-21 0.0007627236
-0.18057306 0.1812901 -0.46756548 0.4595599 0.025000023 0.004544535 0.11218575 0.042842317
-0.22713234 0.14699341 -0.39969093 0.553916 6.0507173e-06 -0.06443423 -0.0038117454 -3.3505767e-05
0.27422997 0.18553926 -0.35923243 0.5915374 -3.533344e-28 1.024932e-14 0.0010007959 -0.035975333
0.060819853 0.06669474 -0.24646041 -0.38856733 -6.076162e-25 0.019177143 -0.015551418 0.02313965
-0.30822223 -0.190534 -0.41346037 -0.3210567 -1.5164835e-06 -0.028143303 0.031114183 0.08650235
0.09817213 -0.3015448 -0.5230469 0.12323955 0.015041901 1.3689291e-07 -6.516041e-05 0.021913234
-0.42323908 -0.231001 0.26546 0.30768907 -9.0737105e-26 1.9179812e-07 4.6097677e-05 0.00010857798
-0.13705105 -0.31814787 0.21416026 0.45288986 -0.09403254 0.028831298 0.00097275 0.007071996
-0.36802357 0.058767807 -0.4032706 -0.072727896 -0.026391286 -5.273822e-26 -3.6189365e-09 -2.1472674e-07
0.06546858 -0.107424624 0.103734575 -0.27703398 6.801365e-26 0.10111083 0.014881132 0.033809975
0.3155515 0.1049134 -0.38260737 0.5147644 -0.06989835 -3.387103e-06 0.08520166 -0.030606737
0.05443253 -0.09525844 -0.10988033 -0.15099213 -3.0595842e-07 5.2554086e-26 8.811974e-05 4.697785e-26
-0.2094972 0.2902949 -0.109832264 0.0895937 0.0011714963 0.012246257 0.055486817 0.05237915
-0.038775533 0.31988204 -0.20476034 0.21101083 3.4746328e-26 -0.107684515 -2.7607026e-05 8.358472e-24
0.6492708 0.056278992 0.23514554 0.49695358 0.0016984474 0.007634829 4.3011354e-12 0.018202564
0.37894452 0.47423902 0.04068766 0.4117531 -2.4287563e-06 -0.09537096 -0.096999265 3.35829e-16
0.137337 0.328712 -0.3639311 -0.062547795 0.035785716 -0.05614535 0.063457236 1.6281796e-18
0.054727755 0.02822407 0.27563113 -0.48344922 2.9280345e-05 -0.050211985 0.012844425 0.00089058885
-0.21089496 -0.11282837 0.3949154 0.5729418 3.1125583e-10 -0.015461675 -0.028623179 -0.019810265
00000000: 561f 06bf 1cd2 f2bb 01e4 873e 5064 60bc
00000010: 7f8f 27b0 3ec5 06bd 2dcb 233d 28ff 3fbd
00000020: 90ca edbd 33b6 a23d c884 163d b838 f9bd
00000030: 6b6d c5bb 9dad 0416 bf42 2797 d779 ecbd
00000040: bcfd 123e a614 a93e 114c b6be ea87 d13e
00000050: c542 ea3b 8090 e62e f5dc 95bd bc7c d798
00000060: 7fb6 ef3d 0ba5 a63e 9e40 9fbe fba1 a93e
00000070: 52e5 1a97 2a7f 81bc 839d 983d 9ebf a83a
00000080: 4d25 c33d 2a86 bfbd 5db9 183e 5fd9 f8be
00000090: 7e11 933d 8a31 bdbd 9845 ec3d bc4a f63c
000000a0: 7c6b b13e 7753 d23c ab4f 8a3e 87b9 d8bd
000000b0: c596 0c3d bcdc 513c 5fef e3bd a79a 65bd
000000c0: a889 1ebe 6378 52be 6c41 9fbe fd07 65be
000000d0: 8b29 3c3a f5c1 6832 5791 aebd 7456 b53d
000000e0: 1fd6 f03d 52b6 393e 8463 b6be 367e 0d3f
000000f0: d0a8 edbd 13fe 073d 4d7e 93bd 85e8 87bd
00000100: e99c 10bf 0cfc ad3e bdb1 a4bc b6f0 9dbd
00000110: 6c67 9a99 d158 0d99 a678 1196 d0c4 64bd
00000120: dca7 babe 4573 983b dfd3 2d3e c558 96be
00000130: 2112 e5b4 9a33 5f37 f1b8 c13d 7bbe 5eb8
00000140: 9f0e 9e3e de79 f23e 185a c5be c48e d33e
00000150: 62d7 0d20 7d93 84bd 15f4 c33b b890 5030
00000160: fad6 ffbe b931 1dbf 2636 383e d3fe cf3e
00000170: 0403 7cbb eb8a 1fbb 6730 1f3d eaf8 f895
00000180: 9296 b2be c799 45be 23e1 983e 17d7 8cbe
00000190: 9a04 0034 05e9 d8b9 d09b 311d 84f1 473a
000001a0: 25e8 38be 1da4 393e be64 efbe 6f4b eb3e
000001b0: d9cc cc3c 53ea 943b a4c1 e53d 6d7b 2f3d
000001c0: 6195 68be 7185 163e 4aa4 ccbe 70cd 0d3f
000001d0: 4407 cb36 18f6 83bd 7ace 79bb 8b88 0cb8
000001e0: df67 8c3e 01fe 3d3e 50ed b7be ff6e 173f
000001f0: c9f3 df91 a5a2 3828 232d 833a df5a 13bd
00000200: 3d1e 793d 4097 883d 1e60 7cbe 4cf2 c6be
00000210: 510c 3c97 6219 9d3c 60cb 7ebc 5d8f bd3c
00000220: 4ecf 9dbe 581b 43be 14b1 d3be 8b61 a4be
00000230: fa89 cbb5 c98c e6bc 2ce3 fe3c 2528 b13d
00000240: 780e c93d 1464 9abe 67e6 05bf 0465 fc3d
00000250: 4e72 763c d6fc 1234 bba6 88b8 6283 b33c
00000260: cbb2 d8be 878b 6cbe 60ea 873e 6c89 9d3e
00000270: 79a7 e095 11f1 4d34 0159 4138 5cb4 e338
00000280: 1c57 0cbe 47e4 a2be d44c 5b3e 2ee1 e73e
00000290: 2294 c0bd 9d2f ec3c 2600 7f3a 34bc e73b
000002a0: 966d bcbe 83b6 703d 7c79 cebe 5df2 94bd
000002b0: 8a32 d8bc d192 8295 01b1 78b1 a38f 66b4
000002c0: 6414 863d 7101 dcbd cb72 d43d 66d7 8dbe
000002d0: c664 a815 3213 cf3d fecf 733c 547c 0a3d
000002e0: f78f a13e d6dc d63d 1de5 c3be 9ac7 033f
000002f0: de26 8fbd fd4d 63b6 357e ae3d fbba fabc
00000300: a5f4 5e3d db16 c3bd f008 e1bd ae9d 1abe
00000310: 9b42 a4b4 1c1e 8215 edcc b838 809f 6815
00000320: 6f86 56be 88a1 943e bdef e0bd e77c b73d
00000330: e58c 993a 86a4 483c 2546 633d 858b 563d
00000340: 18d3 1ebd 94c7 a33e b2ac 51be 3913 583e
00000350: 340e 2c15 b389 dcbd a395 e7b7 26ad 2119
00000360: 9c36 263f cd84 663d fec9 703e b370 fe3e
00000370: 709e de3a 962d fa3b 2f55 972c 8b1d 953c
00000380: 0405 c23e 75cf f23e 1ba8 263d 4dd1 d23e
00000390: b7fd 22b6 da51 c3bd 8da7 c6bd 9d97 c125
000003a0: 12a2 0c3e f04c a83e 2d55 babe 0f19 80bd
000003b0: 0b94 123d abf8 65bd def5 813d e346 f021
000003c0: 362a 603d 2a36 e73c 861f 8d3e a886 f7be
000003d0: 109f f537 15ab 4dbd 6c71 523c 6876 693a
000003e0: d9f4 57be 8f12 e7bd 5a32 ca3e 50ac 123f
000003f0: 5d1d ab2f f752 7dbc 287b eabc 2349 a2bc

layers.0.bias f4 [32]
0.1422405 0.3353101 -0.026063072 0.056151055 0.26236975 0.45876408 0.15973184 0.017115023
0.36306885 0.14140704 0.023415621 0.14426054 -0.0061134696 0.14287655 0.0021495856 0.20796555
0.20374607 0.18468489 -0.1736713 0.27859 0.03195516 -0.13743779 0.4498624 -0.049989738
0.2959468 -0.33061272 0.38438553 0.0058219545 0.31518668 0.39393654 -0.15837763 -0.11248472
00000000: 7ea7 113e c4ad ab3e 3982 d5bc a6fe 653d
00000010: 5455 863e 20e3 ea3e be90 233e ce34 8c3c
00000020: 29e4 b93e 02cd 103e 1ed2 bf3c 09b9 133e
00000030: 8053 c8bb 3b4e 123e 10e0 0c3b ecf4 543e
00000040: cfa2 503e 091e 3d3e e4d6 31be 59a3 8e3e
00000050: 6ae3 023d 7ebc 0cbe 5d54 e63e 0ac2 4cbd
00000060: 5786 973e 1246 a9be 2ece c43e 18c6 be3b
00000070: 2660 a13e 0db2 c93e bf2d 22be 645e e6bd

layers.1.weight f4 [32, 32]
-0.11391207 0.1202126 0.3497833 0.16164246 -0.3452008 -0.23166904 -0.10224447 0.4478578
0.18246523 -0.11244282 0.11663528 0.001062705 -0.2853134 0.40857044 0.35079834 0.32329378
-0.15774433 -0.011699627 0.29672623 -0.02351366 0.14140876 0.019312324 -0.24142507 0.4227409
0.1393411 -0.10215225 0.1938098 0.2417773 0.26438916 0.30003577 -0.14750156 -0.10564188
1.663521e-07 -0.0044603464 -0.00046313382 -2.1002164e-08 6.778893e-13 -1.6692198e-10 -3.4031364e-05 -0.0047093825
-1.5526078e-08 -0.00014461514 1.5642907e-12 -2.3053568e-07 -8.154474e-13 -0.00091691443 2.7632212e-25 2.7833893e-22
1.5556655e-18 -2.5992815e-05 -0.0005383418 -0.00045139962 1.4591073e-07 4.3436338e-27 4.9711157e-06 0.0017528009
-2.9822575e-24 9.14369e-19 -1.3327404e-09 7.508349e-13 0.00017110645 -1.464345e-13 0.00022300819 -0.0030626296
0.21923372 0.034846067 0.12042747 0.03834821 0.2645443 0.14868526 0.07426714 0.08071848
0.15780258 0.313103 0.031410214 0.1932481 0.09610392 -0.049338717 -0.03650949 0.08056574
0.25462687 -0.06850083 -0.06540893 0.08105452 0.15576258 -0.12488974 -0.031926047 0.053351764
0.26070005 0.010573685 -0.008714306 -0.330683 -0.0037239208 0.030686008 0.034148417 -0.13341583
0.0144607695 -0.090569735 0.047475766 0.039669737 -0.2723109 -0.16887595 0.007629193 0.079398565
-0.121734664 -0.18792522 0.028076448 -0.017860899 -0.12069024 0.055261534 0.09441105 0.09277826
-0.04919772 0.0023272259 0.07253248 0.10736627 0.22015688 0.10619199 -0.15384974 0.047940355
-0.011069026 -5.6772576e-10 -0.012175162 0.21115077 -0.047122806 -0.01330149 1.1119489e-08 0.25841948
0.06779597 0.06071027 -0.27098265 -0.17025556 0.05473672 0.19377558 -0.14253306 -0.044011567
-0.31890836 -0.21883248 -0.1531974 0.22795135 -0.0594046 -0.23965627 -0.19567867 0.20427924
-0.089625224 -0.26809183 -0.19819109 0.07223363 0.3302575 -0.0556364 0.13164753 0.023086693
-0.030614233 2.22389e-25 0.011324251 0.37993756 0.26457235 -0.09807797 0.15283827 0.27465442
-0.0018998163 0.12929232 0.21931036 0.2980269 0.016231213 0.22363304 0.15803884 0.088906676
0.1653329 -0.014623321 0.074032016 0.09314471 -0.006130834 0.015467263 0.15649644 0.2502003
0.18988365 0.020431673 0.15559606 0.22964789 0.10619737 -0.16793907 0.035548396 0.16708146
-0.04066915 -0.057530902 0.2590941 -0.30588242 0.046661932 -0.03501499 -0.13717742 0.11724612
0.03715234 0.003356419 3.020573e-25 -7.3132156e-05 -0.0032639324 -0.008021344 -9.913617e-09 -4.531006e-05
-0.0047010086 -0.009020466 -0.007818759 -0.004629358 0.001080022 -0.010377895 0.0015496121 -0.0038591137
1.1405412e-26 -1.8051974e-17 -1.1684368e-19 -0.0072346157 -0.05092898 7.629592e-24 -0.0040635155 -3.0917437e-07
-0.002671297 -5.9030087e-25 -0.0066927574 -0.0043773735 0.04943241 -0.00893457 0.008070533 -0.006584896
0.08460748 -0.051976427 -0.058057908 -0.023985978 0.15290883 0.37388307 -0.08514806 -0.06710234
-0.12958261 0.00034385116 0.07049106 0.32735822 0.15889336 -0.14740703 -0.03902819 -0.00043570215
0.11091554 -0.14236183 -0.19870153 0.01623611 0.11768434 -0.30875307 0.21745212 0.14864269
-0.025973635 0.003212917 0.10546203 0.069734834 0.33972225 -0.040063653 0.03629933 0.2648012
00000000: bb4a e9bd 0632 f63d cc16 b33e 9a85 253e
00000010: 29be b0be a63a 6dbe 8c65 d1bd 9e4d e53e
00000020: 2ad8 3a3e 6c48 e6bd 7ade ee3d 764a 8b3a
00000030: 9914 92be 2530 d13e d79b b33e c386 a53e
00000040: bb87 21be cbaf 3fbc 80ec 973e b89f c0bc
00000050: 75cd 103e e134 9e3c 2238 77be 7f71 d83e
00000060: 6faf 0e3e 3335 d1bd 1476 463e 7894 773e
00000070: 045e 873e 4a9e 993e a60a 17be c55a d8bd
00000080: 849e 3234 1928 92bb c5d0 f2b9 3f68 b4b2
00000090: 12cf 3e2b 5c88 37af e6bc 0eb8 2a51 9abb
000000a0: 355e 85b2 d5a3 17b9 8327 dc2b 2a89 77b4
000000b0: 2d87 65ab 165d 70ba fd08 ab16 dd3e a81b
000000c0: 6293 e521 250b dab7 821f 0dba d5a9 ecb9
000000d0: a3ab 1c34 ae11 ac13 8fcd a636 3dbe e53a
000000e0: b2bd 6698 e2ef 8621 a22b b7b0 5b57 532b
000000f0: 0a6b 3339 dfde 24aa 4ed7 6939 66b6 48bb
00000100: ce7e 603e c0ba 0e3d ada2 f63d 0313 1d3d
00000110: 5a72 873e f340 183e 5f19 983d bb4f a53d
00000120: 0097 213e 094f a03e ffa7 003d d4e2 453e
00000130: 22d2 c43d 6517 4abd fa8a 15bd a7ff a43d
00000140: 745e 823e 2a4a 8cbd 1ef5 85bd eaff a53d
00000150: 3a80 1f3e 31c6 ffbd e3c4 02bd 6187 5a3d
00000160: 7a7a 853e 403d 2d3c 73c6 0ebc 484f a9be
00000170: 060d 74bb 3961 fb3c 36df 0b3d 299e 08be
00000180: ddec 6c3c a07c b9bd f375 423d bc7c 223d
00000190: 566c 8bbe d1ed 2cbe 4ffe f93b b79b a23d
000001a0: 0650 f9bd 786f 40be 9400 e63c 0551 92bc
000001b0: 722c f7bd eb59 623d 955a c13d 8702 be3d
000001c0: 8c83 49bd 5f84 183b e98b 943d d9e2 db3d
000001d0: ce70 613e 307b d93d c98a 1dbe 1b5d 443d
000001e0: dc5a 35bc 260e 1cb0 557a 47bc e837 583e
000001f0: d803 41bd 7eee 59bc 0808 3f32 8f4f 843e
00000200: 9dd8 8a3d 55ab 783d 3dbe 8abe 7957 2ebe
00000210: 9c33 603d 1b6d 463e 30f4 11be 7945 34bd
00000220: f547 a3be 9f15 60be c7df 1cbe 146c 693e
00000230: 3d52 73bd 7468 75be fd5f 48be 942e 513e
00000240: 6e8d b7bd 5543 89be 9bf2 4abe 3aef 933d
00000250: 8317 a93e fee2 63bd 9cce 063e 4e20 bd3c
00000260: b3ca fabc f2a6 8916 5a89 393c 2d87 c23e
00000270: 0776 873e 1add c8bd a381 1c3e 819f 8c3e
00000280: 4203 f9ba 3565 043e e592 603e fb96 983e
00000290: 52f7 843c 0f00 653e efd4 213e b414 b63d
000002a0: 074d 293e a796 6fbc 199e 973d a7c2 be3d
000002b0: 2ae5 c8bb 676a 7d3c 9a40 203e 411a 803e
000002c0: dc70 423e 5360 a73c 9354 1f3e d128 6b3e
000002d0: 027e d93d 38f8 2bbe 329b 113d 6717 2b3e
000002e0: b294 26bd 86a5 6bbd fba7 843e 9f9c 9cbe
000002f0: 9520 3f3d e16b 0fbd 3d78 0cbe bc1e f03d
00000300: 0d2d 183d 5ef7 5b3b e4f6 ba16 875e 99b8
00000310: b3e7 55bb f56b 03bc 8c50 2ab2 4e0b 3eb8
00000320: eb0a 9abb 94ca 13bc 411a 00bc dfb1 97bb
00000330: 868f 8d3a 0c08 2abc 5b1c cb3a 2fe9 7cbb
00000340: 4fe8 6114 0580 a6a3 d6f1 09a0 5b10 edbb
00000350: e89a 50bd e993 1319 3d27 85bb 9afc a5b4
00000360: ed10 2fbb 74b0 3697 eb4e dbbb 1270 8fbb
00000370: a479 4a3d 4d62 12bc 453a 043c 1cc6 d7bb
00000380: b046 ad3d 3ce5 54bd 21ce 6dbd 3e7e c4bc
00000390: 2294 1c3e 9a6d bf3e 1b62 aebd f46c 89bd
000003a0: 4eb1 04be ec46 b439 9e5d 903d 7f9b a73e
000003b0: f1b4 223e def1 16be 06dc 1fbd f46e e4b9
000003c0: b027 e33d 4dc7 11be 6a78 4bbe 9701 853c
000003d0: 7d04 f13d e214 9ebe c5ab 5e3e ca35 183e
000003e0: a9c6 d4bc cd8f 523b 7afc d73d 23d1 8e3d
000003f0: 13f0 ad3e c919 24bd 9bae 143d 0694 873e

layers.1.bias f4 [32]
-0.056070562 -0.00020560819 0.0346351 -0.027545335 0.15265712 0.036387887 -0.015773343 0.28161213
-0.013355744 0.24251163 -0.024761077 0.11366326 -0.0054487414 -0.0076044635 0.23932171 0.22535598
0.0106598 0.085284784 -0.026284924 -0.03698128 0.043964043 -0.025279429 0.13616073 0.0016037397
0.0744618 0.13891017 -0.029541163 0.22198918 0.23810881 -0.0011608818 0.15905784 0.1731423
00000000: 3faa 65bd 8798 57b9 89dd 0d3d c1a6 e1bc
00000010: 2652 1c3e 770b 153d 1937 81bc 772f 903e
00000020: 0dd2 5abc f854 783e bed7 cabc 49c8 e83d
00000030: 5b8b b2bb dd2e f9bb c010 753e b8c3 663e
00000040: 71a6 2e3c caa9 ae3d 7b53 d7bc af79 17bd
00000050: a413 343d ce16 cfbc b86d 0b3e 9334 d23a
00000060: 6e7f 983d 783e 0e3e 4f00 f2bc 2251 633e
00000070: ccd2 733e bb28 98ba 0fe0 223e 374c 313e

layers.2.weight f4 [32, 32]
-0.028324716 0.00022585968 0.07851915 0.2418392 0.3363868 0.080119714 -0.00041774253 0.29272753
-0.17105986 0.297105 0.24008343 0.31150293 -0.0007660161 2.1192245e-25 0.20752902 0.14352463
-0.086429276 -0.105709374 -0.062628396 -0.005625191 -0.11284745 -0.00048491298 0.29719138 0.20917067
0.26801288 -0.06596282 0.18319578 0.2298588 0.073297344 -0.010271537 -0.06569371 0.07536775
0.3903267 2.4216076e-10 0.13082848 0.018002538 -0.27829352 0.19779734 0.004380801 -0.027419522
0.31111124 -0.072157115 0.05770442 0.15970312 2.6470607e-25 -4.286311e-25 0.101666965 0.029957497
0.10259066 0.24842809 0.06622674 0.096529245 -0.029297372 0.07737357 0.004430237 -0.014007784
-0.056194287 0.17103195 0.084900305 0.13223691 -0.055692542 -1.4177374e-25 0.36231202 -0.02656455
0.36181924 0.0008875952 -0.1706239 0.29466036 -0.18396364 0.16968378 -0.00015813953 -0.10450638
0.33129737 0.05063011 0.10653341 -0.13596453 0.00086938747 -3.845721e-06 -0.13739611 -0.0013420319
-0.027606815 0.14651302 0.16902782 0.09068991 -0.11399804 0.018489825 -0.43968576 -0.1943774
-0.14553662 0.11764567 -0.046011925 -0.04605696 -0.08302785 0.00056638196 0.25193933 -0.01852707
0.16902208 -6.9954916e-26 -0.080981374 -0.26239923 -0.17903443 -0.06664094 0.0003554133 0.23583765
-0.3038795 0.29948285 0.17410427 0.00091150374 -0.0005837228 -4.2646252e-13 0.23834161 0.13292535
0.07331803 -0.035240177 0.061024386 -0.04639338 -0.13223588 0.15608738 0.03930823 0.28694296
0.19918364 0.06458548 0.06021896 0.10978585 -0.06240556 0.0048876926 -0.053215917 0.16633411
-0.1262393 -0.0006270668 0.13659543 -0.2548843 -0.10989826 0.11618539 -1.9377347e-18 0.08871852
-0.33277124 -0.100444965 0.16487849 -0.035938714 0.0013135403 -0.00021766234 0.08186704 0.038719557
-0.0571333 0.10433727 0.007557707 0.06511962 0.11912397 0.17761676 0.119839735 0.32920295
0.30903357 0.15939425 0.25408202 0.124891035 0.23598999 0.010732867 -0.21803083 0.24064243
-0.0152404085 -6.8356293e-10 -0.0023463797 -0.009064576 -1.4277176e-21 -0.006220949 0.010367897 0.0057636467
0.0058888113 -0.018072197 -0.005820705 -0.0068870676 -0.004296722 -0.00012343179 -0.008882466 0.011220862
-0.006942699 -0.015103558 -0.004502817 -0.006965038 -0.0034654853 -0.004074899 0.001476018 0.010171274
-0.013341217 -0.0042539816 0.013680449 -0.0014299311 -0.004440291 -0.0028718296 -0.00800438 -0.004246874
0.24078763 1.0965815e-25 0.16925934 -0.15906726 -0.2983648 0.07849583 -0.0005174746 0.041967392
0.09529705 -0.17817305 -0.08594861 -0.1286078 2.1252163e-10 -9.4055485e-27 0.22123744 0.09938645
0.17920008 0.11764465 0.1912319 0.1557322 0.123946354 0.0055547985 -0.026941631 0.015772458
0.19217873 0.16132419 0.09879709 -0.040258143 0.05159945 -0.001078075 0.12946607 0.16671973
0.032945782 6.107974e-07 0.026837135 -0.113578826 -0.03323449 0.20572373 -3.0101877e-14 0.11559784
-0.18121147 -0.0055274987 0.11474097 0.16614337 7.447683e-25 -6.8822033e-06 -0.0790276 -0.015724732
0.04343755 -0.052333 0.09032969 -0.051486086 -0.16828409 -6.652023e-05 0.12087758 -0.09513233
0.15028563 0.0077221766 -0.088560306 -0.011916323 0.000990348 -0.0005326298 -0.0015403726 0.19882265
00000000: 3c09 e8bc bfd4 6c39 a6ce a03d b2a4 773e
00000010: e43a ac3e ce15 a43d 7404 dbb9 62e0 953e
00000020: 512a 2fbe 261e 983e 6ed8 753e 507d 9f3e
00000030: 78ce 48ba 742c 8316 7d82 543e 1ff8 123e
00000040: d501 b1bd 287e d8bd 5143 80bd 8653 b8bb
00000050: 901c e7bd eb3b feb9 7829 983e d630 563e
00000060: fc38 893e 8417 87bd ad97 3b3e 1b60 6b3e
00000070: eb1c 963d f349 28bc 6d8a 86bd 685a 9a3d
00000080: e7d8 c73e 1921 852f e7f7 053e 0f7a 933c
00000090: 7d7c 8ebe 638b 4a3e d38c 8f3b e89e e0bc
000000a0: f949 9f3e 1cc7 93bd 785b 6c3d 3789 233e
000000b0: 5ad8 a316 a8a7 0497 c536 d03d 6d69 f53c
000000c0: 0d1b d23d ef63 7e3e e3a1 873d 20b1 c53d
000000d0: 0b01 f0bc 0976 9e3d 862b 913b e880 65bc
000000e0: fb2b 66bd 0023 2f3e 36e0 ad3d 1d69 073e
000000f0: dd1d 64bd e481 2f96 f680 b93e e69d d9bc
00000100: 5f40 b93e 81ad 683a 08b8 2ebe b9dd 963e
00000110: f760 3cbe 96c1 2d3e 42d2 25b9 7107 d6bd
00000120: cf9f a93e 8561 4f3d 302e da3d 493a 0bbe
00000130: 9be7 633a 7e0a 81b6 91b1 0cbe 1ee7 afba
00000140: b027 e2bc 8207 163e a115 2d3e a2bb b93d
00000150: ce77 e9bd f977 973c 7e1e e1be df0a 47be
00000160: 8d07 15be 37f0 f03d 0077 3cbd 39a6 3cbd
00000170: 810a aabd 4079 143a 31fe 803e 15c6 97bc
00000180: 2014 2d3e 3233 ad95 90d9 a5bd 3159 86be
00000190: cd54 37be 0c7b 88bd c456 ba39 6d7f 713e
000001a0: 1896 9bbe d155 993e 6448 323e fbf1 6e3a
000001b0: f904 19ba ba13 f0aa d30f 743e 951d 083e
000001c0: c327 963d 0158 10bd b5f4 793d fc06 3ebd
000001d0: d868 07be 5fd5 1f3e ab01 213d 30ea 923e
000001e0: ccf6 4b3e 6445 843d 28a8 763d 67d7 e03d
000001f0: f99c 7fbd f028 a03b eff8 59bd 7d53 2a3e
00000200: e044 01be be61 24ba acdf 0b3e 3280 82be
00000210: 5712 e1bd 9bf2 ed3d c6fa 0ea2 0eb2 b53d
00000220: fe60 aabe 17b6 cdbd e8d5 283e 7934 13bd
00000230: 192b ac3a 4a3c 64b9 e8a9 a73d 6698 1e3d
00000240: 9b04 6abd c7ae d53d a4a6 f73b 6f5d 853d
00000250: 45f7 f33d 2be1 353e 896e f53d 4a8d a83e
00000260: a639 9e3e 3f38 233e 0a17 823e dfc6 ff3d
00000270: 5ca7 713e e8d8 2f3c 7943 5fbe f86a 763e
00000280: e8b2 79bc 77e5 3bb0 b8c5 19bb 9683 14bc
00000290: 26c0 d79c 1ad9 cbbb 1dde 293c f9dc bc3b
000002a0: eef6 c03b 250c 94bc 9dbb bebb e9ac e1bb
000002b0: 84cb 8cbb 786d 01b9 c387 11bc b5d7 373c
000002c0: 957f e3bb ea74 77bc 5e8c 93bb f93a e4bb
000002d0: 321d 63bb bb86 85bb f276 c13a 6aa5 263c
000002e0: 1f95 5abc fc64 8bbb f623 603c 876c bbba
000002f0: dc7f 91bb 4e35 3cbb ce24 03bc 5c29 8bbb
00000300: 0891 763e 0ec0 0716 5252 2d3e 87e2 22be
00000310: 45c3 98be 6cc2 a03d 22a7 07ba 00e6 2b3d
00000320: 1a2b c33d ff72 36be d305 b0bd c3b1 03be
00000330: 85ab 692f cc4b 3a94 118c 623e 208b cb3d
00000340: 3a80 373e aeef f03d 4cd2 433e 4378 1f3e
00000350: 96d7 fd3d 0705 b63b b2b4 dcbc 3e35 813c
00000360: 80ca 443e 2b32 253e 2156 ca3d b9e5 24bd
00000370: f259 533d 324e 8dba c192 043e 94b8 2a3e
00000380: 28f2 063d adf5 2335 8dd9 db3c 049c e8bd
00000390: e320 08bd 3ea9 523e 1a91 07a9 8fbe ec3d
000003a0: 808f 39be 0520 b5bb 50fd ea3d 7d21 2a3e
000003b0: a07e 6617 aded e6b6 39d9 a1bd 27d1 80bc
000003c0: 93eb 313d 215b 56bd c6fe b83d 13e3 52bd
000003d0: aa52 2cbe c780 8bb8 aa8e f73d bdd4 c2bd
000003e0: 7ae4 193e 500a fd3b 1b5f b5bd ae3c 43bc
000003f0: 91ce 813a 2ea0 0bba 54e6 c9ba 2a98 4b3e

layers.2.bias f4 [32]
0.19036411 -0.027946582 0.10428511 0.0310515 0.22457717 -0.0045198626 -0.07501444 0.08277937
0.10962566 0.071285486 0.09927021 0.22267167 0.09620769 -0.056998152 0.16931185 0.10004946
0.073043786 0.081426814 0.1984447 -0.006203834 0.00810948 0.14130637 0.17445284 0.08634741
0.15290518 0.10865578 0.16822451 -0.004282529 -0.0776419 -2.1500502e-06 0.027947389 0.11571654
00000000: cfee 423e 3bf0 e4bc 6f93 d53d b75f fe3c
00000010: 8ff7 653e 5b1b 94bb 2ca1 99bd 3b88 a93d
00000020: 6b83 e03d 20fe 913d 2e4e cb3d 0b04 643e
00000030: 8a08 c53d e576 69bd 1660 2d3e bbe6 cc3d
00000040: fb97 953d 1ac3 a63d 1635 4b3e 8849 cbbb
00000050: a0dd 043c 9eb2 103e c4a3 323e e9d6 b03d
00000060: 2d93 1c3e ec86 de3d 0c43 2c3e 7554 8cbb
00000070: b702 9fbd 9549 10b6 ecf1 e43c cbfc ec3d

layers.3.weight f4 [34, 32]
0.031447448 -0.062624924 -0.14324267 -0.05717711 -0.18563347 -0.00028122586 -0.0823446 0.068510644
0.00586015 -0.35868114 0.031456452 0.011398362 -0.093289115 0.0029873562 0.06552551 -0.04994988
-0.18605602 -0.035979528 -0.0656418 -4.849214e-13 0.074172586 0.11941191 -0.22880796 0.034627892
0.13938868 -0.5977709 -0.066579595 0.00033305003 0.0177406 -7.004388e-05 0.08782513 -0.052174546
-0.04989699 0.15421697 -0.08504814 0.24789199 0.22382359 -0.010712547 0.10966216 0.12324929
0.17223975 -0.059319362 0.17160298 0.1276612 -0.11879171 -0.00024693602 0.08867384 0.12540318
0.22130276 -0.13205619 0.22098118 0.008169444 -0.022424588 0.20140442 0.068098314 0.07825783
0.05483632 -0.17426994 -0.16147278 -0.001667483 0.028641544 2.5083866e-25 -0.16152497 0.22516678
-0.087334074 -0.052897643 0.1592864 0.024408152 -0.14899772 -0.0001174032 -0.1129661 -0.09163408
-0.13715252 0.07582537 -0.11204384 -0.13929573 -0.1689162 -1.6967273e-23 0.15834795 -0.06576354
-0.048289225 -0.14358324 0.11318885 2.1676522e-06 -0.25477666 0.02713968 -0.022763848 -0.11792683
-0.062588364 0.033607412 -0.42161685 -0.0005453007 0.002549796 0.010685797 0.013987846 0.05433294
-0.0039607845 -0.043701626 -0.03934931 0.049878173 -0.13602635 -9.342179e-05 -0.1525339 -0.2220421
0.085129716 -0.40945527 -0.12549514 -0.1257436 0.005777691 -0.0022238921 -0.06874062 -0.12564829
0.1392982 -0.12731487 0.1103923 0.004388042 0.0006476566 -0.13246004 -0.3024502 0.13584429
0.01940782 -0.31472084 0.11511967 1.1596391e-17 -0.03028206 -0.0070523894 -0.06874324 0.047774818
0.055510458 -0.02426539 -0.29336798 0.14600861 -0.04171264 -0.0049505294 -0.034712847 -0.01140321
0.07053769 -0.18563733 0.09428478 0.004105771 0.030418266 0.0022928694 -0.05143987 0.0579405
-0.047897857 -0.11669696 -0.045656838 0.0011335261 -0.10273951 0.06512652 -0.2150089 0.07370781
0.09057486 -0.27480182 -0.33436632 -1.2036074e-17 -0.013402973 1.5418443e-08 -0.13765945 0.013861817
0.019772626 0.05433721 -0.2668819 -0.079697885 0.066861175 -8.555923e-08 0.06060518 0.08186175
0.07091857 -0.36586043 -0.04367329 -0.10898117 0.059843753 -0.00076155947 -0.10416359 0.05037923
0.05670616 0.053504013 -0.1366897 4.5807674e-06 0.16821493 0.056592982 -0.21291086 -0.000591947
0.08026185 -0.5354547 -0.19316079 -5.9045943e-18 0.0015163526 -0.0028054102 0.038270336 -0.18090339
0.07828229 -0.2715104 -0.31457505 0.13505027 -0.09211988 -8.460796e-05 -0.18943048 0.12142609
-0.30772185 -0.3595371 0.060656525 0.03373502 0.013660599 1.7465723e-11 -0.28582346 -0.22232121
0.088672794 0.10243009 -0.2699107 -0.006493653 0.118138425 -0.14341345 -0.32282558 0.11049046
0.023921609 -0.31924963 0.3200927 8.13079e-07 0.0015909168 -3.1590407e-05 -0.11100621 -0.22323103
-0.31948563 0.114011504 0.051490925 -0.18153779 -0.16975293 -0.011986915 0.07577869 -0.08048255
0.15650435 0.11472608 -0.09542605 0.064956844 -0.10366766 0.002280109 0.11444887 -0.15647255
-0.14152735 0.06974167 -0.11375632 -0.0031342234 -0.31552598 -0.20423877 0.09971202 -0.34630185
-0.16863896 0.043081507 -0.2519342 0.009123659 0.022632645 -0.0009772741 -0.016981648 0.029487912
00000000: 0acf 003d 7f41 80bd 35ae 12be 8c32 6abd
00000010: b316 3ebe 7f71 93b9 49a4 a8bd 4f4f 8c3d
00000020: 8006 c03b 0ea5 b7be 7bd8 003d 32c0 3a3c
00000030: 5d0e bfbd 85c7 433b 3d32 863d 3f98 4cbd
00000040: 7885 3ebe 455f 13bd 356f 86bd 457e 08ab
00000050: cce7 973d 3b8e f43d a24c 6abe fad5 0d3d
00000060: e8bb 0e3e 8407 19bf e25a 88bd 389d ae39
00000070: bc54 913c 86e4 92b8 a9dd b33d fab4 55bd
00000080: c960 4cbd 0eeb 1d3e b82d aebd 66d7 7d3e
00000090: 0332 653e ae83 2fbc 8e96 e03d 206a fc3d
000000a0: 9e5f 303e dcf8 72bd b1b8 2f3e 9eb9 023e
000000b0: 1149 f3bd 3177 81b9 a19a b53d b169 003e
000000c0: 319d 623e bd39 07be e448 623e 22d9 053c
000000d0: c5b3 b7bc f63c 4e3e 2177 8b3d a445 a03d
000000e0: 0d9c 603d d273 32be 1f59 25be 728f daba
000000f0: aca1 ea3c f942 9b16 cd66 25be 1f92 663e
00000100: 35dc b2bd 33ab 58bd f91b 233e 9bf3 c73c
00000110: dc92 18be 5d36 f6b8 c55a e7bd a6aa bbbd
00000120: b671 0cbe 554a 9b3d 3e77 e5bd 8aa3 0ebe
00000130: 5ef8 2cbe ef18 a499 f725 223e 09af 86bd
00000140: ecca 45bd 7c07 13be 8ecf e73d fb77 1136
00000150: 1672 82be 0954 de3c 407b babc 9f83 f1bd
00000160: 542e 80bd eda7 093d 2ade d7be 83f2 0eba
00000170: 7a1a 273b 7b13 2f3c 472d 653c 388c 5e3d
00000180: 78c9 81bb 7a00 33bd be2c 21bd 0e4d 4c3d
00000190: 7e4a 0bbe 71eb c3b8 d931 1cbe 015f 63be
000001a0: 7d58 ae3d 1fa4 d1be cc81 00be eec2 00be
000001b0: c952 bd3b b8be 11bb e2c7 8cbd f2a9 00be
000001c0: 30a4 0e3e d45e 02be 5c15 e23d 90c9 8f3b
000001d0: 80c7 293a 9ba3 07be c1da 9abe c41a 0b3e
000001e0: 26fd 9e3c 1723 a1be ddc3 eb3d 68ea 5523
000001f0: 1512 f8bc bb17 e7bb 41c9 8cbd 87af 433d
00000200: ef5e 633d 36c8 c6bc 5434 96be 4883 153e
00000210: e0da 2abd 0d38 a2bb 0f2f 0ebd 88d4 3abc
00000220: 1076 903d b617 3ebe 6118 c13d b489 863b
00000230: ba2f f93c f743 163b 9db2 52bd 0553 6d3d
00000240: 8b30 44bd d1fe eebd aa02 3bbd d392 943a
00000250: 1869 d2bd 0e61 853d 4b2b 5cbe 1ff4 963d
00000260: 507f b93d d3b2 8cbe 1032 abbe c106 5ea3
00000270: 2598 5bbc 8471 8432 99f6 0cbe ad1c 633c
00000280: 34fa a13c b290 5e3d bfa4 88be a538 a3bd
00000290: 83ee 883d afbc b7b3 233d 783d 22a7 a73d
000002a0: c13d 913d 0f52 bbbe c4e2 32bd 8531 dfbd
000002b0: b91e 753d 64a3 47ba b853 d5bd 745a 4e3d
000002c0: b844 683d 0627 5b3d 62f8 0bbe 7eb4 9936
000002d0: 8940 2c3e 0bce 673d 4e05 5abe e42c 1bba
000002e0: 5360 a43d 8f13 09bf f1cb 45be 51d7 d9a2
000002f0: 5ac0 c63a f9da 37bb 5bc1 1c3d bd3e 39be
00000300: 7752 a03d 6903 8bbe fb0f a1be 9e4a 0a3e
00000310: 59a9 bcbd 8d6f b1b8 10fa 41be 3eae f83d
00000320: b88d 9dbe 3f15 b8be fa72 783d bb2d 0a3d
00000330: b4d0 5f3c 50a1 992d 7457 92be 2ca8 63be
00000340: 159a b53d dec6 d13d bc31 8abe b6c8 d4bb
00000350: 8ff2 f13d fada 12be 6549 a5be d348 e23d
00000360: 40f7 c33c b074 a3be 31e3 a33e 5d42 5a35
00000370: 4f86 d03a f17f 04b8 3957 e3bd ad96 64be
00000380: 9f93 a3be dd7e e93d 26e8 523d 0be5 39be
00000390: b6d3 2dbe c464 44bc dc31 9b3d 09d4 a4bd
000003a0: ad42 203e 82f5 ea3d bc6e c3bd 1808 853d
000003b0: b64f d4bd e26d 153b 2b64 ea3d 573a 20be
000003c0: 8cec 10be b8d4 8e3d 13f9 e8bd 8b67 4dbb
000003d0: 9f8c a1be f823 51be d135 cc3d 7a4e b1be
000003e0: b1af 2cbe 3c76 303d 85fd 80be 667b 153c
000003f0: 1968 b93c e117 80ba 191d 8bbc a290 f13c

layers.3.bias f4 [34]
-0.11991393 0.1881935 -0.17480442 -0.19426613 0.04637733 -0.098783255 0.10015584 -0.0019994008
-0.110707074 -0.15708075 0.02941865 0.14090864 0.02971051 0.085219294 -0.030491218 0.10387406
0.07337963 -0.18475309 -0.12355548 -0.024600118 0.021683767 0.06205605 -0.16751416 -0.00791861
-0.0018521175 0.032096315 0.089033805 -0.099860206 -0.19670618 -0.08867746 -0.061521012 0.110761106
-0.22785431 -0.25788918
00000000: 6f95 f5bd ccb5 403e eeff 32be b3ed 46be
00000010: 28f6 3d3d e04e cabd 811e cd3d 6108 03bb
00000020: 64ba e2bd c7d9 20be 61ff f03c 5b4a 103e
00000030: 7563 f33c 7487 ae3d b8c8 f9bc ecbb d43d
00000040: 0f48 963d ea2f 3dbe a80a fdbd 3086 c9bc
00000050: 28a2 b13c 7c2e 7e3d d588 2bbe 0fbd 01bc
00000060: c0c2 f2ba 6d77 033d 5b57 b63d 8283 ccbd
00000070: 586d 49be 879c b5bd 75fd 7bbd b8d6 e23d
00000080: a452 69be 0d0a 84be
