CoCo_cartpole_20250305_0016.pt (torch, 17712 bytes, 8 tensors)

layers.0.weight f4 [32, 8]
0	0x3e934f67	0.28771517
1	0x3be0ea6f	0.006863884
2	0x3ebaa637	0.36454937
3	0xbe9c76e1	-0.30559447
4	0x3c259b22	0.010107787
5	0x3c98f8f9	0.018673407
6	0x392cb818	0.00016471779
7	0x34d9a575	4.0539786e-07
8	0xbda427d2	-0.080154076
9	0x3d8c3fa7	0.06848078
10	0x3e6a1c85	0.22862442
11	0xbde454a0	-0.111489534
12	0xba392120	-0.0007062126
13	0x3d75a852	0.059974976
14	0x3d0c9b82	0.03432799
15	0x9e0fad33	-7.606174e-21
16	0xbf0a7dd7	-0.54098266
17	0xbe55745d	-0.2084517
18	0xbd45e468	-0.04831353
19	0xbec064e9	-0.37576988
20	0x35fa531a	1.8650637e-06
21	0xbdbfca55	-0.09364764
22	0x3dece7c7	0.115676455
23	0x9636567c	-1.4729133e-25
24	0xbec99458	-0.3937099
25	0xbeaf9d29	-0.3429959
26	0x3e04e51e	0.12978026
27	0xbe372b3e	-0.1788759
28	0x9968cf8d	-1.20360334e-23
29	0xbc8971cb	-0.016777894
30	0x371c730a	9.325109e-06
31	0xbc7be9f7	-0.015375606
32	0xbe0aecc2	-0.13566878
33	0x3e9df2b3	0.30849227
34	0xbdc942f7	-0.09827226
35	0xbdc94c45	-0.098290004
36	0xb564050e	-8.4943974e-07
37	0x2d8f5cba	1.6298397e-11
38	0xa13b5b02	-6.347851e-19
39	0xbc8d1da9	-0.017226057
40	0xbed8dff0	-0.4235835
41	0xbccfd78b	-0.025371334
42	0x3ec7aa44	0.3899709
43	0xbdbce7b5	-0.09223882
44	0x3d03e8b0	0.03220433
45	0x3dc27cfc	0.09496495
46	0xbb3d5dd3	-0.0028895035
47	0xbd115ccd	-0.035488892
48	0xbecd80dd	-0.40137377
49	0xbd9d2eb2	-0.07674922
50	0xbe12c565	-0.14333113
51	0xbd37beb4	-0.044859603
52	0xbd9133dd	-0.0708997
53	0xbded468c	-0.115857214
54	0x3c03f4fa	0.008054012
55	0x15442880	3.9613834e-26
56	0xbf17084d	-0.5899704
57	0x3bc31898	0.0059538595
58	0xbeee7c4f	-0.46579215
59	0x3e11e5ae	0.14247772
60	0x3542a024	7.2503667e-07
61	0x27971043	4.192855e-15
62	0x3d753121	0.059861306
63	0xb8d0b3a4	-9.9516736e-05
64	0xa7896262	-3.8131805e-15
65	0xb44b5a41	-1.8938682e-07
66	0x98b3f23f	-4.651502e-24
67	0xaa241bc9	-1.4575766e-13
68	0xbdb26a9b	-0.0871174
69	0xbdd3982c	-0.10331759
70	0xb935ad15	-0.00017325983
71	0x3d35f8b4	0.044426635
72	0x3e453b1c	0.1926083
73	0xb9bca09e	-0.00035977823
74	0x3edf56af	0.43620822
75	0x3f03bc00	0.5145874
76	0xbdbf23ce	-0.09333001
77	0xbd13ae1f	-0.036054727
78	0xbd8275eb	-0.06370147
79	0x3c2d0d5d	0.010562268
80	0x3d069e7b	0.032865983
81	0x3e83567e	0.25651926
82	0xbe8dc9b0	-0.27692938
83	0xbe613e34	-0.21996385
84	0xbdbf655b	-0.09345504
85	0x3dee8278	0.11645979
86	0x389ba2e7	7.421319e-05
87	0x373235a0	1.0622112e-05
88	0x3eac2816	0.33624333
89	0x3e40e255	0.18836339
90	0xbf048b0a	-0.51774657
91	0x3ea33cca	0.31882316
92	0xbdcab501	-0.09897805
93	0x3d108bb5	0.035289485
94	0x21daf470	1.4836957e-18
95	0x365e8b99	3.3161834e-06
96	0xbe445237	-0.19171987
97	0xbf18256b	-0.59432095
98	0x3e00fd6a	0.1259667
99	0x3ea482c8	0.32131028
100	0x398a2d36	0.00026355096
101	0xbd6bcc44	-0.05756785
102	0xb09fd466	-1.162914e-09
103	0xbd2771c3	-0.040879976
104	0x3db4286f	0.087967746
105	0x3e5b1874	0.21396047
106	0x3e8d1943	0.27558336
107	0x3da7e618	0.08198184
108	0x311becf8	2.269017e-09
109	0x3dd51b78	0.1040563
110	0x3d6ee2d0	0.058321774
111	0xbc4475db	-0.01199099
112	0x3ea95bf7	0.33077976
113	0xbdd0b2cf	-0.10190355
114	0xbdf0ef6e	-0.117644176
115	0x3f03dcba	0.51508677
116	0xbc7f2560	-0.015572876
117	0xb500f7aa	-4.8044114e-07
118	0x94170ef8	-7.626504e-27
119	0xbdb97c78	-0.09056944
120	0x3e33f727	0.1757475
121	0x3e93010b	0.28711733
122	0xbef06620	-0.46952915
123	0x3eaeafd0	0.3411851
124	0xbd944f45	-0.07241682
125	0x39e9b757	0.00044577822
126	0x3d154070	0.036438406
127	0xb7910db9	-1.7291737e-05
128	0x3f03e74c	0.51524806
129	0xbe283db7	-0.16429792
130	0x3e9e8073	0.30957374
131	0xbedca8f9	-0.43097666
132	0x3cefa227	0.029252125
133	0x16731649	1.9636416e-25
134	0xbb12d287	-0.0022403316
135	0x3bb9097d	0.005646883
136	0xbd71492c	-0.058907673
137	0x3e0637e6	0.13107261
138	0xbe3b7aad	-0.18308516
139	0xbea44d5b	-0.32090268
140	0xbdeead38	-0.116541326
141	0x3cfda306	0.030961525
142	0x188d4e35	3.6526615e-24
143	0x1c646599	7.5570184e-22
144	0x3ea69383	0.32534418
145	0xbde3dac4	-0.111257106
146	0x3e7c309c	0.24627918
147	0xbd7b1405	-0.06129839
148	0x36247bff	2.451008e-06
149	0x3836b1aa	4.3557644e-05
150	0x3c942cf3	0.01808784
151	0x3d139b20	0.03603661
152	0x3d35ce96	0.04438647
153	0x3e6e05a2	0.23244336
154	0xbeda8a52	-0.42683655
155	0xbdbe4b63	-0.092917226
156	0xbb97d529	-0.004633565
157	0x19832592	1.3560257e-23
158	0x3bb2e338	0.0054592155
159	0xbd9c05e6	-0.076183125
160	0xbed6c369	-0.4194596
161	0xbee0e08c	-0.43921316
162	0x3e60369d	0.21895833
163	0xbea3cdde	-0.31993002
164	0x3b63ee8e	0.003477964
165	0x36a801f0	5.0070157e-06
166	0xbd560707	-0.052252796
167	0xbbd65a7d	-0.0065415488
168	0x3e181a1c	0.1485371
169	0xbe59cfdf	-0.21270703
170	0xbe93d8a1	-0.28876212
171	0xbeabc05f	-0.33545205
172	0x39f50020	0.00046730135
173	0x3b7abede	0.0038260738
174	0x36a5d73d	4.9424402e-06
175	0x13e7deb3	5.8532196e-27
176	0xbdcff345	-0.10153822
177	0x3eb6e31d	0.3572015
178	0xbe81a587	-0.253216
179	0xbe6fdc24	-0.2342382
180	0xbbdeb8fb	-0.0067969537
181	0xbdcf7d5e	-0.10131334
182	0xbb3e98de	-0.0029082815
183	0x3db7a259	0.08966512
184	0xbee6edcb	-0.45103297
185	0xbead5b83	-0.3385888
186	0x3eaa40b8	0.332525
187	0x3e72a489	0.23695578
188	0x2b501d17	7.3936815e-13
189	0x3db99e3a	0.090633824
190	0xbd3de896	-0.04636439
191	0xbd14b951	-0.036309544
192	0xbf0d83ff	-0.55279535
193	0xbf096b60	-0.53679466
194	0x3e336840	0.17520237
195	0xbe655367	-0.22395097
196	0x1cb2b785	1.1826491e-21
197	0xbbc96d1a	-0.006147039
198	0xbd8bf3df	-0.06833624
199	0x3c8f3ffe	0.017486569
200	0xbe970eb8	-0.29503417
201	0xbc314765	-0.010820244
202	0xbea05fe2	-0.31323153
203	0x3dd9cf7d	0.106352784
204	0xa010e058	-1.2271504e-19
205	0x98035c77	-1.6978036e-24
206	0x370318e4	7.814004e-06
207	0xbcb92204	-0.022599228
208	0xbf0be02c	-0.54638934
209	0x3e1660cf	0.14685367
210	0x3ec69e2a	0.38792545
211	0xbdc420fd	-0.095766045
212	0x2fbdd385	3.4529193e-10
213	0x95c3af5a	-7.903653e-26
214	0x3ac000ab	0.0014648637
215	0xbd5f9504	-0.05458547
216	0xbdb2a123	-0.08722141
217	0x3e7beee0	0.24602842
218	0x3e4c8924	0.1997419
219	0xbcb6a8d2	-0.022297297
220	0x3d0bb7ae	0.034110717
221	0x3858b7b8	5.1669515e-05
222	0x3de6b63c	0.11265227
223	0xbc7d39b8	-0.015455656
224	0xbe940944	-0.2891332
225	0xbefa6d4d	-0.48911515
226	0x3f05ed12	0.52314866
227	0x3eade32d	0.33962384
228	0x39af3651	0.0003341907
229	0xbc848829	-0.016178207
230	0x3bbe6a70	0.005811028
231	0x97a9cafb	-1.09726085e-24
232	0xbe74401c	-0.23852581
233	0x3c423f8b	0.01185597
234	0x3da8bbb6	0.08238928
235	0x3ee649b2	0.449781
236	0x362e3d04	2.5963536e-06
237	0xbcbb97fa	-0.022899617
238	0x3d200bd2	0.039073773
239	0x3d26efb4	0.040755942
240	0xbe236883	-0.15957837
241	0xbe8f0e8b	-0.27940783
242	0x3eaf38dc	0.34223068
243	0x3eff3072	0.49841648
244	0x19a6950b	1.7224196e-23
245	0xa54ac0c9	-1.7586025e-16
246	0x373cd6e8	1.125571e-05
247	0x244b74d5	4.411757e-17
248	0xbe7579a5	-0.23972185
249	0x3ed212a2	0.4102984
250	0x3e24682e	0.16055366
251	0xbd4207e8	-0.04737082
252	0x9728d4a4	-5.455212e-25
253	0x3ab52417	0.001381996
254	0xbadea8c4	-0.0016987552
255	0xb4ba83e9	-3.4741177e-07

layers.0.bias f4 [32]
0	0xbe848e9f	-0.2589006
1	0x3ed5d17d	0.4176139
2	0x3eabe5f5	0.3357388
3	0x3c992d5a	0.018698383
4	0x3ea41d7a	0.3205374
5	0xbc6812cf	-0.014164641
6	0x3e64061d	0.22267957
7	0xbe759c72	-0.2398546
8	0xbce6ba8a	-0.02816512
9	0x3e00f9a0	0.12595224
10	0x3de8a230	0.1135906
11	0x3e453727	0.1925932
12	0x3dd41b49	0.10356767
13	0x3ee8ee28	0.454942
14	0x3ed309fe	0.4121856
15	0xbc08b4de	-0.008343903
16	0xbe202179	-0.15637769
17	0x3cfd6c85	0.030935535
18	0x3e2a202d	0.16613837
19	0x3e440799	0.19143523
20	0x3ca31aa1	0.019910159
21	0x3d8ea1c5	0.06964449
22	0x3ee3e998	0.44514155
23	0x3ea5ac4d	0.32358018
24	0xbdd8ac0a	-0.10579689
25	0x3ec79d9d	0.38987437
26	0x3eac3bef	0.33639476
27	0x3e0f41eb	0.1398999
28	0x3dfe3e60	0.12414241
29	0x3e42ddae	0.19029877
30	0x3cc328ef	0.02382323
31	0x3ed78f92	0.42101723

layers.1.weight f4 [32, 32]
0	0xbe33b5ae	-0.17549774
1	0x3dc4c23e	0.09607361
2	0xbd4413ff	-0.047870632
3	0x3e84b1ab	0.259168
4	0x3e6dd5c2	0.23226073
5	0x3d10a235	0.035310943
6	0x3e683b32	0.22678831
7	0x3e09566e	0.13411877
8	0x96fcb4e0	-4.0826944e-25
9	0xbddeeef2	-0.10885419
10	0x3d0b2f3b	0.03398059
11	0x3e567d4a	0.20946231
12	0x3e04cad2	0.12967995
13	0xbd683755	-0.056693394
14	0x3e82b6a3	0.25529966
15	0x3e383bf9	0.17991628
16	0xbe72390e	-0.23654577
17	0x3e6b1bf9	0.2295989
18	0xb8b0659a	-8.411259e-05
19	0x3d5f7883	0.05455829
20	0x3da008c4	0.07814172
21	0x3d7e272b	0.062049072
22	0x3e43d3cf	0.19123767
23	0x3e44b9a5	0.19211443
24	0x3e9df6f0	0.3085246
25	0x3e5cda6e	0.215677
26	0xbd6a73e1	-0.057239417
27	0xbe5be705	-0.21474846
28	0xbe3f7445	-0.18696697
29	0x3d4b9b6a	0.04970876
30	0x3d449dab	0.048001926
31	0xbde01352	-0.10941185
32	0x3eb2f3b2	0.3495155
33	0x3e04b066	0.12957916
34	0xbe4075a6	-0.1879488
35	0xbe6580f8	-0.22412479
36	0xbcf94976	-0.030430537
37	0x3e660a9a	0.22464982
38	0xbdf5b6e8	-0.11997777
39	0xbe509423	-0.2036901
40	0xbbfe7455	-0.0077653327
41	0x3e792275	0.2432955
42	0xbadf0b3d	-0.0017016899
43	0xbd875a6e	-0.06609045
44	0x3c50dbee	0.012747748
45	0x3e7d0c03	0.24711613
46	0x3e3c0877	0.18362604
47	0xbec3a454	-0.3821131
48	0x3eaecec0	0.34142113
49	0xbd90f8af	-0.07078683
50	0x3e75eb31	0.240155
51	0xbcca6fc8	-0.024711505
52	0xbe5f3279	-0.21796598
53	0x3e5eb84e	0.21749994
54	0xbe067f4d	-0.13134499
55	0x3e3dd482	0.18538097
56	0xbe62119c	-0.2207703
57	0xbe74afd2	-0.23895195
58	0x3d1be781	0.038062576
59	0x3dfa835f	0.12232088
60	0x3e578153	0.21045427
61	0x3dda5eb1	0.10662592
62	0x3e16287f	0.14663886
63	0x3da56ea0	0.08077741
64	0xbd87e530	-0.06635511
65	0x3eb0f17f	0.34559247
66	0x3d1313f0	0.035907686
67	0x3e27e1b6	0.16394696
68	0xbd6074b8	-0.05479881
69	0x3e86f255	0.2635676
70	0xbcd1b6d6	-0.025599878
71	0xbf0a9505	-0.54133636
72	0xbb7fe07c	-0.0039043715
73	0x3ecf70c0	0.4051571
74	0x3d9ae013	0.0756227
75	0xbc553999	-0.013014221
76	0x3ea8f370	0.32998228
77	0x3de318a6	0.11088686
78	0xbc493d56	-0.01228269
79	0xbe28aec6	-0.16472921
80	0x3d9c8793	0.07643046
81	0x3d92ff3c	0.07177588
82	0x3e1e0deb	0.15434997
83	0x3d5b94db	0.053608757
84	0x3e0a9ebd	0.13537116
85	0xbe6a1ea3	-0.2286325
86	0x3d4879f6	0.048944436
87	0x3dba8606	0.09107594
88	0x3eb0fe15	0.3456885
89	0x3d25036f	0.040286478
90	0x3eb08454	0.34475958
91	0x3ecc6a06	0.3992464
92	0x3ebce786	0.36895388
93	0x3e77b1b5	0.24188884
94	0x3ec7614f	0.38941428
95	0x3e2d7d08	0.16942227
96	0xbe4d3224	-0.20038658
97	0x3e207ca3	0.15672545
98	0x3d3106a9	0.043219242
99	0x3da72e80	0.08163166
100	0x3e08b394	0.13349754
101	0x3d8a4c9c	0.06752893
102	0xbd2280af	-0.039673503
103	0xbeabab4a	-0.3352912
104	0x36b1fa75	5.304168e-06
105	0x3e954da5	0.291608
106	0x3e2a37cb	0.16622846
107	0xbdbb9640	-0.09159517
108	0x3eca292f	0.39484546
109	0x3e837ec4	0.25682652
110	0x3dea0447	0.11426597
111	0xbd7eaf66	-0.06217899
112	0xbe91ed91	-0.2850156
113	0xbdb282e4	-0.08716372
114	0xbcf07eb8	-0.0293573
115	0xbd87f176	-0.06637852
116	0x3e02fd7e	0.12792012
117	0xbdf68f96	-0.120391056
118	0x3def3e8a	0.1168185
119	0x3e88e3b5	0.26736227
120	0x3ec033c0	0.37539482
121	0xbbc1e2a5	-0.0059169107
122	0xbd26ec83	-0.0407529
123	0x3e5b039c	0.21388096
124	0x3e62e985	0.22159393
125	0xbd3e4cf5	-0.04646011
126	0x3e490146	0.19629392
127	0x3b5a5525	0.003331491
128	0x3ec1ba75	0.37837568
129	0x3eca9a0e	0.3957066
130	0x3d654b36	0.05597993
131	0xbd012e82	-0.031538494
132	0xbd51a09e	-0.051178567
133	0x3e389cc3	0.1802855
134	0x3cf0eb05	0.029408941
135	0xbdd853bc	-0.10562846
136	0x32af2aba	2.0392111e-08
137	0x3ed430fc	0.41443622
138	0xbe1fa330	-0.15589595
139	0xbd7608f5	-0.060067136
140	0x3dcc4bc3	0.09975388
141	0x3ebb9d6f	0.3664355
142	0x3ea597f3	0.3234249
143	0x3cfbba9c	0.03072863
144	0x3eba8cd5	0.3643557
145	0x3d859a35	0.06523553
146	0x3e342ea1	0.17595913
147	0xbdd0ae83	-0.101895355
148	0x3e39be38	0.18138969
149	0xbdf3c5bb	-0.119029485
150	0xbdbcf829	-0.0922702
151	0x3e142e20	0.1447072
152	0xbd41f091	-0.047348563
153	0xbe59fdf3	-0.2128828
154	0x3e4de582	0.20107082
155	0x3dd90a4c	0.10597667
156	0x3e3f0edb	0.1865801
157	0x3e5342ce	0.20630953
158	0x3eb47cf9	0.35251597
159	0x3d71573f	0.058921095
160	0xbe65bac7	-0.22434531
161	0xbd7b4204	-0.061342254
162	0x3d08a75a	0.033362724
163	0x3ddecaeb	0.10878547
164	0xbd546e0a	-0.051862754
165	0xbcf91b0a	-0.030408401
166	0x3c9d3be1	0.019193592
167	0xbeda28f5	-0.42609373
168	0xba095267	-0.0005238414
169	0xbe3207db	-0.17385809
170	0x3e638b4b	0.22221105
171	0xbd079107	-0.033097293
172	0x3e411b69	0.18858112
173	0x3e1ad87f	0.15121649
174	0x3d1d1a8e	0.038355403
175	0x3ccb2bf3	0.02480123
176	0xbe0ce585	-0.1375943
177	0xbda210c2	-0.079133525
178	0xbe136dbe	-0.14397332
179	0x3d9c2403	0.07624056
180	0x3dcda26d	0.10040746
181	0x3e34f28f	0.17670654
182	0xbd6803e8	-0.05664435
183	0xbdaf6801	-0.08564759
184	0x3eb2113f	0.34778783
185	0x3e8f43a7	0.27981302
186	0x3cb4bc51	0.022062453
187	0xbdd95e94	-0.106137425
188	0xbd9c751f	-0.076395266
189	0xbd342c7e	-0.043987744
190	0x3cd890d3	0.026436245
191	0x3df01d2c	0.11724314
192	0xbe729320	-0.23688936
193	0xbc7e5efc	-0.015525576
194	0x3ea0f275	0.3143498
195	0x3d58c8ec	0.05292599
196	0x3e053d26	0.13011608
197	0xbdeb372f	-0.11485135
198	0x3d9ab082	0.075531974
199	0x3df40518	0.11915034
200	0x367e8e42	3.7931754e-06
201	0x3d27417f	0.040833946
202	0x3e4d44f8	0.2004584
203	0x3dd5682f	0.10420262
204	0xbd7c91cf	-0.06166249
205	0x3dfe60d0	0.12420809
206	0xbcaba47c	-0.020952456
207	0x3eb47acb	0.35249934
208	0xbd4f1e2f	-0.050565895
209	0x3ed573e3	0.41689977
210	0xbda0c0b1	-0.07849253
211	0x3e043f9b	0.12914889
212	0x3ea129eb	0.31477293
213	0x3ec24486	0.37942904
214	0x3e9356cb	0.28777155
215	0x3de8b9c1	0.11363555
216	0x3e4953bb	0.19660847
217	0x3ea425d1	0.32060102
218	0xbdb3956e	-0.08768736
219	0x3d1ee663	0.038793933
220	0xbdc04af4	-0.09389296
221	0xbc022c8d	-0.007945192
222	0xbdec660e	-0.11542903
223	0x3de7f8ed	0.11326776
224	0xbcec691f	-0.02885872
225	0xbcbe67ae	-0.023242798
226	0xbc5d3c4f	-0.013503148
227	0x3dcb1f48	0.09918076
228	0x3e25ac84	0.1617909
229	0xbcc5e45f	-0.024156747
230	0xbe3b468b	-0.18288629
231	0xbee25392	-0.44204384
232	0xbb0842ce	-0.0020791772
233	0xbe380c6f	-0.17973493
234	0x3ce6abf2	0.028158162
235	0xbda45f78	-0.08026022
236	0xbb4417fc	-0.0029921522
237	0x3e0b9d69	0.13634266
238	0x3ddc283d	0.10749862
239	0x3d8fb99a	0.070178226
240	0xbe5fa095	-0.21838601
241	0xbcad8823	-0.02118308
242	0xbe8a976c	-0.2706865
243	0xbdd80119	-0.10547084
244	0x3e65a62f	0.22426675
245	0xbcdc5ca8	-0.02689965
246	0x3dd54c8d	0.104149915
247	0x3e62b4e8	0.22139323
248	0x3e940b42	0.2891484
249	0x3df83790	0.12119973
250	0xbd541e5d	-0.05178677
251	0x3dfc948b	0.1233302
252	0xbe1b2079	-0.15149106
253	0xbe116b9f	-0.1420121
254	0xbd3d2f29	-0.046187554
255	0x3e24c32b	0.16090076

layers.1.bias f4 [32]
0	0x3e2610ec	0.16217393
1	0x3d891fbe	0.066955075
2	0x3e9ddde1	0.30833343
3	0x3e0dd175	0.13849433
4	0x3dc75886	0.097336814
5	0x3e89ce6d	0.26915303
6	0x3d1b456c	0.037908003
7	0x3e46af6c	0.19402856
8	0x3e2755c2	0.16341308
9	0x3d3daa47	0.046304967
10	0xbe201ea5	-0.1563669
11	0xb9e809bb	-0.00044257738
12	0x3d1db2a6	0.03850045
13	0x3e80a224	0.25123703
14	0x3d843b3b	0.0645661
15	0x3e186519	0.14882316
16	0x3e422581	0.18959619
17	0x3e790cbd	0.24321266
18	0x3e2028ab	0.15640514
19	0x3e2c145d	0.16804643
20	0x3bf188ea	0.0073710578
21	0x3db81649	0.089886256
22	0x3e297eed	0.16552325
23	0x3dcd9b85	0.100394286
24	0x3da71d8b	0.08159932
25	0xbc420088	-0.011840947
26	0x3d6e57ba	0.05818913
27	0x3d0e297e	0.03470754
28	0x3e48a844	0.19595438
29	0x3e42c511	0.19020487
30	0x3e5aaeb7	0.21355711
31	0xbd56aba2	-0.052409776

layers.2.weight f4 [32, 32]
0	0x3e2bf1ee	0.16791508
1	0x3a2826d2	0.0006414476
2	0xbdf9e7e7	-0.12202435
3	0xbd8576b4	-0.065167814
4	0xbad1fae8	-0.001602021
5	0xbcfb4096	-0.030670445
6	0xbe14e16a	-0.14539114
7	0x3d7107ca	0.05884532
8	0x3de7211e	0.112856135
9	0xbe2af6c5	-0.16695698
10	0x3b03f15e	0.002013288
11	0xbd789c6e	-0.060696058
12	0x3baaf2f3	0.00521695
13	0x3e110909	0.14163603
14	0x3d4db4c7	0.05022123
15	0x3e290c1f	0.1650853
16	0xbddbf5c2	-0.10740234
17	0xbdc9bc12	-0.09850325
18	0x3d9da54e	0.07697545
19	0xbd9fd3e3	-0.07804086
20	0xbd865dbf	-0.065608494
21	0xbd84444a	-0.064583376
22	0xbd0fe373	-0.03512902
23	0xa74ebdf1	-2.869121e-15
24	0xbe1586a8	-0.14602149
25	0xbcf45565	-0.029825876
26	0x3c011082	0.007877471
27	0x3d43aefa	0.047774293
28	0xbc0bf98d	-0.008543384
29	0x3e0fa5c8	0.14028084
30	0xbda6872b	-0.0813125
31	0xbc1f4029	-0.009719887
32	0xbe16916c	-0.14703912
33	0xbe4f9bf9	-0.20274343
34	0xbcf2cd0e	-0.029638793
35	0x3e179bbc	0.14805502
36	0xbe2846e8	-0.16433299
37	0x3e0026d8	0.12514818
38	0x3e7faa9d	0.24967428
39	0x3d2ff3be	0.04295706
40	0xbc5ac7d7	-0.01335331
41	0x3d7425f0	0.059606493
42	0xbadc4a20	-0.0016806759
43	0x3d7a54d7	0.061116066
44	0xbd00b711	-0.031424586
45	0x3e34d13d	0.17657943
46	0x3e5abc57	0.21360908
47	0x3df484fb	0.119394265
48	0xbd621ce2	-0.055203326
49	0x3e28ba25	0.16477259
50	0x3e010026	0.12597713
51	0x3de3927e	0.111119255
52	0x3e63b144	0.2223559
53	0xbdf6fc5c	-0.120598525
54	0xbd628ffd	-0.0553131
55	0xbe40d7b9	-0.18832292
56	0x3db8a33f	0.09015512
57	0x3e9cc96c	0.30622423
58	0x3e8e1e4f	0.277575
59	0x3e713a78	0.2355746
60	0xbe510f03	-0.20415883
61	0x3e97a86f	0.29620692
62	0x3e10a76e	0.1412637
63	0x3e4fe267	0.2030121
64	0x3e84af7e	0.2591514
65	0xbe817d49	-0.25290897
66	0x3d45f5dd	0.048330177
67	0x3da4cc08	0.080467284
68	0x3da8b6c0	0.08237982
69	0x3ddd6dab	0.10811933
70	0xbda5d073	-0.08096399
71	0x3e872987	0.2639887
72	0x3d95fa19	0.07323093
73	0xbd501553	-0.050801586
74	0xbe835ea6	-0.2565815
75	0x3e8bc03e	0.27295107
76	0x3cdd97c6	0.02704991
77	0x3e017b72	0.12644747
78	0x3e866719	0.26250532
79	0x3dba1825	0.090866365
80	0x3db7825f	0.08960413
81	0x3e2676cf	0.1625626
82	0xbc25ba95	-0.010115285
83	0xbca82aa4	-0.020528145
84	0x3e165495	0.14680703
85	0x3e6abe91	0.22924258
86	0x3e2da883	0.16958813
87	0xbe1074ea	-0.14107099
88	0xbdf8757a	-0.12131782
89	0xbda6de67	-0.08147889
90	0x3dc4d0c9	0.09610135
91	0x3dceead2	0.10103382
92	0x3e63b37d	0.22236438
93	0x3e02c7e1	0.1277156
94	0x3e4cf219	0.20014228
95	0x3d8ab8f6	0.0677356
96	0x3df190e6	0.11795215
97	0x3d5eb5b0	0.05437249
98	0xbdd637b8	-0.10459846
99	0x3d97ab5a	0.074057296
100	0x3bc03acb	0.0058663837
101	0xbc2e76ec	-0.01064847
102	0xbabac49e	-0.001424927
103	0xb255c937	-1.2443983e-08
104	0xbce2980a	-0.027660388
105	0xb9fd5912	-0.00048322283
106	0xbb3c6cc3	-0.002875135
107	0x98c8bf06	-5.1891673e-24
108	0xbd158318	-0.036501974
109	0xa1aff415	-1.1923069e-18
110	0xbca5b76d	-0.020229066
111	0xbdbe7779	-0.09300131
112	0x3df106d3	0.1176888
113	0x3c91b9e8	0.017788842
114	0xbd7852c4	-0.060625806
115	0xbcb5799a	-0.02215271
116	0xb8fcc4c4	-0.00012052947
117	0x3d8f37da	0.06993075
118	0x3abf10f0	0.0014577191
119	0xbda6243c	-0.0811238
120	0xbbd55c98	-0.006511282
121	0x258cf11f	2.4449519e-16
122	0x3ca43b20	0.020047724
123	0x1f0fb731	3.043296e-20
124	0xbdca2f4f	-0.09872305
125	0xb957b2e4	-0.0002057064
126	0xbccd3e8f	-0.025054244
127	0x3a77ab82	0.0009447859
128	0xbc308669	-0.010774233
129	0x3bdcc1ba	0.006736961
130	0xb9b08af8	-0.00033672876
131	0xa5b98ff2	-3.2189925e-16
132	0xb90f0959	-0.00013641025
133	0x988373e0	-3.397971e-24
134	0xbb223093	-0.002474819
135	0xb557f16b	-8.044505e-07
136	0xbc0c9935	-0.008581449
137	0x3b92dfe0	0.0044822544
138	0x3b89c65f	0.004204556
139	0x980a9a75	-1.7914063e-24
140	0x991d93db	-8.146569e-24
141	0x341ab1de	1.4407075e-07
142	0x3028cb3a	6.1406846e-10
143	0xbbdc3f6e	-0.0067214286
144	0xbaf7fc4c	-0.0018919795
145	0xba02936c	-0.0004981074
146	0x3abd02c0	0.0014420375
147	0xaa9b91f2	-2.76348e-13
148	0x25b09244	3.0630247e-16
149	0xbc31f6fb	-0.010862107
150	0x3b48714d	0.003058511
151	0x2885941d	1.48302e-14
152	0xb995f6da	-0.00028603413
153	0x3bfc32a8	0.0076964684
154	0x3c0ea23d	0.008705673
155	0x3b67f217	0.00353921
156	0x182cf357	2.2353334e-24
157	0xbc305c7d	-0.010764238
158	0xba499f89	-0.0007691314
159	0xb077ff5c	-9.0220964e-10
160	0x3e459ee0	0.19298887
161	0xbe285060	-0.1643691
162	0xbdbf4c03	-0.0934067
163	0x3d87fb7c	0.06639764
164	0x3dbc3052	0.09188904
165	0x3e679245	0.22614391
166	0xbd4c043e	-0.049808733
167	0xbc08db58	-0.008353077
168	0x3e54e03c	0.20788664
169	0x3dea0f4e	0.114287004
170	0xbeab6e7b	-0.33482727
171	0x3e443a13	0.19162779
172	0x3b7c9518	0.0038541015
173	0x3d882bb7	0.06648963
174	0x3e81d2fc	0.2535628
175	0x3e600b7f	0.21879385
176	0x3e3d4f1f	0.18487214
177	0x3d30fa77	0.043207612
178	0x3e8f0e50	0.27940607
179	0x3da811b2	0.082065
180	0xbc01455a	-0.00789007
181	0x3e7a479a	0.24441376
182	0x3cf620b2	0.030044887
183	0xbd8044a4	-0.06263092
184	0xbd0a9893	-0.033836912
185	0xbe2d9445	-0.16951092
186	0xbe1e157f	-0.15437888
187	0x3e067bba	0.13133135
188	0x3e757569	0.2397057
189	0xbd0d81fb	-0.034547787
190	0xbd3dd867	-0.046348955
191	0xbcc4eb27	-0.02403791
192	0xbd25b448	-0.040455133
193	0x3df7c302	0.12097742
194	0x3d83b29a	0.0643055
195	0xbe0d152f	-0.13777612
196	0x3d55adaa	0.052167572
197	0xbe37b1ac	-0.1793887
198	0xbc7d95ef	-0.0154776415
199	0xbd6c3fba	-0.057677962
200	0xbdff6137	-0.12469714
201	0xbd564505	-0.052311916
202	0x3d7a9efa	0.061186768
203	0xbd97abd3	-0.0740582
204	0xbd71f4fb	-0.059071522
205	0xbdd735b4	-0.1050829
206	0x3e0bec55	0.13664372
207	0xbd985530	-0.07438123
208	0xbe2977ba	-0.16549578
209	0x3db119ee	0.08647524
210	0xbe3f5da9	-0.18688072
211	0x3c813fbe	0.015777465
212	0xbddcd3f8	-0.10782617
213	0xbe387c50	-0.18016171
214	0x3da61963	0.08110311
215	0x3b4503bc	0.003006204
216	0xbd66d2ae	-0.056353264
217	0xbe34fe3a	-0.17675105
218	0xbd709e48	-0.0587447
219	0x3dc3c8bf	0.09559774
220	0x3dd6927d	0.10477159
221	0x3db52576	0.08845036
222	0x3d8b8019	0.06811542
223	0xbdadd134	-0.08487168
224	0x3e426c2b	0.18986575
225	0xbe5e7285	-0.21723373
226	0x3d0cbea6	0.034361504
227	0x3db2a96c	0.08723721
228	0xbe44f93a	-0.19235697
229	0x3ac63693	0.0015122466
230	0x3d10e1d2	0.03537161
231	0x3e059e97	0.13048778
232	0x3e4753c6	0.19465551
233	0x3d2c72c4	0.042101637
234	0xbd844b71	-0.06459702
235	0x3da47c4f	0.080315225
236	0x3e02aa8a	0.12760368
237	0xbd762fa5	-0.06010403
238	0x3c1cd290	0.009571686
239	0x3b86abaa	0.0041098194
240	0x3d792560	0.06082666
241	0xbdd2165e	-0.102581725
242	0x3e2afc81	0.16697885
243	0x3e375774	0.17904454
244	0x3dfc752d	0.12327037
245	0x3dc7382f	0.09727513
246	0x3d59c9c4	0.053170934
247	0xbe391010	-0.18072534
248	0x3d87d62e	0.066326484
249	0x3e0f25a0	0.13979197
250	0xbe09b68f	-0.13448547
251	0xbdc31d83	-0.09527113
252	0x3e0d6946	0.1380969
253	0xbdd54b6e	-0.10414778
254	0x3e3bfe1c	0.18358654
255	0x3e3cf730	0.1845367

layers.2.bias f4 [32]
0	0xbcb89f78	-0.022536978
1	0xbd8e0c12	-0.06935896
2	0x3e28e1b3	0.16492347
3	0xbd03262c	-0.032018825
4	0x155f41f7	4.5086528e-26
5	0x3d66dfe8	0.056365877
6	0x3deaee3b	0.1147122
7	0x3d097934	0.033562854
8	0x3dfbee89	0.12301356
9	0x3d8fc299	0.070195384
10	0xbd268f03	-0.04066373
11	0x3e2f1666	0.17098388
12	0xbc5d2d1d	-0.013499525
13	0x3e0b4a83	0.13602643
14	0x3e43a006	0.19104013
15	0x3e57f27c	0.21088594
16	0x94e97eaa	-2.3576948e-26
17	0xb8f1ba34	-0.000115264585
18	0x3d9e6f14	0.0773603
19	0x3df62e5d	0.12020562
20	0xbc85b269	-0.016320424
21	0x3d80dda3	0.06292274
22	0x3d8ed60b	0.06974419
23	0xbe17b179	-0.14813794
24	0x3cae6b22	0.02129132
25	0xbcbf052c	-0.023317896
26	0xbcef2074	-0.02919028
27	0xbcb72d83	-0.022360569
28	0xbdad8151	-0.08471931
29	0x3df0965b	0.11747428
30	0xbb8f0574	-0.0043646637
31	0x3c50c3bc	0.012741979

layers.3.weight f4 [34, 32]
0	0x3d51bb8d	0.051204253
1	0xbe0d8762	-0.13821176
2	0xbdc16871	-0.09443749
3	0xbb104770	-0.0022015236
4	0xb8be84f9	-9.084674e-05
5	0xbe33e6fb	-0.17568581
6	0xbd333c92	-0.043758936
7	0xbe69c098	-0.22827375
8	0xbcf3f7cc	-0.029781245
9	0x3cde935c	0.027169876
10	0x3d812f7d	0.06307886
11	0x3d040c3a	0.032238223
12	0xbe0069cc	-0.12540358
13	0xbd6a35c1	-0.05718017
14	0xbe06f486	-0.13179216
15	0xbe0725ee	-0.13198063
16	0x36e0cf1c	6.699831e-06
17	0x3ba8262f	0.005131505
18	0x3de6c33d	0.112677075
19	0x3b9ec8fa	0.0048457356
20	0x3bb16fd7	0.0054149437
21	0x3db5f62d	0.08884845
22	0xbe66ee77	-0.22551905
23	0x3b20c75b	0.0024532888
24	0xbc2d2d58	-0.010569893
25	0xbe018145	-0.12646969
26	0xbecc8e4c	-0.39952314
27	0x3b948cd0	0.0045333877
28	0xbd06e9e8	-0.032937914
29	0x3d6e32e6	0.05815401
30	0x3d4dd404	0.050251022
31	0xbd9bc715	-0.07606331
32	0xbe021f59	-0.1270727
33	0x3da5ea06	0.08101277
34	0x3e3b808c	0.18310755
35	0xbc227199	-0.009914779
36	0x2fa3afc8	2.9774427e-10
37	0x3d979067	0.074005894
38	0xbe00b98a	-0.12570778
39	0x3db2fd44	0.08739713
40	0x3e70441e	0.23463485
41	0x3e40d3f1	0.18830849
42	0xbd6933d3	-0.05693419
43	0x3e8737f5	0.2640988
44	0xbe5a70f7	-0.21332155
45	0xbdbc7206	-0.09201436
46	0x3e8a85bd	0.2705516
47	0x3db4669b	0.08808633
48	0xb81ca422	-3.734616e-05
49	0x138df249	3.5832316e-27
50	0xbd1f6849	-0.038917813
51	0x3e6e8f58	0.23296869
52	0xb7251909	-9.840595e-06
53	0xbe0cafa3	-0.13738875
54	0xbd9f4068	-0.077759564
55	0xbc2b9414	-0.010472316
56	0x3be87c52	0.0070948983
57	0xbe1b7e7b	-0.15184967
58	0xbe5c493d	-0.21512313
59	0xb972e575	-0.00023164398
60	0xbd77e675	-0.060522515
61	0xbd120e94	-0.035658434
62	0xbdd0f7e2	-0.1020353
63	0x3de6d242	0.11270572
64	0x3ca51a44	0.020154126
65	0xbe6b9bae	-0.23008606
66	0xbd00260f	-0.031286296
67	0xbcd171e3	-0.025567
68	0x247a4421	5.4267816e-17
69	0xbe329ae0	-0.17441893
70	0x3cb81509	0.022470968
71	0xbe31c2be	-0.17359444
72	0xbe508490	-0.20363069
73	0x3d847b97	0.064688854
74	0xbe176f78	-0.14788616
75	0x3dd9c516	0.10633294
76	0xbd519c35	-0.05117436
77	0x3d63660d	0.055517245
78	0xbca7fb9a	-0.020505715
79	0xbe516a7b	-0.20450775
80	0x3bd04390	0.0063557103
81	0xbc0b5911	-0.008505122
82	0xbe0fdb21	-0.14048435
83	0x3d274b7d	0.040843476
84	0xb53f3cde	-7.124162e-07
85	0xbd748afb	-0.059702855
86	0x3db40751	0.08790458
87	0xb9bacfc8	-0.00035631494
88	0x3bf7f542	0.007567079
89	0xbdda463f	-0.1065793
90	0x3e3fb475	0.18721183
91	0x3bc520c9	0.006015871
92	0xbed13f37	-0.40868542
93	0xbdbff2a6	-0.093724534
94	0xbec5e586	-0.38651675
95	0x3d1ef48b	0.038807433
96	0xbd2f36dc	-0.042776927
97	0x3dceefbd	0.1010432
98	0xbd6137a6	-0.05498471
99	0x3b77b934	0.0037799599
100	0xbc126081	-0.008934141
101	0xbd393990	-0.04522091
102	0x3da9c3ee	0.08289324
103	0xbe5ce181	-0.21570398
104	0xbe4d60e3	-0.2005649
105	0xbe941aab	-0.28926596
106	0xbe86fd4c	-0.26365125
107	0xbd886928	-0.06660682
108	0xbc8990fd	-0.016792769
109	0xbd30009d	-0.042969335
110	0xbdc020c0	-0.093812466
111	0xbe176fb2	-0.14788702
112	0xb7bf17c8	-2.2780048e-05
113	0xafe8eb70	-4.2367843e-10
114	0x3cfa337f	0.030542133
115	0xbe5d2b2a	-0.21598497
116	0xbae0a92b	-0.001714026
117	0x3cadcb49	0.021215098
118	0xbea7164e	-0.32634205
119	0xafe2c514	-4.1249193e-10
120	0x3638fbab	2.7564627e-06
121	0x3dee2fa7	0.11630183
122	0xbe97b752	-0.2963205
123	0x3611b538	2.1712167e-06
124	0x3d614fbc	0.05500768
125	0xbe826c07	-0.25473043
126	0x3e1e0506	0.15431604
127	0x3dda2c7e	0.106530175
128	0x3c88452c	0.016634546
129	0xbe170fd8	-0.14752138
130	0x3e1a1741	0.15047933
131	0xbbf77746	-0.0075520603
132	0x3b5ec5d2	0.0033992422
133	0x3ad5351e	0.001626644
134	0x3e0c463d	0.13698669
135	0x3e047d57	0.12938438
136	0xbdab244d	-0.08356533
137	0xbe086442	-0.13319495
138	0xbd8eb21b	-0.06967565
139	0x3dce2d85	0.10067276
140	0xbd636b7b	-0.055522423
141	0xbe29d62b	-0.16585605
142	0xbda825d5	-0.08210341
143	0xbd40a79d	-0.04703485
144	0xb6e78ade	-6.9005027e-06
145	0xba463805	-0.0007561448
146	0xbc66a2cf	-0.0140769025
147	0x3e366811	0.17813136
148	0xa86d5d6c	-1.31764005e-14
149	0xbd6340a6	-0.055481575
150	0xbde8343e	-0.113380894
151	0x3c2856d9	0.010274612
152	0xba8ec4e9	-0.0010892424
153	0xbb7e81d0	-0.0038834698
154	0xbe69c2d7	-0.22828232
155	0xb7b4961e	-2.1527576e-05
156	0xbe410b37	-0.18851934
157	0xbd319a81	-0.043360237
158	0xbcc3fb78	-0.02392362
159	0xbd7a7aef	-0.061152395
160	0x3b3fc8d5	0.0029263992
161	0xbdc64b46	-0.09682326
162	0xbc94c293	-0.018159186
163	0xbcdd1790	-0.026988775
164	0x20065d64	1.1381142e-19
165	0xbe218785	-0.15774353
166	0x3d1d8ffb	0.03846739
167	0xbe3aee19	-0.1825489
168	0xbd91b7e6	-0.07115154
169	0xbe125f11	-0.14294077
170	0xbca9724f	-0.02068439
171	0xbcea05b2	-0.028567169
172	0xbe0b69d8	-0.13614595
173	0xbe07f9aa	-0.13278833
174	0x3dfd601e	0.123718485
175	0xbe07af0a	-0.13250366
176	0x36311572	2.6387538e-06
177	0x9bef4428	-3.9583278e-22
178	0x3e1da605	0.15395363
179	0xbded614c	-0.115908235
180	0x3b61aec1	0.0034436437
181	0xbe20eb73	-0.15714817
182	0xbe9db988	-0.30805612
183	0xb6268227	-2.4811686e-06
184	0x39269515	0.00015886531
185	0xbe14891c	-0.14505428
186	0xbe919e81	-0.2844124
187	0xbb956639	-0.004559305
188	0x3c8805e7	0.016604377
189	0xbe9e7354	-0.30947363
190	0x3d0041b6	0.031312667
191	0xbb62d365	-0.0034610864
192	0xbc3d4419	-0.01155188
193	0xbe8082b6	-0.25099725
194	0xbe2099e5	-0.15683706
195	0xbd13e3a4	-0.036105767
196	0x3b864f40	0.004098803
197	0x3c779189	0.015110382
198	0xbdd73a70	-0.10509193
199	0xbe6c33b7	-0.23066603
200	0xbe5aff62	-0.21386483
201	0xbe9a68a4	-0.3015796
202	0xbc681a99	-0.014166498
203	0xbe22c2a4	-0.15894562
204	0x3e081c3d	0.13292022
205	0x3d04b497	0.032398786
206	0x3d965524	0.07340458
207	0x3e47b87c	0.19503969
208	0x37f78258	2.950539e-05
209	0x3a7b2a78	0.00095812185
210	0x3d5db66a	0.05412904
211	0xbe334f60	-0.17510748
212	0xb6926c8e	-4.3637765e-06
213	0xbdec0ef0	-0.115262866
214	0xbe988aa3	-0.2979327
215	0x3bf31678	0.00741845
216	0x38af45c9	8.357649e-05
217	0xbdefe17b	-0.11712929
218	0xbe117281	-0.14203836
219	0xbaa19b93	-0.001232969
220	0x3d651586	0.05592873
221	0xbec5e052	-0.38647705
222	0x3e2fbb39	0.17161264
223	0xbe0bf4c8	-0.13667595
224	0x3c1a41c0	0.00941509
225	0xbcaf20db	-0.021377971
226	0xbe5fb8e0	-0.21847868
227	0x3c50f915	0.012754698
228	0xba429768	-0.0007423074
229	0xbe28258e	-0.16420576
230	0x3d9858d2	0.07438816
231	0xbe097a89	-0.1342565
232	0x3d0e1c84	0.034695163
233	0x3d488581	0.048955444
234	0x3de5210c	0.11187944
235	0x3e07aa39	0.13248529
236	0xbd2ea33f	-0.042636152
237	0x3dac41b4	0.084109694
238	0xbd03cfa9	-0.032180462
239	0xbe68805c	-0.22705215
240	0x3a77894b	0.00094427605
241	0xb79821ff	-1.8135643e-05
242	0xbdf62ce9	-0.12020285
243	0x3dd5827d	0.10425279
244	0xb90a4b8b	-0.00013188848
245	0x3e12d18b	0.14337747
246	0x3d99d425	0.075111665
247	0xabdf1370	-1.5850498e-12
248	0x3c4f4e78	0.012652986
249	0xbd9eb1b5	-0.07748739
250	0x3b808859	0.003922504
251	0x2640aa38	6.684407e-16
252	0xbe647ab3	-0.22312431
253	0x3e12366b	0.14278571
254	0xbeb10195	-0.3457152
255	0xbeb88f21	-0.360467

layers.3.bias f4 [34]
0	0x3dceeadf	0.10103392
1	0x3d16518a	0.036698855
2	0x3ca41f89	0.020034568
3	0x3a27e974	0.00064053317
4	0x3df16141	0.11786128
5	0x3deeab11	0.11653722
6	0x3dc4aa4d	0.09602795
7	0xbe60e207	-0.21961223
8	0xbdd1b2b1	-0.10239161
9	0xbd5d8f76	-0.054091893
10	0xbe25fc10	-0.16209435
11	0x3d794a35	0.060861785
12	0x3ce41bcc	0.027845286
13	0xbd7e1942	-0.062035806
14	0xbe0d8e12	-0.13823727
15	0x3cc00224	0.02343852
16	0xbe1fb14e	-0.1559498
17	0x3d2919a2	0.04128421
18	0xbe471326	-0.19440898
19	0xbe0dc24f	-0.13843654
20	0x3d775509	0.06038383
21	0x3dc66753	0.09687676
22	0xbdc9f00f	-0.09860241
23	0xbca3ca8f	-0.019994048
24	0x3df36784	0.118849784
25	0xbd31c0ee	-0.043396883
26	0x3b840869	0.004029323
27	0xbd95460b	-0.0728875
28	0xbd8374dc	-0.064187735
29	0xbe4359c9	-0.19077219
30	0x3cc62028	0.024185255
31	0x3dbb1ff6	0.091369554
32	0xbdd2decb	-0.10296401
33	0xbe2005e3	-0.15627246
