regression_cartpole_20250305_0047.pt (torch, 18552 bytes, 8 tensors)

layers.0.weight f4 [32, 8]
0	0xbeeb79f5	-0.45991483
1	0xbd2ccaef	-0.04218572
2	0x3e9864df	0.2976446
3	0xbe99a05a	-0.3000515
4	0x3d741e4d	0.05959921
5	0x3e548cf3	0.20756893
6	0xa8d08a52	-2.3152626e-14
7	0xbdaeb4ee	-0.08530603
8	0x2ad6cb22	3.8154988e-13
9	0x2d2d1feb	9.840999e-12
10	0xab113e18	-5.160052e-13
11	0x2ba38d5b	1.1621081e-12
12	0xbdf136d4	-0.11778036
13	0x3de5f5b0	0.11228502
14	0x3e3122fa	0.17298499
15	0xbe038b0b	-0.1284601
16	0xbe4d8312	-0.2006953
17	0x3ea7fd22	0.32810313
18	0xbdcbc514	-0.09949699
19	0xbe08a6df	-0.13344906
20	0x3de2ded6	0.11077659
21	0xbdfff043	-0.12496998
22	0x28c428e5	2.1778106e-14
23	0x3ca15b09	0.01969673
24	0x3e0c2213	0.13684873
25	0x3e811248	0.2520926
26	0x3e8657e3	0.26238927
27	0xbe5d25e4	-0.21596485
28	0x3b5cfd48	0.0033720303
29	0x2ad67c27	3.8100184e-13
30	0xbe349fb0	-0.17639041
31	0xbe0cbe66	-0.13744506
32	0x3e3fb060	0.18719625
33	0x3ea1dccc	0.31613767
34	0xbea9f348	-0.3319342
35	0x3d66b0ab	0.056320827
36	0x3db69d03	0.08916666
37	0xbbe9790d	-0.007125026
38	0x3de83bfe	0.113395676
39	0xbd4ce30a	-0.05002121
40	0xbee3ab3e	-0.44466585
41	0xbd500e39	-0.050794814
42	0x3e981782	0.29705435
43	0xbeb6b573	-0.3568531
44	0xbd32326a	-0.04350511
45	0x3d73662b	0.059423607
46	0xbcfa5bcf	-0.030561356
47	0x3e5c2444	0.21498209
48	0xbc7e5985	-0.015524273
49	0xbe0e4ecf	-0.1389725
50	0xbe62a596	-0.22133479
51	0xbe81caee	-0.25350136
52	0x2df3e8e6	2.772933e-11
53	0xbe1f24ca	-0.15541378
54	0x3c57293c	0.01313239
55	0x3d9d93a0	0.07694173
56	0xbea19c8b	-0.31564745
57	0xbd84ced7	-0.06484764
58	0x3e3e0a1c	0.18558544
59	0xbe4f31af	-0.20233797
60	0x3d931558	0.07181805
61	0x3d20f240	0.039293528
62	0xbcebc064	-0.028778262
63	0x3d1792a7	0.037005093
64	0x3e89bc90	0.26901674
65	0x3d2de08c	0.042450473
66	0xbe93892c	-0.2881559
67	0xbe44e1dd	-0.19226785
68	0xaf3ba0d7	-1.7064693e-10
69	0xbdfc6d93	-0.12325587
70	0xbe25944e	-0.16169855
71	0x3e2af39c	0.16694492
72	0x3e2b559f	0.1673188
73	0x3d3fc34b	0.046817105
74	0xbece7a6c	-0.40327775
75	0xbea23bc1	-0.31686214
76	0xbcf415c9	-0.029795544
77	0xbd279c18	-0.040920347
78	0x3e53c337	0.20679937
79	0xbd9adf62	-0.07562138
80	0xbe497625	-0.19673975
81	0x3e0b260d	0.13588734
82	0x3c9327ec	0.017963372
83	0x3e18016f	0.14844297
84	0xbd8adfe5	-0.06780986
85	0x3e49b0ee	0.196964
86	0x3ddbb0a2	0.107270494
87	0xbe4a84e7	-0.1977726
88	0xbecb3059	-0.39685324
89	0xbde9ce77	-0.11416333
90	0x3eb0cca3	0.34531125
91	0xbe26e127	-0.16296826
92	0x3bc6c11d	0.0060655014
93	0xbccd7c8a	-0.025083799
94	0x3e0399f1	0.12851693
95	0x277fee2c	3.5517472e-15
96	0xbd8c3959	-0.06846876
97	0x3de6022a	0.112308815
98	0x3e489bae	0.19590637
99	0xbee63b58	-0.4496715
100	0x3e2fd6eb	0.17171828
101	0xbd3dc7d0	-0.046333134
102	0xbdc1e1c7	-0.09466892
103	0xb600ffd2	-1.9222393e-06
104	0x3d70f3f2	0.058826394
105	0xbb6a9cc0	-0.0035798997
106	0xbe8d423a	-0.2758959
107	0xbcaeb631	-0.02132711
108	0xbcfe2355	-0.031022707
109	0x3d11c751	0.035590474
110	0x3dac6832	0.08418311
111	0xbc9622be	-0.018327113
112	0x3dde905c	0.10867378
113	0x3e7e1c0f	0.24815391
114	0xbbb1ae19	-0.0054223654
115	0x3e0bdb2a	0.13657823
116	0x3ded2aa7	0.11580401
117	0x3e2c2c50	0.16813779
118	0xbdffb10e	-0.124849424
119	0xbca7d95d	-0.02048939
120	0x3e3050cb	0.1721832
121	0x3d90c122	0.07068087
122	0xbed946a2	-0.424367
123	0xbe859574	-0.26090586
124	0xbe06a910	-0.1315043
125	0x34390c6e	1.723399e-07
126	0x3d49e375	0.049289186
127	0xba3a584f	-0.0007108496
128	0xbe73817a	-0.2377986
129	0xbe643bc2	-0.22288421
130	0x3ec673c9	0.38760212
131	0x3e25ed28	0.16203749
132	0x3e42a4d1	0.19008185
133	0xbd32a6de	-0.04361617
134	0x3d9db273	0.07700052
135	0xbe2f88de	-0.17142054
136	0x3eb0b617	0.34513924
137	0x3e6f0e05	0.23345192
138	0xbeac9a63	-0.33711538
139	0x3e03be4d	0.12865563
140	0x3e03e624	0.1288076
141	0x2e0200d8	2.9559327e-11
142	0xbe41f9eb	-0.18942992
143	0x3e344bc4	0.17607027
144	0x3eb391b4	0.350721
145	0x3e0321d2	0.1280587
146	0xbe52956f	-0.20564817
147	0x3dcae204	0.0990639
148	0x3da3a1cb	0.07989844
149	0x3e56868f	0.20949768
150	0x3a607e4d	0.0008563742
151	0xbd61cdd5	-0.055127937
152	0x3e91949e	0.28433698
153	0xbea79248	-0.3272879
154	0x3d3559ca	0.044275083
155	0x3eac1a0e	0.33613628
156	0xbe564ac0	-0.20926952
157	0x3dc74bf9	0.097312875
158	0x3e186d33	0.14885406
159	0x2b2dd058	6.175108e-13
160	0xbed42442	-0.41433913
161	0x3ccb0a29	0.024785118
162	0x3eab1fa0	0.33422565
163	0xbe988183	-0.2978631
164	0xbdd9d54a	-0.10636385
165	0x37d4ddf7	2.537573e-05
166	0x3ab8c88b	0.0014097852
167	0xbb03bd13	-0.002010171
168	0xbe8e496c	-0.2779039
169	0x3d7bbb32	0.06145782
170	0x3ea0a6a5	0.3137714
171	0xbd661154	-0.05616887
172	0x26c55c4e	1.369464e-15
173	0xbe5b9c48	-0.21446335
174	0xbe141be0	-0.14463758
175	0xbd59a3a2	-0.053134568
176	0x3ea08df3	0.313583
177	0xbe929dd3	-0.28636035
178	0x3eb9aaf8	0.3626325
179	0x3e2b4243	0.16724496
180	0x3dfa0358	0.12207669
181	0x3e19fdc3	0.15038209
182	0x36bec716	5.685618e-06
183	0xb7934f9a	-1.7560833e-05
184	0x3d5d5bfe	0.05404281
185	0x3e845c8e	0.25851864
186	0xbedaf2a7	-0.42763254
187	0x3e614bb3	0.22001533
188	0xbc915382	-0.017740015
189	0x3cc1438d	0.023591781
190	0xbe1f74c7	-0.15571891
191	0xac19747a	-2.1807265e-12
192	0xbe8db9f1	-0.27680925
193	0xbdbd671e	-0.09248184
194	0xbed6d237	-0.41957256
195	0x3dd2c0be	0.10290669
196	0xaa9c398d	-2.77511e-13
197	0xbe4c13a3	-0.19929366
198	0xb440f0e0	-1.7969023e-07
199	0x3ca076ba	0.019587863
200	0x3e713375	0.23554786
201	0x3e8587f1	0.26080278
202	0xbe91e004	-0.28491223
203	0x3e8f276e	0.2795977
204	0xbe1c1bf7	-0.15245043
205	0xb890cb16	-6.904283e-05
206	0x3e5116f3	0.2041891
207	0x3c547390	0.012967005
208	0xbe7318f3	-0.23739986
209	0xbdd89621	-0.1057551
210	0x3e550148	0.2080127
211	0x3d173d08	0.03692344
212	0x3c5a6d68	0.013331749
213	0x3a722fcb	0.0009238689
214	0x3d594122	0.05304063
215	0xbda5a898	-0.08088797
216	0xbea9b3a7	-0.33144876
217	0x3e2fd377	0.17170511
218	0x3e0c4a0c	0.13700122
219	0xbdf3cbd7	-0.11904114
220	0x3e39b59d	0.18135686
221	0xbe55e7c0	-0.20889187
222	0x2a3e3745	1.6894565e-13
223	0xa894c254	-1.6515577e-14
224	0xbe3cedf7	-0.18450151
225	0xbc9588fe	-0.0182538
226	0xbe48f00b	-0.19622819
227	0xbcbb0e1b	-0.022833874
228	0xbe14fea0	-0.14550257
229	0xbe4d1a4d	-0.20029564
230	0x3e5f1e26	0.21788844
231	0xb482a5c3	-2.4334994e-07
232	0xbe9820ac	-0.29712427
233	0x3e328c2f	0.17436288
234	0x3e953df9	0.29148844
235	0xbcdd4200	-0.02700901
236	0xbc0a8062	-0.00845346
237	0x3e0af833	0.13571243
238	0xbaae757f	-0.0013310163
239	0xbdfad0c2	-0.12246849
240	0xbebfb3a1	-0.37441733
241	0xbcad12f9	-0.02112721
242	0xbd2edac3	-0.042689096
243	0x3d234bed	0.03986733
244	0xbe1f3f74	-0.15551549
245	0x3c0acc0c	0.0084715
246	0x2d0950e4	7.80551e-12
247	0x3ce8e6b3	0.028430318
248	0xbe8cae56	-0.27476758
249	0x3a90318e	0.0011001097
250	0xbe0f51fd	-0.1399612
251	0xbd0efce6	-0.03490915
252	0x3d4c6fff	0.049911495
253	0xbdc94b3e	-0.098288044
254	0xbbdc3f8f	-0.006721444
255	0x3dcaf2fb	0.09909626

layers.0.bias f4 [32]
0	0xbd008e34	-0.031385615
1	0xbd9dac8d	-0.07698927
2	0x3ebc91e4	0.36830056
3	0x3eaab45b	0.33340725
4	0x3e8273dd	0.25479022
5	0xbe27edfb	-0.16399376
6	0x3e503a3d	0.20334716
7	0x3cf6916e	0.030098643
8	0xbe688e3b	-0.22710507
9	0x3e051c75	0.12999137
10	0x3e66a640	0.22524357
11	0x3e2886ae	0.16457626
12	0x3ecb4ba1	0.39706138
13	0x3ecaf373	0.39638862
14	0x3e06963c	0.13143247
15	0x3e155cb6	0.14586148
16	0x3c5a3a0b	0.013319503
17	0x3cf6389a	0.030056287
18	0x3db5f706	0.088850066
19	0xbdb2fa7c	-0.08739182
20	0x3df8be3a	0.12145658
21	0xbe7854a7	-0.24251042
22	0xbb9b20e1	-0.004734144
23	0x3d2b86c2	0.041876562
24	0xbe03bf2b	-0.12865894
25	0xbb3d5d92	-0.0028894884
26	0x3db65920	0.08903718
27	0x3ea9acea	0.33139735
28	0x3e816a72	0.25276524
29	0xbd913700	-0.070905685
30	0x3ed0965a	0.4073971
31	0x3e6f3541	0.23360159

layers.1.weight f4 [32, 32]
0	0x3d13a9a1	0.036050443
1	0x3cd2fa30	0.025754064
2	0x3b862117	0.0040933
3	0x3d41f676	0.047354184
4	0x2b6d8d33	8.439527e-13
5	0xbc8c63e2	-0.017137472
6	0xa77ebe50	-3.535275e-15
7	0xb9ec8e2e	-0.0004511936
8	0xbb830b94	-0.003999183
9	0xbd118f49	-0.035537038
10	0xa54fac31	-1.8012729e-16
11	0x396263d0	0.00021590223
12	0xbd6e1a99	-0.058130834
13	0xbc9eef85	-0.019401321
14	0x2ee8e24c	1.0590337e-10
15	0xb835f255	-4.3379452e-05
16	0x2a1eed29	1.41155e-13
17	0x3b9a91b5	0.0047170767
18	0xbd6acb38	-0.05732271
19	0x39d781ae	0.00041104615
20	0x3c9a1a6c	0.018811427
21	0x2dae510a	1.9817498e-11
22	0x3cbcab65	0.023030946
23	0xbbda24ae	-0.0066572046
24	0xbc84c983	-0.01620937
25	0xa82e0565	-9.66011e-15
26	0x2e53593e	4.805511e-11
27	0xbd5c341f	-0.053760644
28	0x3d67d8f0	0.056603372
29	0xbc379e86	-0.0112072285
30	0xbcccb6c1	-0.024989488
31	0xae035b30	-2.9866942e-11
32	0x3e5b6d9d	0.21428533
33	0x3ca7951b	0.020456841
34	0x3d475383	0.048663627
35	0x3dcb27e0	0.09919715
36	0x3deb72fe	0.114965424
37	0x3db6ec63	0.08931806
38	0x3e12cc86	0.14335832
39	0x3e6faf66	0.23406753
40	0xbd89e729	-0.067335434
41	0x3d8aea40	0.06782961
42	0x3e51fd23	0.2050672
43	0x3d118351	0.035525624
44	0x3e6919cd	0.22763748
45	0x3da03560	0.078226805
46	0x3d9d731b	0.0768797
47	0xbdf6f5af	-0.12058579
48	0x3d1ee9a2	0.03879703
49	0xbc10638a	-0.008812794
50	0xbced7ae0	-0.028989255
51	0xbdf7aaff	-0.12093162
52	0x3e691808	0.22763073
53	0x3d85219b	0.0650055
54	0xbde95670	-0.1139344
55	0xbe171ae5	-0.14756353
56	0xbe55bf2e	-0.2087371
57	0xbdba14f2	-0.09086026
58	0x3dc7ef33	0.097624205
59	0xbc8c1907	-0.017101778
60	0xbd3334f9	-0.04375169
61	0x3dde9f34	0.10870209
62	0x3e501c3f	0.20323275
63	0xbd1d8b96	-0.038463198
64	0xbd68a356	-0.056796394
65	0x3cb85672	0.022502158
66	0x3c41feed	0.011840564
67	0x3ba7e42d	0.005123636
68	0x3c3e3c39	0.011611038
69	0xbc9c5ed4	-0.019088186
70	0xbc837147	-0.016045226
71	0xbc9a8360	-0.018861473
72	0x3d476f15	0.04868992
73	0x3d0f0e79	0.03492591
74	0xba636ff8	-0.00086760474
75	0x39be1bf2	0.00036260445
76	0x3be1fc9c	0.0068965685
77	0xbb685fd4	-0.0035457509
78	0x3ab7a011	0.0014009495
79	0xbb89db24	-0.004207032
80	0xbcf6dca9	-0.030134516
81	0x3be9bc7a	0.007133064
82	0x3b6a6ce9	0.0035770482
83	0x3b092479	0.002092628
84	0x393d2e9a	0.00018041805
85	0xa7cd5058	-5.698604e-15
86	0x3d2368d1	0.039894883
87	0xbc5fa856	-0.013650974
88	0x3a8e005f	0.0010833851
89	0xbd0ac502	-0.033879288
90	0xbb0bc11a	-0.0021324814
91	0x3a0a89c0	0.00052848086
92	0x3bef5adc	0.0073045325
93	0xbbcc770a	-0.0062397765
94	0xbd586f63	-0.0528406
95	0x3933bc01	0.00017140807
96	0x3e8829d6	0.26594418
97	0xac2d3fe9	-2.4620256e-12
98	0xbd0bf20d	-0.034166384
99	0x3e3e64b8	0.18593109
100	0xbdc439ea	-0.09581359
101	0x3dde693f	0.10859918
102	0xba048abf	-0.0005056075
103	0x3e69707f	0.2279682
104	0xbd988c4e	-0.07448636
105	0x3dd4469e	0.10365032
106	0x3dc176ec	0.09446511
107	0x3e72838b	0.23682992
108	0x3e592773	0.21206455
109	0x3c125e5e	0.008933632
110	0x3dd698cb	0.10478362
111	0xbdd78650	-0.10523665
112	0x3e56e15b	0.20984404
113	0xbdb07b5a	-0.086172774
114	0xbd727497	-0.05919322
115	0xbd33a4a2	-0.043858178
116	0x3e979a5b	0.2960995
117	0x3de6e94f	0.11274969
118	0xbd769080	-0.0601964
119	0xbe1e7e23	-0.15477805
120	0xbde2109e	-0.11038326
121	0xbddff30f	-0.109350316
122	0x3e71ef17	0.23626362
123	0x3e397e3c	0.18114561
124	0x3e1e4ce0	0.15459013
125	0x3cd7f4fe	0.026361939
126	0x3ceaa3e5	0.028642604
127	0x3ddf9bf1	0.10918415
128	0xb8b41113	-8.586249e-05
129	0xbcca23f1	-0.024675341
130	0xbd01503c	-0.031570658
131	0x29a3109b	7.241535e-14
132	0xbd2d3baa	-0.04229323
133	0xb22915f8	-9.84209e-09
134	0x3b8dd040	0.004327804
135	0xbcd06275	-0.025437573
136	0xafe0bdf7	-4.088034e-10
137	0xb8e54a5a	-0.0001093342
138	0xbbd2bb15	-0.0064309933
139	0xa74985d1	-2.7966896e-15
140	0xbcebaf45	-0.028770098
141	0xa9efa41c	-1.06422006e-13
142	0xbcbe4c3d	-0.023229713
143	0x38824ba7	6.2129744e-05
144	0x3c8951d6	0.016762655
145	0xbb675e74	-0.0035304101
146	0x3cf422ae	0.029801693
147	0xbc9223c0	-0.017839313
148	0xbc5e35c0	-0.01356262
149	0xbd1a4656	-0.037664734
150	0xabab4539	-1.2169494e-12
151	0xb2f3b968	-2.8373236e-08
152	0xbd0d2ccd	-0.034466553
153	0xb64c9ef3	-3.049089e-06
154	0xb9c1dbf9	-0.0003697572
155	0xbd3b5966	-0.045739554
156	0xbcd89df9	-0.026442515
157	0x39a88e5e	0.0003214953
158	0x3d491b6f	0.04909843
159	0x3d229d5a	0.039700843
160	0x3e86b873	0.263126
161	0x3ce12980	0.027485609
162	0xbb7946c4	-0.0038036564
163	0x3e0ebae7	0.13938485
164	0x3e154048	0.14575303
165	0x3db88197	0.09009092
166	0xbd8b4df7	-0.0680198
167	0x3dd4b109	0.10385329
168	0xbca324e6	-0.019915055
169	0xbdac78cb	-0.08421477
170	0x3e4bbacd	0.19895478
171	0xbd0c6cc5	-0.03428342
172	0x3e4babb9	0.19889726
173	0x3dd00dd0	0.101588845
174	0x3e5c3645	0.21505077
175	0xbd8f2967	-0.06990319
176	0xbda6d6b0	-0.08146417
177	0x3dd635db	0.10459491
178	0xbd37f905	-0.044915218
179	0xbd8a6942	-0.067583576
180	0x3e33658a	0.17519203
181	0xb9fc2e27	-0.00048099572
182	0xbd82b695	-0.06382481
183	0xbdad5b44	-0.08464673
184	0xbd7adc23	-0.061245095
185	0x3db8ebf4	0.090293795
186	0x3a9b3f0f	0.0011844354
187	0x3e130c9d	0.1436028
188	0x3dc16587	0.09443193
189	0xbd9209a7	-0.07130747
190	0x3d984f04	0.07436946
191	0x3c5bafba	0.013408596
192	0x3d423e2f	0.047422584
193	0xb03b6a90	-6.818164e-10
194	0x3e88c813	0.26715145
195	0x3e29cd02	0.1658211
196	0x3e7101f1	0.23535897
197	0x3d8d7dac	0.06908736
198	0x3e5b88e7	0.21438943
199	0x3e2134a3	0.15742736
200	0x3ded8f90	0.11599648
201	0x3b8f7d73	0.0043789684
202	0x3e63be3f	0.22240542
203	0xbd314d19	-0.043286417
204	0xbd7a470d	-0.061102916
205	0x3e59e468	0.21278536
206	0x3e157eaa	0.145991
207	0x3d9915e8	0.074748814
208	0x3d0554f9	0.03255174
209	0x3e3ff580	0.18745995
210	0x3e298634	0.165551
211	0xbe35b30c	-0.17744082
212	0x3da64b2a	0.08119805
213	0xbc35192b	-0.011053364
214	0xbe8da542	-0.27665144
215	0x3db35dd3	0.0875813
216	0xbc956ffd	-0.018241877
217	0x3e5b98e0	0.21445036
218	0xbc6fd818	-0.014638923
219	0x3cfbe09a	0.030746747
220	0xbd5c18bf	-0.053734537
221	0xbd7da967	-0.061929133
222	0x3e3ed374	0.1863535
223	0x3dc73097	0.09726065
224	0x3dd30da1	0.10305334
225	0x3d34e85b	0.044166904
226	0x3da62951	0.08113349
227	0x3e0c1c9f	0.13682793
228	0x3e3fff55	0.18749745
229	0x3dadaf18	0.08480662
230	0x3e397c6d	0.18113871
231	0x3e2ebb06	0.17063531
232	0x3e14ba39	0.14524163
233	0x3e35933c	0.17731947
234	0xbbdf4635	-0.0068137893
235	0x3d5c8f2c	0.053847477
236	0x3e2f69a1	0.17130138
237	0x3e822768	0.2542069
238	0xbcddeb1f	-0.027089654
239	0x3e5e2d2e	0.21696922
240	0xbd833c08	-0.064079344
241	0x3e2841f1	0.16431405
242	0xbd21bc87	-0.039486434
243	0xbe458c94	-0.19291908
244	0x3e049098	0.12945783
245	0xbc8c1c79	-0.01710342
246	0xbdc5a288	-0.09650141
247	0x3e52906b	0.20562904
248	0xbdb2d26f	-0.08731543
249	0x3e560f0e	0.2090418
250	0xbe09820d	-0.13428517
251	0x3d179f02	0.037016876
252	0x3c65a3f0	0.0140161365
253	0xbc932a42	-0.017964486
254	0x3e34b0ac	0.1764552
255	0x3cb9d7f5	0.022685984

layers.1.bias f4 [32]
0	0xbd5749b4	-0.052560523
1	0x3c443b15	0.011976977
2	0x3aa6375a	0.0012681291
3	0x3e69bc51	0.22825743
4	0xbd6fe108	-0.058564216
5	0x3e880839	0.26568773
6	0x3cbb23fe	0.02284431
7	0x3db0fa2c	0.086414665
8	0xbc4c240b	-0.012459765
9	0x3e1ddfe1	0.15417434
10	0x3e58f689	0.21187796
11	0xbce26c1d	-0.027639443
12	0xbcd3bee7	-0.025847865
13	0x3b193466	0.002337718
14	0x3e820ff3	0.25402793
15	0x3dfcde5b	0.123470984
16	0x3d67b8e6	0.056572817
17	0x3e4dae1c	0.20085949
18	0x3e2e0e88	0.1699773
19	0x3e63b7c7	0.22238074
20	0x3e4169a3	0.18887953
21	0x3e88a7e1	0.2669058
22	0x3e5d063b	0.21584408
23	0x3d3993d3	0.04530699
24	0xbd2394e9	-0.039936934
25	0x3e176568	0.14784777
26	0x3b034372	0.0020029214
27	0xbd165fd1	-0.03671247
28	0xbd42cf1e	-0.047560804
29	0xbca7e5f5	-0.020495394
30	0x3de100b6	0.10986464
31	0xbabe4685	-0.0014516866

layers.2.weight f4 [32, 32]
0	0x3c00b0fa	0.0078546945
1	0x37296341	1.0096294e-05
2	0xbc03406c	-0.008010965
3	0xb78b8e87	-1.663646e-05
4	0x3c83fa38	0.016110525
5	0x298fd8dd	6.3880955e-14
6	0x3d2c4b05	0.04206373
7	0xa7aac826	-4.740148e-15
8	0xbd3057ae	-0.043052368
9	0x3afb42f5	0.0019169735
10	0xbd5692f1	-0.052386228
11	0xbd22c33b	-0.039736968
12	0xbd1b57df	-0.037925597
13	0xa7a7fb39	-4.6624187e-15
14	0xbba99e62	-0.0051763514
15	0xbcfdc44d	-0.030977393
16	0xa9a962b1	-7.522228e-14
17	0xbd49db5d	-0.049281467
18	0xbd189af9	-0.03725717
19	0x3d6df886	0.05809834
20	0xb9b222e7	-0.0003397681
21	0xbd42c888	-0.047554523
22	0xbd3b1dd7	-0.045682754
23	0x3a088a16	0.00052085647
24	0x2b00b002	4.5718995e-13
25	0xbcccb149	-0.02498688
26	0x299dd2d1	7.0087714e-14
27	0x3b9c7758	0.004774969
28	0xbd630798	-0.055427164
29	0xacaeb4f3	-4.965467e-12
30	0x33a9466f	7.8824876e-08
31	0xbcea21bb	-0.028580537
32	0xbcfd96b9	-0.03095566
33	0x3e398d8a	0.18120399
34	0xb9ed1462	-0.0004521935
35	0x3e49691e	0.19669005
36	0x3c13add7	0.009013615
37	0x3e7f92ad	0.24958296
38	0xbb57a546	-0.0032904907
39	0x3c8fe848	0.017566815
40	0xbd385039	-0.04499838
41	0x3e2f38b4	0.17111474
42	0xbd71e882	-0.059059627
43	0xbd0996dc	-0.033591136
44	0x3e5da66d	0.21645518
45	0xbd341d7c	-0.04397343
46	0xbd0cdaee	-0.034388475
47	0xbd8dd498	-0.06925315
48	0x3db015ea	0.0859793
49	0x3e776a57	0.24161659
50	0xbc921a3c	-0.017834775
51	0xbc7f66a4	-0.015588436
52	0x3e46e412	0.1942294
53	0x3e23e068	0.16003573
54	0x3dfac4fb	0.12244602
55	0x3e991c2d	0.2990431
56	0xbb102f7d	-0.0022000961
57	0x3e07f079	0.13275327
58	0xbdb6094c	-0.08888492
59	0xbd9a06fb	-0.07520863
60	0xbc52e9c8	-0.012873121
61	0xbe83317f	-0.256237
62	0x3d5a81d0	0.053346455
63	0x3b5d207b	0.0033741284
64	0x3c016fc9	0.007900187
65	0xbe002034	-0.12512285
66	0x3ab962b6	0.0014143798
67	0xbe80701c	-0.25085533
68	0xb3fd1f7d	-1.1786958e-07
69	0xbdbf2993	-0.093341015
70	0x3e42d47a	0.19026366
71	0x3e856fe0	0.26061916
72	0xb5612b99	-8.3882475e-07
73	0x3e1ade59	0.15123881
74	0x3e225022	0.1585088
75	0xbc304c26	-0.010760343
76	0x3e26b87d	0.16281314
77	0x3d10aebd	0.035322893
78	0x3d476c79	0.048687432
79	0x3e4c9572	0.19978884
80	0x3d794b6e	0.06086295
81	0x3da91519	0.08255977
82	0xbde25971	-0.11052216
83	0x3e1f9ded	0.15587588
84	0x3cf08746	0.029361378
85	0x3e37bb4c	0.17942542
86	0x3df44759	0.11927671
87	0xbe412cb4	-0.18864709
88	0xb8d388a9	-0.00010086719
89	0xbca3d957	-0.020001097
90	0x3ce1c939	0.02756177
91	0xba2cee49	-0.00065967866
92	0x3994aea6	0.00028358883
93	0x3dff2979	0.12459082
94	0xbdd4b5da	-0.10386248
95	0x29ffa203	1.13523794e-13
96	0xbb7e47ac	-0.0038800044
97	0xbb6e6360	-0.003637515
98	0x3b7c249d	0.0038473972
99	0xbcfb2c45	-0.030660758
100	0xbd4311a8	-0.04762426
101	0x3d98361d	0.07432196
102	0x3dba1e7c	0.09087846
103	0x3dc31d2b	0.09527048
104	0xbc0f5742	-0.008748831
105	0x3de58dcb	0.112086855
106	0x3e0d8e62	0.13823846
107	0x2cad6f4d	4.9293126e-12
108	0x3e6fef49	0.23431124
109	0x3b14f959	0.002273163
110	0xbb566177	-0.0032711902
111	0x3e0d3cc3	0.1379271
112	0x3db2b43b	0.087257825
113	0xbcdf86db	-0.027285984
114	0x3e32825c	0.1743254
115	0x3e3c02c8	0.18360436
116	0x3de5bb54	0.11217371
117	0x3dd6ffdf	0.10498022
118	0xbc27a414	-0.01023199
119	0x3df85dd8	0.12127274
120	0xba95416a	-0.0011387293
121	0x3d6ef47b	0.058338623
122	0x3c8373d5	0.016046444
123	0x398a4704	0.00026374322
124	0xbcc42697	-0.023944182
125	0x3d803b42	0.062613025
126	0x3e2a9373	0.1665781
127	0x3c0d0fc4	0.008609716
128	0xb8041c1c	-3.149743e-05
129	0xbe065be0	-0.13120985
130	0x3cdb7f44	0.026794083
131	0xbe384ad9	-0.17997302
132	0xb9c34800	-0.00037246943
133	0xba49dc8f	-0.00077004073
134	0x3e3a7e7e	0.18212315
135	0x3e44e0da	0.19226399
136	0xbc5beac3	-0.013422671
137	0x3e016cb3	0.12639122
138	0x3e4b479d	0.19851537
139	0xae88908e	-6.210242e-11
140	0x3e897147	0.26844236
141	0x3c5ec986	0.013597852
142	0x3e8d324f	0.27577445
143	0x3d31ab12	0.043376036
144	0x3daeb400	0.08530426
145	0x3e8afffc	0.27148426
146	0xbda37219	-0.07980747
147	0x3e396c1b	0.18107645
148	0x3e8857fb	0.26629624
149	0x3d866d5d	0.06563828
150	0x3df2c2c0	0.11853552
151	0xbe54cff2	-0.2078245
152	0xb5343167	-6.7127115e-07
153	0xbdbca01e	-0.092102274
154	0x3de165f1	0.11005772
155	0xbb38f246	-0.0028220578
156	0x3d1cc009	0.038269076
157	0x3e1b8cae	0.15190384
158	0xbd1f7584	-0.03893043
159	0x3c394112	0.011307018
160	0x3c407ebf	0.011748969
161	0x3e03438b	0.12818734
162	0xbd70ff13	-0.058837008
163	0x3d149ef0	0.036284387
164	0x3cbc9cda	0.023024011
165	0x3e782bb9	0.24235429
166	0x3b137f7a	0.0022506402
167	0x3dd4371a	0.10362072
168	0xadf644d8	-2.7997535e-11
169	0x3e01040e	0.12599203
170	0x3e34150f	0.17586158
171	0x2927610c	3.7165624e-14
172	0x3e6e5345	0.23273952
173	0xbd416ee0	-0.04722488
174	0x3e6f8962	0.23392251
175	0x3dea2082	0.114319816
176	0x3e5c24a7	0.21498357
177	0x3d81ba4d	0.06334362
178	0x3dfd6cd9	0.12374277
179	0x3dd17c9a	0.10228844
180	0x3dac847b	0.08423706
181	0xbd498107	-0.049195316
182	0x3e501fe7	0.2032467
183	0x3e18f6ea	0.1493794
184	0x3c221a04	0.009893898
185	0x3e490cd6	0.19633803
186	0xbd0db959	-0.03460059
187	0xbcbf7680	-0.023371935
188	0xbb629bd6	-0.0034577749
189	0xbdc60995	-0.096697964
190	0x3de30e70	0.11086738
191	0x3bf9bca1	0.0076213633
192	0xbc077661	-0.00826797
193	0x2cdb18ba	6.2270996e-12
194	0xbc297e1c	-0.010345008
195	0xbb061110	-0.0020456947
196	0x39c48e27	0.00037489945
197	0x2b06a995	4.7841706e-13
198	0x3d36887c	0.044563755
199	0xbd1db370	-0.038501203
200	0xa7b1bfef	-4.9335464e-15
201	0xaf3f63f0	-1.7406854e-10
202	0x3be415d5	0.0069606104
203	0x3cc04165	0.023468683
204	0xba02c955	-0.0004989107
205	0xbd1e1641	-0.03859544
206	0xbd03c31e	-0.0321685
207	0x3a60532f	0.0008557317
208	0x3caca3c1	0.021074178
209	0xb9c4d669	-0.0003754378
210	0x3c6566f3	0.014001596
211	0xbc96f78f	-0.018428592
212	0xbbc596e8	-0.0060299523
213	0xbaae4813	-0.0013296626
214	0x3cab60a6	0.020920109
215	0xba97a4f7	-0.0011569549
216	0xbb157afd	-0.0022808902
217	0x3b37aa86	0.0028025224
218	0xbcf28391	-0.029603751
219	0x3d4dec49	0.050274167
220	0x3ada0229	0.0016632724
221	0xbd20ed65	-0.039288897
222	0xbd575948	-0.05257538
223	0xbb497516	-0.0030739955
224	0xa82ce2d9	-9.597108e-15
225	0xbe65b63c	-0.22432798
226	0x3a244595	0.0006266472
227	0xbdd84411	-0.10559858
228	0xbc38bfb6	-0.011276176
229	0x3cf12c97	0.029440207
230	0x3e3ed9b8	0.1863774
231	0x3ddbea02	0.10737993
232	0x3d05434f	0.032534894
233	0x3e0e9481	0.13923837
234	0x3e76f862	0.24118188
235	0xa9825ff2	-5.7898036e-14
236	0x3dc4332c	0.09580073
237	0x3c42e958	0.011896454
238	0x3dcc7411	0.099830754
239	0x3e248a4f	0.16068386
240	0x3ce74908	0.028233066
241	0x3e8c851d	0.27445307
242	0xbe3ba4d1	-0.18324591
243	0x3e3a6be0	0.18205214
244	0x3e26cd97	0.16289364
245	0x3e63abe7	0.22233544
246	0x3e3e26a5	0.18569429
247	0xbe82cc7b	-0.2554663
248	0xb5c389e2	-1.4568761e-06
249	0xbe124f50	-0.14288068
250	0x3ddf4eaa	0.10903676
251	0xbaec27f0	-0.0018017273
252	0xbd46a0c8	-0.048493177
253	0x3e710fae	0.23541138
254	0xbd809bb8	-0.06279701
255	0x3428397f	1.5667136e-07

layers.2.bias f4 [32]
0	0xb49fdb17	-2.9775467e-07
1	0x3dd88a29	0.10573227
2	0xbcffcc64	-0.03122539
3	0x3e3292d4	0.17438823
4	0xbdaf1dfe	-0.085506424
5	0x3d9563bf	0.07294416
6	0x28d16c21	2.3250555e-14
7	0xbe152e92	-0.14568546
8	0x3e6b0f3c	0.2295503
9	0x3e116e67	0.14202271
10	0xbd31b52e	-0.043385677
11	0x3cf8531d	0.030313069
12	0x3e6e2772	0.23257235
13	0x3e2c0c55	0.1680158
14	0x3e53e419	0.20692481
15	0x3e34fad8	0.17673814
16	0x3e7a4b2c	0.24442738
17	0xbbc4b8f3	-0.006003493
18	0x3c877912	0.016537223
19	0x3d842638	0.06452602
20	0xbbffe67e	-0.007809459
21	0x3d92b444	0.07163289
22	0x3d96b95b	0.073595725
23	0x3e59d4d3	0.21272592
24	0x3dde0d88	0.10842425
25	0xbc1822e5	-0.009285663
26	0x3c95fa95	0.018307963
27	0x3e4435e7	0.19161187
28	0xbce7cd92	-0.028296266
29	0x3df85cd8	0.121270835
30	0x3e691fe4	0.22766072
31	0x3e0cb6c0	0.13741589

layers.3.weight f4 [40, 32]
0	0x38916dae	6.934568e-05
1	0xbe88643f	-0.26638982
2	0xbdcf4b4e	-0.10121785
3	0xbdfebda6	-0.12438516
4	0xbe21305e	-0.15741107
5	0xbde4fc1f	-0.11180901
6	0xbd052b0c	-0.032511756
7	0xbdf78bd5	-0.12087218
8	0xbd555c5e	-0.05209004
9	0xbe23f107	-0.16009913
10	0xbb9868ab	-0.0046511493
11	0xbe47968c	-0.19491023
12	0xbe3cd6cf	-0.18441318
13	0x3d0b8aed	0.034068037
14	0xbdd3d719	-0.10343761
15	0x3d19abc4	0.037517324
16	0x3d4635a5	0.048391003
17	0xbc7087c8	-0.01468081
18	0xbcdf3164	-0.027245231
19	0x3cc55d65	0.024092386
20	0xbe0ae937	-0.13565527
21	0xbe8be89d	-0.27325907
22	0x3d4f2eee	0.050581865
23	0xbe715f22	-0.23571447
24	0x3d136e7d	0.03599404
25	0x38846716	6.313452e-05
26	0xbdcd73a7	-0.100318246
27	0xbd81a6d6	-0.063306496
28	0xbd268379	-0.040652726
29	0x3ddb36ef	0.10703837
30	0xbe2f47ea	-0.17117277
31	0xbe7b1438	-0.24519432
32	0x3a1609e7	0.00057235215
33	0xbe02692a	-0.1273543
34	0x3e2a675a	0.16640988
35	0xbd3cc5d1	-0.04608709
36	0x3d991a73	0.07475748
37	0xbe40f6c0	-0.18844128
38	0xb76908ab	-1.38899e-05
39	0x3d92369b	0.071393214
40	0xbd0ffbf2	-0.035152383
41	0xbce13b1c	-0.027494006
42	0x3d4f3e0d	0.050596286
43	0xbcaa3e02	-0.02078152
44	0xbdf72b4c	-0.12068805
45	0xbd9e485e	-0.07728647
46	0xbd0d36ed	-0.03447621
47	0xbe5a6433	-0.21327285
48	0xbdbc4ad8	-0.09193963
49	0x30c0c560	1.4025936e-09
50	0xbdb39484	-0.087685615
51	0xbe58c2dc	-0.21168083
52	0xbe114593	-0.14186697
53	0xbe0c7520	-0.13716555
54	0x3c613b95	0.013747116
55	0x3ce99fff	0.028518675
56	0xbdff08ef	-0.12452876
57	0xbc9dbbfc	-0.019254677
58	0xbdb67e1c	-0.08910772
59	0x3d1d0624	0.038335934
60	0x38dc4959	0.000105040795
61	0x3d268889	0.040657554
62	0x3cd13d35	0.025541881
63	0xbbf45b00	-0.007457137
64	0x3ab6bf7f	0.0013942568
65	0xbe5a6607	-0.21327983
66	0x3c3a3944	0.011366192
67	0xbe474e97	-0.19463573
68	0xbbea4f13	-0.0071505397
69	0xbda73030	-0.08163488
70	0x31764cba	3.5841325e-09
71	0xbce5f2f4	-0.02806995
72	0xbe24dfbe	-0.16100976
73	0xbe47f7fc	-0.19528192
74	0x3c7f532a	0.015583793
75	0xbd5413d2	-0.051776715
76	0xbe1650f5	-0.1467932
77	0xbe3589f3	-0.17728405
78	0x3d1be67b	0.0380616
79	0x3c1d106c	0.009586435
80	0xbdb01ef7	-0.08599656
81	0x3677ccf0	3.6925157e-06
82	0xbd0839a3	-0.03325809
83	0x3c2c4a7a	0.0105158035
84	0x3d2f8b1e	0.042857282
85	0x3cfcbf1e	0.03085285
86	0xbd0bdea7	-0.034147885
87	0xbe1878d3	-0.14889841
88	0x3cfb85ef	0.030703513
89	0xbc8b65b8	-0.017016277
90	0xbd79b2a9	-0.0609614
91	0x3da55584	0.080729514
92	0xb4e870d2	-4.3295455e-07
93	0x3dba502a	0.09097321
94	0xbe2acb32	-0.16679075
95	0xbe0c429a	-0.13697281
96	0x3497b447	2.825711e-07
97	0x3d887e05	0.06664661
98	0xbe31dc46	-0.17369184
99	0x3d25a3ec	0.04043953
100	0xbd152c90	-0.03641945
101	0xbe270105	-0.16308983
102	0x360ea895	2.1257777e-06
103	0xbe57d3fa	-0.21076956
104	0x3da62943	0.08113339
105	0x3d08859a	0.033330537
106	0x3d657f22	0.056029446
107	0xbdaeeaf7	-0.0854091
108	0xbe61dacb	-0.22056119
109	0xbe30312b	-0.17206256
110	0xbd0029fb	-0.031290036
111	0x3e1609d5	0.14652188
112	0xbd8767cb	-0.06611594
113	0xbc191e7c	-0.009345647
114	0xbded6cba	-0.115930036
115	0xbe17ac93	-0.14811926
116	0xbe2cf7b5	-0.16891368
117	0xbdee07fc	-0.11622617
118	0x3d942997	0.07234495
119	0x3bdb93f1	0.0067009856
120	0x3deea867	0.11653214
121	0xbb0a45a4	-0.0021098638
122	0xbddae704	-0.10688594
123	0xbe3683e2	-0.17823747
124	0x39472586	0.00018992097
125	0xbdcdac24	-0.10042599
126	0xbdb505bb	-0.088389836
127	0x3d855082	0.06509496
128	0x3aa26ebe	0.0012392623
129	0xbda2eb3b	-0.07955023
130	0x3d3e26b0	0.046423614
131	0xbe8ce4a4	-0.2751819
132	0xbe218087	-0.15771686
133	0xbd109f5d	-0.03530823
134	0x3c08ebd1	0.008357004
135	0x3a081f2c	0.0005192633
136	0xbe53bada	-0.20676747
137	0xbc863293	-0.016381538
138	0x3cf274d5	0.029596725
139	0xbd0a46e6	-0.03375902
140	0x3ce714a5	0.028208086
141	0xbd31edf0	-0.043439806
142	0xbdd0d41e	-0.10196708
143	0xbc18a63a	-0.009316975
144	0xbe67eb65	-0.2264839
145	0x3d278a09	0.040903125
146	0x3ceb0c6e	0.02869245
147	0xbd8ecf60	-0.069731474
148	0xbe19b3ca	-0.1500999
149	0xbe2473f1	-0.16059853
150	0xbc89a353	-0.016801512
151	0x3cba2ca7	0.02272637
152	0xbcc1f69e	-0.023677167
153	0xbbb75239	-0.0055945185
154	0xbe1e5a0d	-0.15464039
155	0xbe6d458f	-0.23171066
156	0x3d444b8d	0.047923613
157	0x3d2870fb	0.04112337
158	0xbe2d1c6e	-0.16905376
159	0xbd075b71	-0.03304619
160	0xbd56e030	-0.052459896
161	0xbe8101d7	-0.25196716
162	0x3e688a16	0.22708926
163	0x3d5a8374	0.05334802
164	0x3e3b7442	0.18306068
165	0x3ca61e4b	0.020278117
166	0xbccbb096	-0.024864476
167	0x3e5e1f1a	0.21691552
168	0xbd3201b3	-0.04345865
169	0xbdc9dc11	-0.098564275
170	0xba5d5d7c	-0.0008444411
171	0xbd45dd38	-0.048306674
172	0xbd4515e2	-0.048116572
173	0xbd93cf8d	-0.072173215
174	0xbdb7b5d5	-0.089702286
175	0xbe2e19db	-0.1700205
176	0xbdf0eafd	-0.117635705
177	0x39ff45f6	0.00048689515
178	0xbd5897e9	-0.052879248
179	0xbe06ee00	-0.13176727
180	0xbe20884e	-0.15676996
181	0xbe3f4fc0	-0.18682766
182	0xbdb55b3f	-0.088552944
183	0xbdd4a874	-0.103836924
184	0xbe12c0f7	-0.14331423
185	0x3a40e7bc	0.000735875
186	0xbe167858	-0.14694345
187	0xbe16c688	-0.14724171
188	0x37075086	8.065375e-06
189	0xbd2dd9a6	-0.042443894
190	0x3c982ed7	0.018577022
191	0xbe20f0c0	-0.15716839
192	0x3d6a7922	0.057244428
193	0xbe5934ed	-0.21211596
194	0xbe07150c	-0.13191622
195	0xbe32b836	-0.17453083
196	0xbcbd1e91	-0.023085864
197	0xbd1f8bec	-0.0389518
198	0x3d21aadd	0.03946959
199	0xbe2c5bc8	-0.16831887
200	0x3d9ed879	0.07756133
201	0xbe6aac20	-0.22917223
202	0xbd06de0f	-0.032926615
203	0xbe487a6b	-0.19577949
204	0xbcf62e79	-0.030051457
205	0x3cdeda92	0.027203832
206	0x3d0aba3e	0.03386902
207	0x3e0c8f54	0.1372655
208	0x3da40ebc	0.08010623
209	0xaa3edaf8	-1.695136e-13
210	0x3c721d19	0.014777445
211	0xbe348473	-0.1762865
212	0xbe2fd6bc	-0.17171758
213	0x3ccf67e5	0.025318095
214	0xba0d9e3c	-0.0005402302
215	0xbd8f410d	-0.06994829
216	0x3da283c9	0.07935292
217	0x3b8db331	0.00432434
218	0xbdff3dd4	-0.12462965
219	0xbe1ad1b3	-0.15119056
220	0x3c9f300c	0.01943209
221	0x3d9e8e11	0.07741941
222	0xbda2f421	-0.0795672
223	0xbd6f1fe3	-0.05838002
224	0xa99ec3a4	-7.050548e-14
225	0xbd6c6c7b	-0.057720643
226	0xbe229c17	-0.15879856
227	0x3cd40f6b	0.025886258
228	0xbe425b9f	-0.18980263
229	0x3cfb5d21	0.030684056
230	0xbb019671	-0.0019773508
231	0xbe46f5cf	-0.19429706
232	0xbe191e2d	-0.14952917
233	0xbe570d4c	-0.21001166
234	0x3b843763	0.004034923
235	0xbd8151c2	-0.06314422
236	0xbdcd0f15	-0.10012642
237	0xbdadb7e0	-0.08482337
238	0x3ddf002b	0.10888704
239	0x3e5cedb6	0.21575055
240	0xbe46956b	-0.19392936
241	0x39eb8c28	0.00044927117
242	0x3dcbe626	0.09956007
243	0xbcb266ac	-0.021777473
244	0xbde75dc5	-0.11297182
245	0xbc383327	-0.011242664
246	0x3dd91c68	0.10601121
247	0xbe07724e	-0.13227198
248	0x3d299bb8	0.04140827
249	0x2c491a1c	2.8578312e-12
250	0xbe1820b3	-0.14856224
251	0x3daa41ca	0.083133295
252	0x3d3f632c	0.046725437
253	0x3d85dd34	0.06536332
254	0xbc883d5a	-0.016630817
255	0xbe30312a	-0.17206255

layers.3.bias f4 [40]
0	0x3df2fde5	0.11864833
1	0xbcdbc099	-0.026825236
2	0x3d413392	0.047168322
3	0xbe030186	-0.1279355
4	0xbcb0d37f	-0.021585224
5	0x3cbf6d1a	0.023367453
6	0xbe0d33e4	-0.13789326
7	0xbe3a393b	-0.18185894
8	0xbe66e44e	-0.22548029
9	0xbdd2dc9f	-0.102959864
10	0x3d904bba	0.07045694
11	0xbe3155f7	-0.17317949
12	0xbd328e97	-0.043593016
13	0x3cf7af5d	0.030234987
14	0xbd8cace8	-0.06868917
15	0xbe289d3d	-0.16466232
16	0x3d48d02c	0.049026653
17	0xbe4223bf	-0.18958949
18	0x3d2330db	0.039841514
19	0x3d89747b	0.0671167
20	0xbe0578a8	-0.13034308
21	0xbd950066	-0.072754666
22	0x3d8d84af	0.06910073
23	0xbddcf02d	-0.107879974
24	0xbdf0b6f9	-0.11753649
25	0xbe55caa5	-0.20878084
26	0x3d620e3d	0.05518936
27	0xbdabee57	-0.08395069
28	0xba2e0591	-0.00066384027
29	0xbe609b02	-0.21934131
30	0xbe3ce849	-0.18447985
31	0xbdd763fe	-0.10517119
32	0x3da2943d	0.079384305
33	0xbe4c791d	-0.19968076
34	0xbd8e8f36	-0.06960909
35	0xbd850bcd	-0.064963914
36	0xbe6d470b	-0.23171632
37	0xbe449fda	-0.19201604
38	0xbde7bd7f	-0.113154404
39	0xbd33c1a6	-0.04388585
