regression_cartpole_20250305_0035.pt (torch, 18552 bytes, 8 tensors)

layers.0.weight f4 [32, 8]
000000 f7 57 ea bd af 6a 2a 3e 45 34 78 3e 58 ca 18 3e
       -0.11442559 0.16642259 0.24238689 0.14920938
000010 23 fa 15 be 0a c2 81 bd 57 29 c4 3d f4 bc 9c bc
       -0.14646201 -0.06335838 0.095781974 -0.019133069
000020 6c dc cc 3d 49 02 66 be 92 8b 49 3e f1 13 a6 be
       0.1000298 -0.22461809 0.19682148 -0.3243709
000030 eb 37 cc bd fa 32 92 3d e4 25 cd bc 40 65 a7 3d
       -0.09971603 0.07138629 -0.025042482 0.08173609
000040 1e 3b 0a be 1f 0e 75 3e 59 10 dd be 52 33 2a bd
       -0.13499114 0.23931168 -0.43176535 -0.04155285
000050 a1 b2 f9 3d 68 a1 be 3d 02 96 61 28 e4 e6 43 ba
       0.12192274 0.093081295 1.2522537e-14 -0.0007473065
000060 f5 f8 8c 3d 43 34 79 3e f0 72 7b be 54 63 8c be
       0.06883422 0.24336343 -0.24555564 -0.2741953
000070 dc 47 2d be 58 d3 33 3e e3 ba 77 39 ab 14 49 3e
       -0.16921943 0.1756109 0.00023625376 0.1963679
000080 82 43 d4 bd d2 74 aa 3e 8e 9f 2b 3e 98 7f 8d be
       -0.103644386 0.33292252 0.16760084 -0.2763641
000090 c2 9d 59 bc 44 e5 98 bb 0a da 82 3d fd 7b af bd
       -0.013282241 -0.0046660025 0.06389244 -0.08568571
0000a0 25 18 dc 3d 9c ac 14 3e c2 85 d5 be b2 0d 3a be
       0.10746793 0.1451897 -0.41703612 -0.18169287
0000b0 64 71 ee 3c 22 55 49 3e 74 a2 d0 3d c3 67 2d 3e
       0.029106803 0.19661382 0.101872355 0.16934113
0000c0 f3 df 1b 3d 26 92 ca 3d 36 d0 73 3e a3 1a 95 be
       0.03805537 0.09891157 0.23809895 -0.29121885
0000d0 50 d3 f1 3a a6 e3 42 bd 0d 20 53 be 92 ea 4f bd
       0.0018449817 -0.047580384 -0.20617695 -0.050760813
0000e0 7c b3 bd be 00 79 d3 3c 63 14 9b 3e b2 85 82 3e
       -0.37050998 0.025814533 0.3028899 0.25492626
0000f0 49 e6 08 be f1 83 0c 3e 3c 5a 2d 3d 16 fa 5d 3e
       -0.13369097 0.13722207 0.042322382 0.21677431
000100 63 c7 08 2e 31 a2 b6 bd 51 0c e7 2a f6 2a 96 ba
       3.109991e-11 -0.08917654 4.104239e-13 -0.0011456895
000110 cb 5a 42 be 80 54 93 39 1d 12 26 be 0f cc 74 28
       -0.18979947 0.00028100982 -0.16217847 1.3588969e-14
000120 49 b5 e3 be 49 bf d2 3d fc a2 77 3e 42 c8 3c be
       -0.44474247 0.10290391 0.24183267 -0.18435767
000130 06 ec 1a 39 42 52 fe 39 ff ba 84 bc d6 48 f1 3c
       0.0001477451 0.00048507942 -0.016202448 0.029453676
000140 95 3a 9c be 34 25 33 bc bd 69 6b 3e 41 04 9f be
       -0.30513445 -0.010934163 0.22989555 -0.31057933
000150 a5 eb 11 3e 6b bd c7 3d 39 ed 9e bd 65 df 86 a9
       0.14250048 0.097529255 -0.077600904 -5.989548e-14
000160 ed b6 fe bd 0c 3a d6 3d af b8 1f 3e 57 7f 39 3d
       -0.12437234 0.1046029 0.15597795 0.045287456
000170 4d c9 f4 3a d9 1f b7 bd 0c 86 54 bd 7b 14 a0 2b
       0.0018675715 -0.08941621 -0.05188565 1.1374368e-12
000180 5f 98 cb be c4 ca 90 bd 99 a6 86 3e 48 33 15 be
       -0.39764687 -0.070699245 0.2629898 -0.14570343
000190 ef 82 00 3e 2a d8 77 3d 05 04 aa ab e0 9a 88 bd
       0.12549947 0.060508884 -1.2080342e-12 -0.06670165
0001a0 26 c6 82 3e d2 3f ae b6 5d 18 83 3e a0 5f a1 3e
       0.255418 -5.1930338e-06 0.25604525 0.3151827
0001b0 f4 1b c4 bb a7 a5 21 3d f1 d4 af 3d 25 32 12 be
       -0.0059847776 0.03946462 0.08585537 -0.14276941
0001c0 49 63 bb be 48 10 b8 3e 91 68 52 be 46 6d a6 3c
       -0.36599186 0.35949922 -0.20547701 0.020315778
0001d0 46 73 d1 bd 19 1e 24 3e 52 e4 19 3e d6 0f 1b bc
       -0.10227065 0.16027106 0.15028504 -0.009464225
0001e0 f6 48 c9 bd e6 93 85 bd 98 61 83 3e 74 55 c2 be
       -0.09828369 -0.0652235 0.25660396 -0.3795582
0001f0 47 ab 6e 3d c6 8a 87 2a 3e 10 4b b7 8f 14 09 b8
       0.05826881 2.407711e-13 -1.2103525e-05 -3.2682492e-05
000200 9e bc 59 be 3a db e0 bd c8 3d 9e be 5e fa b8 3d
       -0.21263358 -0.10979314 -0.3090651 0.09032129
000210 59 31 e9 3d b8 7d 0d 3e 7c 44 04 bb f7 9a bb 3d
       0.113863654 0.13817489 -0.0020182421 0.091604166
000220 bc 56 50 bd ef 2e 81 3b d6 29 6d ba 0c ae bf 3d
       -0.050863966 0.0039423625 -0.00090470666 0.09359369
000230 0a 65 b2 3d e0 72 27 be 09 2e 75 29 66 81 78 3d
       0.08710678 -0.16352415 5.4440857e-14 0.06067028
000240 ee 40 2f 3e fd 89 28 3e e2 14 de 3d 6d 0d 19 bd
       0.17114612 0.16458888 0.10843827 -0.03736632
000250 ca 15 0b be 96 ab b9 b4 35 bd 83 bd 3d 27 3f be
       -0.1358253 -3.458378e-07 -0.06432573 -0.18667312
000260 96 f7 a2 be 74 68 a1 3e d7 30 a4 3e e6 22 76 be
       -0.31829518 0.31525004 0.32068512 -0.2403675
000270 46 36 67 bd a5 63 fd 2d 3d 8b 2e be 29 dc 10 be
       -0.056448244 2.8807021e-11 -0.17045303 -0.14146484
000280 50 02 05 be 5b a3 83 3e fe 3d 90 3e 97 b9 46 be
       -0.12989163 0.25710568 0.28172296 -0.19406734
000290 99 dc da 3c f3 2e 0f 3e cc d7 31 3d 9b 54 b6 3b
       0.026716517 0.13982753 0.04341869 0.005564285
0002a0 59 39 b3 be ad a7 aa bd c6 a8 75 be 59 9f c7 3d
       -0.3500469 -0.08332763 -0.23990163 0.0974719
0002b0 37 4b 40 bd cb a0 74 bd f0 98 3d bd 54 5c 2b bd
       -0.04694673 -0.059723657 -0.04628843 -0.041836098
0002c0 9b be 7e 3e 0e 24 3b be a6 ae 28 be 14 26 be be
       0.24877398 -0.18275473 -0.16472873 -0.37138426
0002d0 6e 29 b6 bc e5 8b 23 ba 18 8d 99 3b 2b ed c3 bc
       -0.022236552 -0.00062388025 0.004686009 -0.023916801
0002e0 a1 b7 98 be c6 a3 94 bc b8 06 9d 3e a6 a2 ba be
       -0.29827598 -0.0181445 0.30669188 -0.36452216
0002f0 22 67 54 3e f0 69 19 3d 4a e5 ff bd 70 56 37 3d
       0.20742467 0.037454545 -0.12494905 0.044760168
000300 28 ae 1a 3d 3a 5b d5 3d bc 6f f9 be a5 73 94 be
       0.037763745 0.10417791 -0.4871806 -0.2899448
000310 c0 b7 12 bc e9 58 08 28 b9 bc 14 3d bc 98 27 31
       -0.008954942 7.568796e-15 0.036312792 2.4388518e-09
000320 73 70 88 3c 7f 72 02 be c8 02 d0 3e d8 48 aa 3e
       0.016655182 -0.1273899 0.40627122 0.332587
000330 32 7a d3 3c 7a 60 37 3e 92 80 e8 3d 01 6f da b9
       0.025815103 0.17907897 0.11352648 -0.00041662905
000340 f7 83 ab bd 43 41 68 3d 7e 4d 9e 3e ab d4 f6 3d
       -0.0837478 0.056702863 0.30918497 0.12052282
000350 2c 3e ea 37 52 18 5e 3e d0 84 10 a9 98 06 cf bc
       2.7923925e-05 0.21688965 -3.208962e-14 -0.025271699
000360 0f 30 0e be de 4e 79 3e f2 80 cc be 8d 40 2d 3e
       -0.1388552 0.24346492 -0.39942127 0.16919155
000370 e1 81 1d 29 34 eb 05 be 86 20 c1 3a 00 b1 93 bc
       3.4973655e-14 -0.13078004 0.0014734424 -0.018028736
000380 01 57 c0 3b 52 45 6f be dc 83 81 3e 1b 70 3e 3e
       0.0058697467 -0.23366287 0.25295913 0.18597452
000390 0d 00 a6 b8 67 f8 50 be a6 e9 1c 39 e9 ad e6 3b
       -7.915506e-05 -0.20407258 0.0001496436 0.0070397747
0003a0 40 58 cf 3c 54 43 8f be 39 69 3a 3e 6d ba 11 3d
       0.025310636 -0.27981055 0.18204202 0.03557818
0003b0 8a 0f fe 3d 5f f7 37 3e 0b 41 88 3a 0d 75 41 be
       0.124053076 0.17965458 0.0010395361 -0.18892308
0003c0 d7 94 6a be 05 3e 27 be fe 2c a4 bd 7c a2 8c be
       -0.2290834 -0.16332252 -0.08016394 -0.27467716
0003d0 0b b5 90 ab ca 94 9f 2b 67 c4 18 be d2 3b 2e 3e
       -1.0282065e-12 1.1338927e-12 -0.14918672 0.17015007
0003e0 33 d1 62 bd 41 c2 9c 3d 87 0b 2a be 98 c4 a3 3d
       -0.05537529 0.076542385 -0.1660596 0.07996482
0003f0 d6 fc f7 3d ff 1c fb bd 92 87 b7 bc 5f 3a 5d bd
       0.121087715 -0.1226139 -0.022403512 -0.054010745

layers.0.bias f4 [32]
000000 d6 9c 7f 3e 89 fc 96 3d 29 ee 74 bd 68 96 de 3c
       0.24962172 0.07372386 -0.05979744 0.027171329
000010 70 b0 a3 3e 41 9e 99 3e 89 fe 83 3e 50 33 8e bd
       0.3197055 0.3000355 0.25780132 -0.06943381
000020 e4 7c 04 be 3b bb 49 3d f2 b9 99 bd ec 55 b2 3d
       -0.12938267 0.049250823 -0.075061694 0.087077945
000030 55 d2 4c 3e 58 79 ff bd 11 6b cd 3e 98 9e bc 3c
       0.2000211 -0.12474316 0.40120748 0.023024842
000040 b2 c0 9f 3e 7c 41 45 be 8b 51 ce 3e fd f7 43 3e
       0.31201702 -0.19263262 0.40296587 0.19137569
000050 e2 d7 d5 3d 7b b5 9a 3e 1e c4 4a 3e 48 e7 6d 3d
       0.10441567 0.30216584 0.19801375 0.058081895
000060 b6 10 6e 3e bf 18 09 be 9a b3 9d 3e 67 82 8e 3e
       0.23248562 -0.13388346 0.30801088 0.27833864
000070 99 6c b3 3e 1b ec e8 3d 19 c4 ae 3e b8 a4 90 bd
       0.3504379 0.113731585 0.34133986 -0.070626676

layers.1.weight f4 [32, 32]
000000 5e c2 37 bd b6 83 1d 3e 1d e0 8d bd 23 a5 ac 3d
       -0.044863097 0.15382275 -0.06927512 0.08429935
000010 13 73 e8 3d 7b 62 35 bc c2 fc 4a 3e f8 63 41 bd
       0.11350074 -0.011070843 0.19822982 -0.04721448
000020 e7 03 d6 3c fd 91 04 3e 33 71 a4 bc 8d 85 07 3e
       0.026124908 0.12946315 -0.020073509 0.1323454
000030 ae 2f db 3d eb f5 ca bd d8 23 95 3e b1 dc f2 3d
       0.107024536 -0.099101864 0.2912891 0.118585
000040 be 54 76 3e 13 bc 1d 3c 7f bb 93 3e e9 a3 10 bd
       0.24055764 0.00962736 0.28853986 -0.035312567
000050 27 d3 0e 3e c9 8d 22 bd 2f 9b c9 3d 99 6f 6d 3e
       0.13947736 -0.039685998 0.09844052 0.23187102
000060 a7 01 29 3e 0e 9a 84 3d db 3b 00 3c 7c 75 8c 3e
       0.16504537 0.06474696 0.007826771 0.27433383
000070 19 1b 55 3e 70 f4 8f bd 2d 57 1a 3d a6 90 56 bd
       0.20811118 -0.07029045 0.037680794 -0.05238404
000080 56 8b 74 3e af 62 ef bc e0 47 0a 3c f8 48 e3 3c
       0.23881277 -0.02922186 0.008439988 0.027744755
000090 46 74 08 3e ed 75 99 3d 34 79 24 bc 09 45 49 3d
       0.13325605 0.07493196 -0.010038663 0.049138103
0000a0 aa 30 f7 3c 6a be 56 3d 0a bd 63 3d d5 b6 23 bc
       0.030174572 0.052427687 0.055600204 -0.009992321
0000b0 6b 69 bb 3d 8b 53 f0 bd 59 9c e4 3d 00 10 33 3e
       0.09150966 -0.117346846 0.111626334 0.17486572
0000c0 3f 57 31 3e 5c 08 17 af f0 b7 19 bd e9 10 43 3e
       0.17318438 -1.373634e-10 -0.037528932 0.1904942
0000d0 c0 d3 25 3e f2 d2 44 3e 18 46 3e 3e dc 8e a1 3d
       0.16194057 0.19221094 0.18581426 0.078885764
0000e0 1e 76 0f 3e 8f cf e7 bd 63 45 05 3d 40 74 62 3e
       0.14009902 -0.113188855 0.032536875 0.22114658
0000f0 4a 24 7b 3e 3c 55 db 3d cc 76 2d 3e b6 a9 e9 3c
       0.24525562 0.107096165 0.16939849 0.028523307
000100 68 ca b6 3c be ad 99 3c a5 0b 2a 3c c6 69 0c 3e
       0.022313312 0.018759605 0.010378753 0.13712224
000110 e4 35 11 3e 8a d1 95 3e 20 54 87 3d 38 06 89 3d
       0.14180714 0.29261428 0.066078424 0.06690639
000120 31 eb ba 3a ff ca e3 3d 32 1c 9d 3d 5b a2 5e 3d
       0.0014260766 0.11122703 0.076713935 0.054354053
000130 b4 90 44 3d ff 4a 3c be ae 02 8c 3e 1c 39 20 bd
       0.047989562 -0.18387984 0.27345794 -0.039116964
000140 4f 7c 54 3e 8a 42 2d 27 13 8f 3b bd 60 48 b9 3d
       0.20750545 2.4044644e-15 -0.045790743 0.090470076
000150 1f f7 fa 3d 65 f9 7e 3e bb 10 c4 3d d9 5f 8c 3d
       0.12254166 0.24899824 0.095735036 0.06854219
000160 3b ec d1 3c c1 58 cf bd 4d 1f 1e bd ef 6b 0d 3e
       0.025625339 -0.1012435 -0.03860407 0.13810705
000170 3e 4f 83 3c bf 67 f3 bd 7f 8b 00 3e 0e 65 74 3d
       0.016028997 -0.11885022 0.12553214 0.059666686
000180 14 2c 91 3e 4f 53 c1 3d 9b d8 ce bd 07 16 16 3d
       0.2835394 0.09439718 -0.10099908 0.0366421
000190 21 9b 3f 3e cc b1 ed bb 45 ef 74 3d b7 3a 35 3e
       0.1871152 -0.007253861 0.059798498 0.17698179
0001a0 c7 d5 c3 bb 36 e9 78 bc a9 f8 6e 3d c4 16 d8 3c
       -0.005976412 -0.015192321 0.05834261 0.026378043
0001b0 f9 c5 75 3e c3 c9 f7 bd b8 43 46 3e a7 17 53 3e
       0.24001302 -0.1209903 0.1936177 0.20614491
0001c0 fd 74 00 3c 6e 5f 94 bb cc c4 3a 3e c2 08 54 3e
       0.007840392 -0.0045279777 0.18239135 0.20706466
0001d0 c0 07 6d 3e 76 f9 c2 bb eb e8 80 3e bc d8 e3 3d
       0.23147488 -0.005950148 0.25177702 0.11125323
0001e0 a0 fe d0 3b 71 b3 ea bd bb 04 03 3e 60 1b 2b 3d
       0.00637801 -0.11460007 0.12794773 0.041774154
0001f0 48 66 5e 3d 21 ef 14 3d 67 dc b7 bc 69 62 c7 bd
       0.05429676 0.036360864 -0.022443963 -0.09735567
000200 de 81 19 3e c4 48 b9 bd 85 30 3c 3e 73 cd 43 3e
       0.14990947 -0.09047082 0.18377884 0.19121341
000210 62 d2 78 bc d4 b5 94 3e f8 3b e8 bc 93 99 0b 3d
       -0.015186878 0.29044974 -0.028348908 0.034082007
000220 2a ea 63 3d 39 ca 5a 3d 24 f4 14 bc 08 b2 07 3d
       0.055643238 0.05341551 -0.009091411 0.03312877
000230 ca 5d bd 3c 02 bf 51 be 6d 45 56 bc 18 23 91 3d
       0.023116011 -0.2048302 -0.013078076 0.07086772
000240 c4 2b 37 3e e2 40 cd 35 7c 81 60 3e 55 da 9f 3c
       0.17887789 1.5292574e-06 0.21924394 0.019513289
000250 d0 23 0a 3e 43 bc 91 3e a9 f6 65 3e 4f a7 f8 3d
       0.13490224 0.28463945 0.22457375 0.121412866
000260 d2 19 d8 3d 3e e3 fd bd 6e 2c 08 3e 2e 86 2d bc
       0.105518 -0.12396859 0.13298199 -0.010591073
000270 b8 90 1b bd 06 d9 f0 bd bd 8b 82 3e 8c f3 e9 3c
       -0.03797981 -0.11760144 0.25497237 0.028558515
000280 bd 9f 55 3e c8 a4 5c 3e 62 47 72 bd 73 f8 29 3b
       0.20861717 0.21547234 -0.059150107 0.002593544
000290 4a 9e a4 3d 5f 77 9e bc d2 f9 cd 3d 21 2d 27 3e
       0.08038004 -0.01934403 0.10057415 0.16325809
0002a0 05 2e b1 bc 81 dc 21 3d a2 52 96 3d 7b a9 2a 3e
       -0.02162839 0.03951693 0.0733998 0.16666214
0002b0 cd 3b 07 3e 64 9a 0e 3e 42 12 3a be 2d 54 23 3e
       0.13206406 0.13926083 -0.18171027 0.1595008
0002c0 ed db a4 bd 7c 25 f0 ad e3 21 71 3e bd 79 e3 3d
       -0.0804976 -2.7301487e-11 0.23548083 0.11107204
0002d0 ab cd ab 3c 54 21 0b be 71 2a 3a 3e 77 cc 09 3e
       0.020972094 -0.13586932 0.18180253 0.13456903
0002e0 12 32 7d bd d6 78 5e 3e 31 7c 64 3e 46 62 16 bd
       -0.06181533 0.21725783 0.22313 -0.036714815
0002f0 43 88 32 3e eb 88 b4 3d 41 25 ac 3d 5d 27 10 3d
       0.17434792 0.088151775 0.08405543 0.03519379
000300 39 57 78 bd 57 0f 12 be 33 9c 48 3e 66 44 41 3d
       -0.060630057 -0.14263664 0.19590835 0.04718437
000310 03 43 18 3d 2a 93 1f 3e fb e1 ac bc 45 2c bf 3d
       0.037173282 0.15583482 -0.02110385 0.093346156
000320 2c 2a 59 3c 8d 16 4b 3c 87 87 18 bd 0d 0f 79 3b
       0.013254683 0.012395513 -0.037238624 0.0038003356
000330 77 d0 f4 bc 2a b9 8d 3d fc a4 35 3e 80 ad a4 bd
       -0.02988456 0.06920083 0.17738718 -0.08040905
000340 11 20 d5 3d 0c f0 49 3c ce 34 03 be e3 ca ff 3c
       0.10406507 0.012325298 -0.12813112 0.031224674
000350 f2 7e e4 bc 54 90 2a 3e 8d 5f ad 3d e2 c3 f3 bc
       -0.027892563 0.1665662 0.084654905 -0.02975649
000360 fa d9 67 3e f5 13 30 3d cc c7 2e bd 85 95 2c 3e
       0.22641745 0.042987783 -0.04267101 0.16853912
000370 d4 c4 de bd aa 3d 4a bd 38 7c 80 3c 29 f8 f2 3d
       -0.10877386 -0.049375214 0.015684232 0.11863739
000380 06 04 6a 3e 72 0a a1 3d 8b 89 c2 bd ce f9 8b 3d
       0.22853097 0.078633204 -0.094988905 0.06834756
000390 d0 d1 d6 3d ee f2 ac 3d cb 85 50 3e 74 96 a9 3d
       0.10489237 0.08444773 0.20363538 0.0828065
0003a0 15 89 f4 3c d6 f1 e1 3d 5b 13 81 3e 9a 36 31 3d
       0.029850522 0.11032455 0.2521008 0.043264963
0003b0 bd 85 06 3e 53 4f 33 be 50 aa 4a 3e 61 dc 29 3e
       0.13136955 -0.17510729 0.19791532 0.16587974
0003c0 cc cf 53 bc b4 a9 46 3d 55 43 70 3e 34 30 17 bd
       -0.012927961 0.048501685 0.23463185 -0.036911204
0003d0 6b 47 61 bd a1 45 51 3d 18 f9 10 3e 6d 93 0a 3d
       -0.05499975 0.051091794 0.14157522 0.033832002
0003e0 5a 29 9f bd 07 e2 a3 3c d8 4f 29 3e b5 e0 98 3d
       -0.07771559 0.02000524 0.16534364 0.074647345
0003f0 da 00 d8 3d 96 60 95 bc 4a 32 f9 3d 27 96 ba bd
       0.105470374 -0.018234532 0.12167795 -0.091106705

layers.1.bias f4 [32]
000000 59 03 80 3e 6f 30 1c 3e d8 93 80 3d 2f f1 12 3e
       0.25002554 0.15252851 0.06278199 0.14349817
000010 30 f5 95 3d 70 f9 33 3e 01 3b 58 bd ff b5 f5 3d
       0.073221564 0.17575622 -0.052790646 0.119976036
000020 77 0f 3b bc 65 71 cb 3d 39 d4 07 3d cd 55 05 bc
       -0.011417261 0.09933738 0.033161376 -0.008138132
000030 71 30 ba 3d c3 e2 8c 3e 55 40 c6 bd da 13 b1 3d
       0.09091271 0.27516755 -0.09680239 0.086463645
000040 13 23 6c 3d 69 4a 52 3e e3 80 f0 3d 4c cb 43 bc
       0.057650637 0.20536198 0.11743333 -0.011950325
000050 ec 9e 5e 3e 26 0d f6 3d 60 fe 4f 3e 8c ce cf 3c
       0.21740311 0.120142266 0.2031188 0.025367044
000060 f4 6b ad 39 50 28 db 3d 6a f1 2e 3e 5d b8 82 3e
       0.00033077563 0.107010484 0.1708428 0.25531283
000070 a9 85 8f 3d a6 f2 40 3e 62 34 01 3e 45 af 8e 3e
       0.070079155 0.18842563 0.12617639 0.27868095

layers.2.weight f4 [32, 32]
000000 3e 29 25 3e cc 10 63 3e 93 04 73 3e 8d d0 c9 3d
       0.16129014 0.22174376 0.23732214 0.09854231
000010 65 77 3f 3e 18 38 51 be ba a0 45 3d d7 03 43 3d
       0.18697889 -0.20431554 0.048248984 0.047611084
000020 89 a7 28 3d 79 71 6e be ab f8 81 3e 14 56 62 bd
       0.0411754 -0.23285474 0.2538503 -0.05525787
000030 89 0f 5c be 24 11 7f 3d 1b d3 55 3e 2e 18 21 3e
       -0.21490301 0.062272206 0.20881312 0.1573188
000040 a1 8c df 3d 24 9c e5 bd 22 1d c9 bd f5 af fd bb
       0.10915495 -0.11211422 -0.0982001 -0.007741923
000050 e0 63 45 3e e4 c6 28 3e 46 54 73 3e 6e dc 20 3e
       0.1927638 0.16482121 0.23762617 0.15709087
000060 f5 6b 21 35 02 90 8a 3c da 2e 22 3e 4d 2a 79 3d
       6.013427e-07 0.016914371 0.15838185 0.060831357
000070 e1 77 00 bd 6b 8b 5a 3e 5b 75 33 3e a6 90 44 3d
       -0.031364325 0.21342246 0.17525236 0.04798951
000080 2f 22 d7 ba c9 72 07 3d 64 a9 ef bc f1 0a 41 bb
       -0.0016413386 0.033068452 -0.029255576 -0.0029455984
000090 75 05 05 bb 5b a3 70 3b d9 d9 a1 ba 6d 33 2c ba
       -0.0020297442 0.0036718461 -0.0012348249 -0.00065689423
0000a0 d3 e6 b9 3c eb 96 61 bd d5 71 d4 ba 5a ae ec ba
       0.022693073 -0.055075567 -0.0016208241 -0.0018057332
0000b0 f0 79 ce a9 8e 70 41 bd 15 0c 4a 3b e3 26 15 bc
       -9.1693905e-14 -0.04722648 0.0030829955 -0.00910351
0000c0 5d e0 71 3d f4 f5 e5 bb 0b 81 d5 3c 34 9c 1b 3d
       0.05905186 -0.0070178453 0.026062509 0.037990764
0000d0 09 9f a9 bc f9 77 23 bc ce 38 a7 ba f3 e1 2d 3d
       -0.020705717 -0.009977334 -0.0012758018 0.04245181
0000e0 55 ee 0f 3d fe cf 14 3d 57 85 4f b9 3d 82 5d ba
       0.0351394 0.03633117 -0.00019790731 -0.0008449888
0000f0 1b 5f ac a6 bd fa 63 3c f5 f0 fb 3a 4b c6 2e bc
       -1.1960676e-15 0.013914761 0.0019221591 -0.010667394
000100 07 47 3b 3d 4f 79 55 3d 93 15 96 3d a4 23 81 3e
       0.045722034 0.052117642 0.07328334 0.25222504
000110 01 eb 41 3e 2e 47 02 3d cc 06 27 be c0 4c 07 3d
       0.18937303 0.031806163 -0.16311187 0.03303218
000120 a5 a3 00 3e ae ba 53 bc 49 8f 05 3e bf 26 18 ba
       0.12562425 -0.012922926 0.1304294 -0.00058041135
000130 39 33 39 bd b1 40 2b 3e fc 2f e8 bd 36 ab 82 bd
       -0.045214865 0.16723897 -0.11337277 -0.06380312
000140 ff df 12 be 08 29 fe 3c 9e 3f b0 bd a7 36 61 bd
       -0.1434326 0.031025425 -0.08605884 -0.05498376
000150 5b b9 74 3e b7 d3 5c 3d ac fa 01 3e a8 f0 3d 3e
       0.23898832 0.053912845 0.1269328 0.18548834
000160 be c2 38 2f 2b 14 11 bd e6 a8 76 3d 69 0f 57 3d
       1.6803889e-10 -0.035419624 0.060219668 0.05250493
000170 0b e4 55 3e 4f db 0a bd 08 fb 20 3e e9 af 85 3e
       0.20887773 -0.033900555 0.15720761 0.2611077
000180 ff f1 83 3c 3e e3 94 bc 8f 43 42 bb 7e 20 a1 bc
       0.016106604 -0.018174764 -0.002964232 -0.019668814
000190 f6 bf a1 bb 8b 3c 3f 29 df f0 15 3b 7a 0d a4 bb
       -0.0049362136 4.2463032e-14 0.0022879166 -0.0050064893
0001a0 4c b6 38 bd 17 9d c6 27 c3 c9 86 29 35 df 1d 2a
       -0.045095727 5.5126357e-15 5.9857955e-14 1.4021842e-13
0001b0 67 c3 40 3d de 92 7e b2 5e 7d 53 3a eb 72 17 bd
       0.04706135 -1.481814e-08 0.00080676924 -0.03697483
0001c0 c8 bc 93 bc 33 28 07 a8 f2 db 45 3d 0b e8 30 a8
       -0.018034354 -7.502722e-15 0.04830546 -9.820279e-15
0001d0 cf 64 28 bb d7 61 0d 3c 8c e7 0a bd e9 f5 bb 3b
       -0.0025694852 0.008629284 -0.033912227 0.005736102
0001e0 dd 7b cb bc 63 76 ac 3b 66 f7 f0 ba 96 ac 30 bd
       -0.024839336 0.0052631362 -0.0018384277 -0.04313334
0001f0 42 df 48 bd f1 d9 21 b9 9e f2 97 a7 a8 fe 31 bd
       -0.04904104 -0.00015435346 -4.2173965e-15 -0.04345575
000200 54 84 81 3e 33 97 76 3e f8 79 7d 3e 90 4a f9 bc
       0.2529627 0.24081115 0.24753559 -0.030431062
000210 c6 48 1c 3e a7 6f 4e 3d 44 da 15 be 37 a4 7a 3d
       0.15262136 0.05039945 -0.14634043 0.061191764
000220 85 b6 4b 3e 39 ea 3e 3d 41 1c 58 bd f3 03 01 34
       0.19893844 0.04661009 -0.05276132 1.2015498e-07
000230 79 eb 2d 3c 4a 07 55 3e 34 80 ad bd 12 1c 76 bd
       0.010615223 0.20803562 -0.084717184 -0.060085364
000240 c9 8e 04 be 34 1c a0 3e b1 41 f6 bc 05 49 8b bd
       -0.12945093 0.31271517 -0.030060621 -0.06801037
000250 b8 0d 67 3e 46 67 a7 3c 72 ba d2 bc 01 46 46 3e
       0.22563827 0.020434987 -0.02572367 0.19362642
000260 83 c9 7c 37 4e 33 8f 3e e9 08 91 3e 5b 81 5a 3e
       1.5067289e-05 0.2796883 0.2832711 0.21338408
000270 84 2d 2b 3c 62 e2 4b 3e 0d fc 4a 3d 19 a0 68 3e
       0.0104478635 0.19910577 0.04955678 0.22717322
000280 a9 7a 05 3d 33 9d 51 3e c4 21 8b 3e 5e b2 d4 3d
       0.03258768 0.20470123 0.271742 0.10385583
000290 8a 0c 3b 3e b4 3c 1e be 85 16 bf 3c 3c 09 37 3e
       0.18266502 -0.15452844 0.023326168 0.17874616
0002a0 dc b7 4c 3e fa 21 28 be 29 16 06 3d 73 b6 8f b8
       0.19992012 -0.16419211 0.032735977 -6.852755e-05
0002b0 f5 25 47 be ac 1a 71 3d 49 ce ed bd 2f d9 61 bc
       -0.19448073 0.058863327 -0.116116114 -0.013784691
0002c0 73 cd 1c 3b 24 0e a6 3b 77 51 3d 3c d5 c1 d6 3c
       0.0023926168 0.0050676037 0.011555067 0.026215473
0002d0 c3 42 87 3e 84 d7 26 3e 47 3d 2b 3e d6 77 0e 3e
       0.26418123 0.1629315 0.16722594 0.13912901
0002e0 2e 94 50 b7 aa 1f 8b 3e cb ff 79 3e 44 26 91 3d
       -1.2432267e-05 0.27172595 0.24413984 0.07087377
0002f0 ba 68 0f 3e 34 31 ea 3d 7b f8 01 3e 39 74 28 3e
       0.14004794 0.11435166 0.12692444 0.16450585
000300 da 27 13 bc 67 24 b0 ba 21 e8 8c b8 53 24 ec ba
       -0.008981669 -0.0013438583 -6.7189576e-05 -0.0018016197
000310 e3 4c 08 bd 5b fb 2e bc 10 43 d8 bc d2 d0 d2 ba
       -0.03327645 -0.010680045 -0.026399165 -0.0016083962
000320 4f b3 f8 b8 8f 6d b1 3c 13 d5 bb 3a 59 09 77 bc
       -0.0001185896 0.021658687 0.0014330469 -0.015077912
000330 fd a1 62 38 9d 6c 8e bc a6 fc 21 3d e7 38 00 bd
       5.4033462e-05 -0.017385775 0.039547585 -0.031304266
000340 b3 b1 bf bc b8 7f 63 3c 25 b8 87 3b d7 32 2b ba
       -0.023400163 0.013885431 0.004141825 -0.0006530708
000350 a7 fa a6 38 c6 dd 25 3b 96 c3 a8 b7 d1 26 d4 b9
       7.9621845e-05 0.002530919 -2.0118237e-05 -0.00040464711
000360 3a c9 fc bc bd ce 9e 3c 7f ab 08 ba d9 fd 8d bb
       -0.030857671 0.01938569 -0.0005213543 -0.0043332395
000370 e1 c0 12 bb 19 4f a9 bb 21 9a 61 bd 75 92 0d bb
       -0.0022392797 -0.0051669 -0.05507863 -0.0021602188
000380 bf 53 bb 3a 6a b0 19 3c bb 7f 5b bd 21 04 82 3c
       0.0014291926 0.009380439 -0.05358861 0.01587111
000390 12 4b 76 ba 46 99 1a b1 2e 7d 13 3d 93 49 f2 bc
       -0.00093953416 -2.2497075e-09 0.036008053 -0.029576099
0003a0 5b 4b 80 3a c2 98 2a bd 57 18 28 bd 2c 42 45 bd
       0.0009788083 -0.041649587 -0.041038837 -0.04815881
0003b0 38 49 88 ba 23 53 57 bd 99 ad 6f bd 31 9c ab 3c
       -0.0010397797 -0.05256952 -0.058515165 0.020948501
0003c0 78 d7 45 bd 59 e4 6c 3a c5 7f 77 bb 70 2f f4 bc
       -0.04830119 0.0009036712 -0.0037765366 -0.029807776
0003d0 d5 c4 7c bc 48 9b 10 3a 47 26 0d bd c2 85 28 39
       -0.015427788 0.0005516303 -0.034460332 0.00016071557
0003e0 85 86 54 bd c8 15 fe bc 4d 25 51 ba fe d8 a2 3d
       -0.0518861 -0.031016245 -0.00079782755 0.07951544
0003f0 a3 ac c9 b5 e3 9b 4a bd e4 26 b0 bc ec 30 17 bd
       -1.5025911e-06 -0.04946507 -0.02150292 -0.03691189

layers.2.bias f4 [32]
000000 bd c6 6c 3c 98 46 51 bd 24 a7 a8 3d 1b 7f ff b9
       0.01445168 -0.051092714 0.082350045 -0.0004873209
000010 cb 49 cc 3d cf 81 9c 3d d0 ea 38 bb b8 b9 4d 3d
       0.099750124 0.076419465 -0.002821613 0.050225943
000020 2c 9f eb 3d 6a 05 c6 3d a7 0f 0e 3e 86 e7 67 bd
       0.11504969 0.096690014 0.13873158 -0.056617282
000030 5a 94 28 3e 0f d3 05 bd bf db 98 bb eb 8f 18 3b
       0.16462842 -0.032671984 -0.0046648677 0.0023279141
000040 0d 81 e7 3c 2b 49 d0 3d 8e f3 fe 3d f5 6d 86 3e
       0.028259778 0.10170206 0.12448798 0.26255766
000050 19 5d ae bc 46 76 82 bc e0 88 07 3e 97 85 bd 3d
       -0.021284627 -0.015925538 0.13235807 0.09253996
000060 b2 39 b6 bc 09 90 56 3d 79 b2 5e bb 3e ae 3d 3e
       -0.022244308 0.052383456 -0.003398089 0.185235
000070 42 1d 8d bc 18 4f dd b9 77 83 0a ba 7c 6d 41 3d
       -0.017225865 -0.00042211334 -0.0005283872 0.047223553

layers.3.weight f4 [40, 32]
000000 e8 00 82 bd 71 d8 66 bd dd c5 85 bc 4c 53 4b 3d
       -0.06347829 -0.05635876 -0.0163297 0.049639985
000010 0c 4b 93 be 45 53 8f bd 75 ff ec 3c f8 23 8f b0
       -0.28768194 -0.06998304 0.028930405 -1.0414842e-09
000020 dd 20 79 be 65 f4 4d be e0 8f 20 3d 6b d1 b8 b5
       -0.24328943 -0.2011276 0.03919971 -1.3770017e-06
000030 6d ad 33 bd d2 95 54 3d 9b 42 3b 3d 2e 3d d0 bc
       -0.043866564 0.051900692 0.045717817 -0.025419798
000040 cb aa f4 3b db 5e 43 bd 3c 9f 4f be af 55 fa bd
       0.007466649 -0.047697883 -0.20275587 -0.12223374
000050 56 ff 79 b9 80 78 a4 3d 16 47 c6 bd 25 98 c1 bc
       -0.0002384161 0.08030796 -0.09681527 -0.023632118
000060 c0 7f 91 b8 a0 86 0d 3c 7f 94 51 3a 08 93 a5 bd
       -6.937934e-05 0.008638054 0.0007994845 -0.080846846
000070 59 14 1b be 24 d9 e6 bb 4c 28 46 bb 29 b7 0a bd
       -0.15144481 -0.007044928 -0.003023642 -0.03386608
000080 c6 49 d4 3c b8 64 26 3d 32 c4 2a be 22 6c 42 b7
       0.025914084 0.040623397 -0.16676405 -1.1588478e-05
000090 79 9c 0e be 08 34 96 3d 31 00 55 3d 04 10 b9 3b
       -0.13926877 0.07334143 0.052002136 0.005647661
0000a0 37 68 53 be 7e 32 5c be 9a e7 af ba 1a 09 6f 3d
       -0.20645224 -0.21503636 -0.0013420463 0.05835829
0000b0 be 7d 17 be 46 37 9b 3d e7 81 0d 3c cf 53 79 bc
       -0.1479406 0.07578902 0.008636928 -0.015217735
0000c0 b3 02 fa bd ec e9 86 bd 9a d6 23 bd ad 60 0e bd
       -0.12207546 -0.06587586 -0.039999582 -0.034760166
0000d0 bf 5e 00 b9 1f 12 6f ba 06 e6 63 be 96 09 5f be
       -0.00012242327 -0.0009119827 -0.22255716 -0.21781
0000e0 56 2b 0c 3d a0 d1 b2 39 a9 15 3c bb c8 6d a0 3d
       0.034221016 0.00034106988 -0.0028699434 0.07833439
0000f0 85 d5 3e 3e 5a e2 1d bd bc 36 de bc c3 27 45 3c
       0.18636139 -0.038545944 -0.027125709 0.012033406
000100 66 f8 d5 bd 84 6a f7 b8 89 bf b1 bd 58 2f 3c bd
       -0.10447769 -0.00011797718 -0.086791106 -0.045943588
000110 df ed b8 bd 9c 90 fb bd b1 65 49 3d c5 78 8e b4
       -0.09029745 -0.122834414 0.049169246 -2.6537433e-07
000120 85 66 03 3c 66 b9 ee b8 43 8b 94 bd 7a fe c6 31
       0.008020048 -0.000113832575 -0.072531246 5.791489e-09
000130 eb 99 09 be 72 25 c6 ba c5 15 ce 3c ee f7 ee bc
       -0.13437621 -0.0015117361 0.025156865 -0.029170956
000140 8f 49 b9 bd cf ba 18 3d 68 57 d2 bd 73 3b 5a be
       -0.09047233 0.03728753 -0.10270578 -0.2131174
000150 8d cc c4 ba 04 98 b6 bc c8 77 1b 3d 17 0f 16 3c
       -0.0015014574 -0.022289284 0.03795603 0.009158871
000160 f5 2c 9d bb ca 71 35 3d 17 85 4c 3c cf ec 10 be
       -0.004796619 0.04429797 0.012482903 -0.14152835
000170 f2 42 d5 bd 59 95 e4 3c 24 e7 0a 3d bf 27 4d 3d
       -0.104131594 0.027903246 0.03391184 0.050086733
000180 e3 8d a7 bd c0 db 2e 3c 0b 69 1e be 7d 1a 8d 27
       -0.081813596 0.01067251 -0.15469758 3.916408e-15
000190 63 b1 61 be 99 d6 72 be 8f a8 3c ba de 8a 83 3b
       -0.22040324 -0.23714675 -0.0007196748 0.004014357
0001a0 43 77 8e 3d c4 6c 04 be c6 da 8d bd b0 23 0c 3d
       0.06956341 -0.12932116 -0.06926493 0.03421372
0001b0 60 d1 6b 3c 38 bc 74 bc 47 96 8d 3d 84 04 25 bd
       0.014393181 -0.014937453 0.06913429 -0.04028751
0001c0 52 7c 2d be 64 26 7b 3d 72 7b 10 be f0 f8 2d bd
       -0.16941956 0.06131591 -0.1410959 -0.042473733
0001d0 01 a9 67 3d c2 d2 f8 3b cb 0c 23 3d f4 84 2d 3e
       0.05655766 0.0075934837 0.039807122 0.16945249
0001e0 99 86 84 bc 66 9d 1c 3d 7a 1c 2b 3d 1a ae c8 bd
       -0.016177462 0.038236044 0.041775204 -0.09798832
0001f0 5b c3 c3 bd de 5f 24 3c 78 7e 4e bb f7 69 2d bd
       -0.095587455 0.010032622 -0.0031508487 -0.042337384
000200 51 f8 51 3c db cd 46 3d 7d 7f 2c be 5a 01 0c 3a
       0.012815551 0.048536163 -0.16845508 0.00053407776
000210 9f de 40 be 06 53 7b be cd 0a f7 bb ac 53 07 b8
       -0.18834923 -0.2454339 -0.0075391294 -3.2264434e-05
000220 83 b0 aa bd 56 68 7a 3c 5c 9b d8 3c ba 9f 25 bd
       -0.08334448 0.015283665 0.026441269 -0.04043553
000230 cc 91 80 be 4a f0 ff bc 90 d7 d7 3c ee 64 5f 3d
       -0.25111234 -0.031242508 0.026347905 0.054539613
000240 ee 33 86 3d fa dd 3f bd f0 19 4d be 47 38 4a be
       0.065528736 -0.046842553 -0.20029426 -0.1974803
000250 45 9b 8a b9 de 65 da bc 7e dd e4 bd 7d 13 34 bd
       -0.00026437096 -0.026659902 -0.11175059 -0.043963898
000260 a6 e9 0e 3c 38 30 83 3c d6 77 27 bd da 71 77 bd
       0.008722698 0.016014203 -0.04088577 -0.06041131
000270 cc de 08 3d 43 17 d7 b6 51 a6 52 37 99 39 87 bc
       0.0334156 -6.4102073e-06 1.2555699e-05 -0.016506957
000280 67 07 25 3e ea 87 55 bd 7d 27 66 be 12 72 df 3b
       0.16116105 -0.05213157 -0.22476001 0.006819018
000290 02 a3 06 be 2f f5 65 bd b3 40 15 b9 41 87 c4 bc
       -0.1314812 -0.05614203 -0.0001423385 -0.023990275
0002a0 fe 06 46 be dc a5 17 3d 5e 1f b9 3c ad 2f e8 3c
       -0.19338605 0.03702341 0.022597965 0.028343046
0002b0 e3 f4 6c be 90 f3 8d 3d 29 90 fe bd 8c 31 24 3c
       -0.23140292 0.069312215 -0.1242984 0.0100215785
0002c0 1b 2b f6 bc 96 c0 7e bd 79 95 2c be b6 a4 05 be
       -0.030049851 -0.062195383 -0.16853894 -0.13051113
0002d0 87 66 cf b9 e2 25 4f 3b 29 43 da bb 96 d1 66 be
       -0.00039558506 0.0031608273 -0.006660838 -0.22540888
0002e0 d3 2b f6 bc 1a 14 86 bd 9c 89 0c 3d 79 bc b8 bd
       -0.030050194 -0.06546803 0.034310922 -0.09020323
0002f0 88 b2 06 3e 5b d9 4a 3d ea ed 94 bc ee 4f f7 3b
       0.13154042 0.049523693 -0.018179853 0.00754737
000300 a7 66 ab bc 25 75 14 bd 34 41 b7 3b de 11 0c b8
       -0.020922972 -0.03624453 0.0055924896 -3.339524e-05
000310 2e d4 e2 bd 97 56 6e be e6 cf 4b bd b4 b2 bd bb
       -0.11075626 -0.23275219 -0.049758814 -0.0057891253
000320 b2 89 8a bd 5d 11 4f be e3 f0 9b 3c 10 b5 5e bd
       -0.067645445 -0.20221467 0.019035762 -0.054371893
000330 ab ea 55 be 5d 96 90 bc e5 56 fa 3c d7 1f b8 39
       -0.208903 -0.017649824 0.030559013 0.00035118937
000340 b6 d5 2a be e1 c4 cf 3d f1 7a 4a be c7 62 09 bd
       -0.16683087 0.101449735 -0.19773461 -0.033541467
000350 57 4c ee bc d8 fb ca bb 35 5d 42 3d c5 dd 0b 3e
       -0.029089136 -0.006194573 0.04745217 0.13658817
000360 2a d9 7d b7 55 03 06 3c 8f 97 e6 bb d7 06 36 be
       -1.5130538e-05 0.008179505 -0.00703711 -0.17776047
000370 c0 c7 0c be ff fb 56 3d 04 c5 16 bd 81 55 82 3d
       -0.13748074 0.052486416 -0.036808982 0.06363965
000380 c8 4f d4 bd d1 d3 5f 36 76 7b 9f bc 82 7f 2f bd
       -0.103667796 3.3352883e-06 -0.01946805 -0.04284621
000390 ed e8 34 be 5b 73 39 bd e8 10 ca 36 dd ef fc 35
       -0.17666979 -0.045276027 6.0220373e-06 1.8845273e-06
0003a0 27 19 7f 3d 00 9a 28 be fe 0c 37 bd 1b 27 b4 3a
       0.062279847 -0.16464996 -0.044690125 0.0013744564
0003b0 23 d0 5c be 3b 08 4d 3d 70 6a 06 3e 5c 18 31 39
       -0.21563773 0.050056677 0.1312654 0.0001688911
0003c0 6d 2f 0a be b4 d0 4d 3e 23 56 a5 bd 47 09 1e be
       -0.13494654 0.20099145 -0.0807307 -0.15433227
0003d0 8e ee 05 3b ee a5 bc 3c 1f 1f 06 bc dc 32 57 3e
       0.002043638 0.02302834 -0.008186131 0.21015495
0003e0 48 bd e8 bb 7d 01 90 3d bb 9d e7 2d 71 62 a5 bd
       -0.007102642 0.07031534 2.6331706e-11 -0.08075417
0003f0 f3 4e 82 be ca 99 5c b7 af db ba b2 64 3c 3f 3d
       -0.25450858 -1.3148829e-05 -2.175315e-08 0.046688452

layers.3.bias f4 [40]
000000 96 36 4b be a5 93 0d be 14 35 5f bd 39 40 b2 3d
       -0.19845042 -0.13825853 -0.05449398 0.08703656
000010 e0 80 31 be ca ac e7 bc d0 63 a0 3d c8 7c 4f be
       -0.17334318 -0.028280634 0.07831538 -0.20262444
000020 3b 4d bc bc 8b 7e 4b be 38 b3 ef 3d 88 2b 41 be
       -0.022986045 -0.19872491 0.11704105 -0.18864262
000030 79 36 12 be 6a 60 28 be 5b f6 0c bd 8c e7 21 be
       -0.14278592 -0.16443029 -0.03441463 -0.15810984
000040 f4 70 33 3c 9e 23 9b bc 35 3b 1e be fe e5 17 be
       0.010952223 -0.018937882 -0.15452273 -0.14833829
000050 31 13 10 3d 7e 50 bf bd 8d d4 91 3d af 02 2f be
       0.035174552 -0.093415245 0.07120619 -0.17090867
000060 08 e8 3b be ba 65 b3 bd 39 12 6e bd a7 c1 b3 bd
       -0.18350232 -0.08759637 -0.058122847 -0.08777171
000070 75 32 6d be 20 9e 08 bd 10 c8 15 be 61 d2 a3 3c
       -0.23163779 -0.033353925 -0.14627099 0.019997777
000080 ac 6f f5 bd b4 f0 26 be 1c f2 cd bd 49 1c 41 be
       -0.1198419 -0.16302758 -0.10055944 -0.18858446
000090 36 fc 4d be 54 c9 1f be 91 d6 2a be a9 34 35 be
       -0.20115742 -0.15604144 -0.16683413 -0.1769587
