regression_cartpole_20250305_0053.pt (torch, 18552 bytes, 8 tensors)

layers.0.weight f4 [32, 8]
0	0x3d6ece5a	0.05830226
1	0xbc2a77be	-0.010404525
2	0x3e916e4a	0.28404456
3	0x3ead6268	0.3386414
4	0x3da35d7d	0.07976816
5	0xbe4b6e81	-0.19866373
6	0x3e04246d	0.1290452
7	0xbe27c05b	-0.16381972
8	0x3db265f9	0.08710856
9	0xaee8c389	-1.05848726e-10
10	0x3d5c8880	0.053841114
11	0xbdcc88d5	-0.09987036
12	0x3d73eeb8	0.05955383
13	0xbe13036b	-0.14356773
14	0xadf4d56b	-2.7834365e-11
15	0x3caead90	0.021322995
16	0xbb24a13e	-0.0025120522
17	0xbe489bee	-0.19590732
18	0xbea394f7	-0.3194959
19	0x3de4da9e	0.111745104
20	0xbd862d09	-0.065515585
21	0xbdbdf69d	-0.092755534
22	0xbdbe1129	-0.09280617
23	0x3d3cf291	0.046129767
24	0xbec9c76b	-0.39409956
25	0xbdd47ca9	-0.103753395
26	0x3e54ce18	0.20781744
27	0xbe8f35ab	-0.27970633
28	0xb9f00355	-0.0004577885
29	0x3dfa55a2	0.122233644
30	0x3d78da62	0.06075514
31	0x3e29b50a	0.16572967
32	0x3e2cd01a	0.1687626
33	0x3d821920	0.063524485
34	0xbebe94dc	-0.37222946
35	0xbe19b1b5	-0.15009196
36	0xbd69a2bb	-0.057039957
37	0x3a89b200	0.0010505319
38	0xbcf2f582	-0.029658083
39	0x3e3f8e5d	0.18706651
40	0x3eb8b13d	0.36072722
41	0x3dfacbc7	0.12245899
42	0x3eceb91f	0.4037561
43	0x3e5a4dba	0.21318713
44	0xbd1e7364	-0.038684264
45	0x3dfc159d	0.1230881
46	0x3d381fbe	0.044952147
47	0xbcbce1d3	-0.0230569
48	0xbe9ba761	-0.30401137
49	0xbdab9fe4	-0.08380106
50	0x3e940110	0.2890706
51	0x3dab625d	0.08368371
52	0xbe3279a0	-0.17429209
53	0xbe36cb3b	-0.17850964
54	0x3d908dda	0.07058306
55	0x3ddf5cc2	0.10906364
56	0xbe2ba1d6	-0.16760954
57	0x3b7b25f4	0.0038322182
58	0x3e988285	0.29787078
59	0xbd9fa2fc	-0.07794759
60	0x3c82c004	0.0159607
61	0xbd60a343	-0.0548432
62	0xbc52bd70	-0.012862548
63	0xbc9298d6	-0.017895143
64	0xbef1038f	-0.47073027
65	0xbb0122fc	-0.001970469
66	0x3e25870f	0.16164802
67	0xbe946a49	-0.2898734
68	0x3d03ccf8	0.032177895
69	0x3df5e83c	0.12007186
70	0x3da61883	0.08110144
71	0xbdfdd2b0	-0.12393701
72	0x3e12a426	0.1432043
73	0x3e40b784	0.18820006
74	0x2d09a158	7.823374e-12
75	0x3de9f517	0.114237
76	0xbe5432d0	-0.20722508
77	0xbd3a7a35	-0.045526702
78	0xba1431c7	-0.00056531694
79	0x3e123931	0.1427963
80	0xbd42ea80	-0.047586918
81	0xbd2ecbee	-0.04267495
82	0xbea3f756	-0.3202464
83	0xbdbb6bb3	-0.09151401
84	0xbda1ca30	-0.07899892
85	0xbd1a46d4	-0.037665203
86	0x3db4ea7e	0.08833788
87	0x3c8d9978	0.017285094
88	0x3e294a16	0.16532168
89	0x3cdff250	0.027337223
90	0x3e87da32	0.26533657
91	0xbe18c12d	-0.1491744
92	0x3deab2b9	0.1145987
93	0x3861a410	5.3796975e-05
94	0x3dd0d412	0.10196699
95	0x39e43d09	0.00043533024
96	0x3e304f6c	0.17217797
97	0xbc183a14	-0.009291191
98	0x3e5b55d4	0.2141946
99	0x3e384088	0.17993367
100	0xbb5fac52	-0.003412981
101	0x3d906d0c	0.07052049
102	0xbe0898c9	-0.13339533
103	0xbd5f52d8	-0.054522365
104	0xbc3a274a	-0.011361906
105	0x3d2c07e8	0.041999727
106	0xbeac9cd1	-0.3371339
107	0x3eb4b283	0.35292444
108	0x3a8f7d9e	0.0010947471
109	0xbe37d8de	-0.17953822
110	0x3e23a168	0.1597954
111	0xbdb8d0a9	-0.09024174
112	0xbd8ead3b	-0.06966635
113	0x3d3ad7fc	0.045616135
114	0x3e555c52	0.20835999
115	0xbdbff8f2	-0.093736544
116	0x289fb04e	1.7729006e-14
117	0xbda2059e	-0.07911228
118	0x3c5fbb61	0.013655514
119	0xa9138d93	-3.2763353e-14
120	0xbbad6fb2	-0.005292856
121	0x3ea5c603	0.32377633
122	0x3d40b0d9	0.047043655
123	0xbeb81b33	-0.3595825
124	0xbe453eca	-0.19262233
125	0x3b99ebd6	0.0046973033
126	0x3bccebb5	0.0062536844
127	0xbe2b47ce	-0.1672661
128	0xbcd14314	-0.02554468
129	0x3e3b1d73	0.18272953
130	0x3c62b405	0.013836865
131	0xbde582da	-0.112065986
132	0xbdae39a2	-0.08507086
133	0xb96a061d	-0.00022318256
134	0x3bcc8fac	0.006242713
135	0x3b7a1325	0.0038158384
136	0x3e2150b8	0.15753448
137	0x3df4070e	0.11915408
138	0xbe23dd55	-0.160024
139	0x3d8f62cb	0.07001265
140	0xab22bd7f	-5.781694e-13
141	0xbdc2234f	-0.09479391
142	0x38b0a31b	8.422715e-05
143	0x3da063a0	0.07831502
144	0xbe207c53	-0.15672426
145	0xbddfd34e	-0.10928975
146	0xbe20540a	-0.15657058
147	0xbe0265a7	-0.1273409
148	0xbde2e077	-0.110779695
149	0xbd17e04e	-0.037079148
150	0x332156f2	3.756481e-08
151	0xbb70a509	-0.0036719462
152	0x3dca5a5a	0.098805144
153	0xbe000d44	-0.1250506
154	0x3ebd825c	0.3701352
155	0xbda8be33	-0.082394026
156	0x3c90a38b	0.017656108
157	0xbd8c5ae4	-0.068532735
158	0x3da77eed	0.08178506
159	0x3ddd93d4	0.108192116
160	0x3bc54002	0.006019593
161	0x3e5c407a	0.21508971
162	0xbe879c17	-0.26486275
163	0xbe6f19ea	-0.23349729
164	0x3e201f12	0.15636852
165	0x3e28a5b2	0.16469458
166	0xab9b04e4	-1.101477e-12
167	0xbe0902f8	-0.13380039
168	0xbdba8f92	-0.09109415
169	0x3ed51148	0.41614747
170	0x3e251222	0.16120198
171	0x3e587ab6	0.2114056
172	0x3db9af66	0.09066658
173	0xbd011bf9	-0.031520817
174	0xbe2c53b0	-0.16828799
175	0x3e18fc5a	0.14940014
176	0xbddca145	-0.10772947
177	0x3e94cc48	0.29062104
178	0x3ea9a10b	0.3313068
179	0xbb20efd1	-0.0024557004
180	0xbd444160	-0.04791391
181	0x3d129955	0.03579076
182	0xbc07213e	-0.008247672
183	0xbd91b76c	-0.07115063
184	0xbe91c9ec	-0.28474367
185	0xbe01b272	-0.12665728
186	0x3e195174	0.14972478
187	0xbd8eef67	-0.06979256
188	0xbe4ff31b	-0.20307581
189	0xbd5299f2	-0.051416345
190	0x2a6b9d1a	2.0926698e-13
191	0x3da51382	0.080603614
192	0x3de2cb0b	0.110738836
193	0x3e854856	0.2603175
194	0xbe7b46b1	-0.24538685
195	0xbd03c61a	-0.032171346
196	0x2703bd24	1.8282435e-15
197	0xbe114693	-0.14187078
198	0xbe473f85	-0.19457825
199	0xb0b15f6e	-1.2905568e-09
200	0xbe51bf22	-0.20483068
201	0xbb064d3d	-0.0020492815
202	0x3e8438e3	0.2582465
203	0xbe64c36f	-0.22340177
204	0x393ff649	0.00018306928
205	0xbe1fbc92	-0.15599278
206	0xbd348250	-0.04406959
207	0x3d0b01f4	0.03393741
208	0xbead3d73	-0.33835945
209	0x3cf634f0	0.03005454
210	0x3e560f86	0.20904359
211	0xbe4fe45b	-0.20301954
212	0x3c80ffb0	0.015746921
213	0xadff79ad	-2.9044179e-11
214	0xbe1157ca	-0.14193645
215	0x3db50040	0.08837938
216	0x3e09f113	0.13470869
217	0x3d06960c	0.03285794
218	0xbe7b6215	-0.24549134
219	0x3dc9ffe7	0.098632626
220	0xbe039755	-0.12850697
221	0xbb811f2f	-0.003940485
222	0xa7335378	-2.4886489e-15
223	0x3e0ae61e	0.13564345
224	0xbd563d2b	-0.052304428
225	0x3ea8018f	0.3281369
226	0xbd105193	-0.035234045
227	0xbe0d202b	-0.13781802
228	0xbd9ceea1	-0.07662702
229	0x3d341fe9	0.043975744
230	0xba140556	-0.0005646547
231	0x3dc6d2e3	0.09708192
232	0xbe1475af	-0.14498018
233	0x391efd00	0.00015162304
234	0x3d3e2621	0.04642308
235	0x3cf5729a	0.029961873
236	0x3d1f4a38	0.03888914
237	0x3e1b0e3c	0.15142149
238	0x3d7e74f2	0.062123246
239	0xbe137554	-0.14400226
240	0x3e52ed9f	0.20598458
241	0x3d50e1b6	0.050996505
242	0xbe753403	-0.23945622
243	0xbe680a57	-0.22660194
244	0x3e55a881	0.2086506
245	0x3e1ead2e	0.1549575
246	0xbb44e84c	-0.0030045686
247	0xbdb8267d	-0.08991716
248	0x3d95d15e	0.07315324
249	0x3d3b37f8	0.045707673
250	0x3e2e2c8b	0.1700918
251	0xbe811d66	-0.25217742
252	0xb7d850bf	-2.5786807e-05
253	0x3e26b301	0.16279222
254	0x3aeaecc6	0.0017923347
255	0xad39ccb0	-1.0561482e-11

layers.0.bias f4 [32]
0	0x3d6a3aa1	0.05718482
1	0xbe4506d5	-0.19240887
2	0x3da9745d	0.08274148
3	0xbde54d6d	-0.111964084
4	0x3e996951	0.29963163
5	0xbdd55193	-0.1041595
6	0x3e511200	0.20417023
7	0x3ef2128b	0.47279772
8	0xbdd76c97	-0.10518759
9	0xbe56e926	-0.20987377
10	0x3e3946da	0.18093434
11	0xbe1727d4	-0.14761287
12	0x3bfbad2a	0.007680555
13	0x3daaa4c4	0.08332208
14	0xbcf414a8	-0.029795006
15	0x3ed0eb3f	0.4080448
16	0x3e9c7cd8	0.30563998
17	0x3dd89719	0.105756946
18	0x3e9a8d14	0.3018576
19	0x3ba50b96	0.0050367815
20	0x3dc295de	0.09501241
21	0x3e433c4d	0.19065972
22	0x3d5fbf01	0.054625515
23	0x3ea13e40	0.31492805
24	0x3e59f9ec	0.21286744
25	0x3e2a4f8b	0.16631906
26	0x3e5c299a	0.21500245
27	0x3ecd5d7c	0.40110385
28	0x3e93d7ab	0.2887548
29	0xbe152f61	-0.14568855
30	0x3e5a31d0	0.21308064
31	0x3e4e3572	0.20137575

layers.1.weight f4 [32, 32]
0	0xbacda103	-0.0015688244
1	0xba1ad408	-0.0005906229
2	0x3db6a910	0.08918965
3	0x3dfe0df3	0.12405004
4	0x3e3e2fca	0.18572918
5	0xbe22e771	-0.159086
6	0xbd041e7a	-0.032255627
7	0xbd52b3b4	-0.05144091
8	0x3ddaee47	0.10689979
9	0xbc0f8b0b	-0.008761178
10	0x3dca7b2a	0.09886773
11	0xbdd1009b	-0.102051936
12	0xbe2e2e0c	-0.17009753
13	0x3e1a4ad0	0.15067601
14	0xbcf4b9c8	-0.029873744
15	0x3dfc442d	0.12317691
16	0x3e2f6a51	0.171304
17	0x3e2e543c	0.1702432
18	0x3cb01829	0.021495895
19	0xbe2a8687	-0.1665288
20	0x3e662537	0.22475134
21	0xbd2df763	-0.042472254
22	0xbd6dae08	-0.058027297
23	0x3c5e5151	0.013569192
24	0x3ddba7f2	0.107253924
25	0x3defff69	0.117186375
26	0x3e0d8de2	0.13823655
27	0x3e7a241d	0.24427839
28	0x3e555923	0.20834784
29	0x363602e1	2.712179e-06
30	0x3e1a6b3a	0.15079966
31	0x3e0d26bc	0.13784307
32	0x3d5d4152	0.054017372
33	0xbb51e267	-0.0032025815
34	0x3c3c267b	0.011483784
35	0x3dc96e60	0.098355055
36	0x3e0c75e1	0.13716842
37	0xbc7a67b4	-0.015283514
38	0x3e57711d	0.21039243
39	0x3d3dc72c	0.046332523
40	0x3e12a518	0.14320791
41	0xbd172977	-0.03690478
42	0xbbf08fbf	-0.0073413546
43	0xbd0efb91	-0.03490788
44	0x3c709372	0.014683591
45	0xbda3adee	-0.07992159
46	0xbca5fb57	-0.02026145
47	0x3d932b44	0.07185987
48	0x3e4fae2a	0.20281282
49	0x3dd6145d	0.10453103
50	0x3decb3d2	0.115577355
51	0x3dcad88b	0.099045835
52	0xbcd24265	-0.025666425
53	0x3d1fad77	0.03898379
54	0x3e00c57a	0.12575331
55	0x3e3a67b8	0.18203628
56	0x3e130eda	0.14361134
57	0xbcfe928e	-0.031075742
58	0x3dda89ac	0.1067079
59	0x3e4f9270	0.20270705
60	0x3e317304	0.17329031
61	0xbd3c75b4	-0.046010688
62	0x3dbece1f	0.09316658
63	0x3e5eb7b0	0.21749759
64	0x3e948c81	0.29013446
65	0x2bfbd0ef	1.7892613e-12
66	0xbdd28cb4	-0.10280743
67	0xbad495ba	-0.0016218938
68	0xbe286252	-0.16443756
69	0x3e1e10f3	0.15436153
70	0x3cdf40bb	0.027252546
71	0x3e8cc9a0	0.27497578
72	0xbc908e17	-0.017645879
73	0x3d5f309c	0.054489717
74	0xbe2ba9b0	-0.1676395
75	0x3e22ed63	0.15910868
76	0x3d9a71ba	0.07541223
77	0x3c93ed01	0.018057348
78	0x3e2f8c86	0.17143449
79	0xbcf82300	-0.030290127
80	0x3e1e1288	0.15436757
81	0x3ba66345	0.005077752
82	0x3aeffc66	0.0018309474
83	0x3e949faf	0.2902808
84	0xbd0411a9	-0.032243405
85	0x3e81d918	0.25360942
86	0x3e725e72	0.2366884
87	0x3e2bc6a5	0.16774996
88	0xbdb3b956	-0.087755844
89	0x3e0c356a	0.13692251
90	0x3e3697f9	0.1783141
91	0x3e09963e	0.13436219
92	0xbd78bbec	-0.06072609
93	0x3b0efa32	0.0021816608
94	0xbcaa25a4	-0.020769902
95	0x3e53a68d	0.20669003
96	0xbd5e3a12	-0.0542546
97	0xadc4d54b	-2.2377341e-11
98	0x3cb67b28	0.022275522
99	0xbc28b5e4	-0.010297272
100	0x3db5a9b8	0.08870262
101	0xbe611312	-0.21979931
102	0x3e44bb47	0.19212066
103	0x3e2abbeb	0.16673248
104	0x3e290d43	0.16508965
105	0x398526d0	0.00025396654
106	0x3e38d23e	0.18048951
107	0xbd15a158	-0.036530823
108	0xbe0683a1	-0.1313615
109	0x3dc42718	0.09577769
110	0x3da0054e	0.07813512
111	0x3e680df4	0.22661573
112	0x3d8e2497	0.06940573
113	0x3e29333a	0.16523448
114	0x39305799	0.000168173
115	0xbc779abc	-0.015112575
116	0x3e1dc329	0.15406479
117	0x3db5b732	0.08872832
118	0x3e080701	0.13283922
119	0x3afb7978	0.0019185981
120	0xbd43fec3	-0.04785038
121	0x3da569b2	0.080768004
122	0x3e6384c7	0.2221862
123	0xbd53a3d6	-0.051669918
124	0x3cd51005	0.026008615
125	0xb967ac51	-0.0002209407
126	0xbcab2321	-0.020890774
127	0x3e3f9de0	0.18712568
128	0xbc573057	-0.013134084
129	0xb7076d6a	-8.072102e-06
130	0xba87cbce	-0.0010360421
131	0x3e3b24e1	0.18275787
132	0x3e00bbe4	0.12571675
133	0xbe12618d	-0.14295025
134	0x3e4e5391	0.20149066
135	0x3e336b9a	0.17521515
136	0x3e2f9c85	0.17149551
137	0x27d656e4	5.949114e-15
138	0xbd39a54f	-0.045323666
139	0xbd1cb1b2	-0.0382554
140	0x3c7ad66a	0.015309909
141	0x3d1bd793	0.038047384
142	0x3e10fe1b	0.14159434
143	0x3e857589	0.26066235
144	0x3e5d0a62	0.21585992
145	0xbda6dcf6	-0.08147614
146	0x3cb7bf2a	0.022430021
147	0xbdc38a42	-0.09547855
148	0xbc8e2136	-0.01734982
149	0xbc89ad98	-0.016806409
150	0xbd88f6ee	-0.06687723
151	0x3e72b242	0.23700812
152	0x3d464c7b	0.04841278
153	0x3dbb2a35	0.0913891
154	0x3e7fd74a	0.2498447
155	0x3e4bc77b	0.19900315
156	0x3e6a0fb2	0.2285755
157	0xb8f063f5	-0.0001146271
158	0xbc3691a8	-0.011143126
159	0x3da162c7	0.078801684
160	0xba03c388	-0.000502639
161	0xbd24c555	-0.040227253
162	0x3e2c3d20	0.16820192
163	0x3d594657	0.053045597
164	0x3e6d2a7a	0.23160735
165	0xbe630122	-0.22168401
166	0x3cf682bc	0.030091636
167	0x3c1c0a66	0.009523964
168	0x3dc11e9b	0.09429666
169	0x3c2c397b	0.010511751
170	0x3e12a1a7	0.14319478
171	0xbdc9ce2d	-0.09853778
172	0xbd35c579	-0.044377778
173	0x3d26912b	0.040665787
174	0xbd6ace5d	-0.05732571
175	0x3c406ae7	0.0117442375
176	0x3db759cc	0.08952674
177	0x3d97cc51	0.07412017
178	0x3e454685	0.19265182
179	0xbdbb3ca3	-0.09142425
180	0x3dc6dd04	0.09710124
181	0x3da45001	0.08023072
182	0xbde6efc4	-0.112762004
183	0xbd417f2d	-0.047240425
184	0x3e0607b4	0.13088876
185	0x3d2a8968	0.041634947
186	0x3c1d6a6e	0.009607894
187	0x3e20274c	0.1563999
188	0x3e48cf7b	0.19610398
189	0x3d30a125	0.04312243
190	0x3b52cee4	0.0032166773
191	0x3dab81c8	0.08374363
192	0xbe4dcc42	-0.2009745
193	0xa83be046	-1.0429217e-14
194	0x3e8cc175	0.27491346
195	0x3d76f5e9	0.060293112
196	0x3e9366db	0.2878941
197	0xbe31ae44	-0.17351633
198	0x3d4ed1ee	0.050493173
199	0x3c9a6b2a	0.018849928
200	0x3dcbe2d0	0.099553704
201	0x2dfc9e53	2.8719393e-11
202	0x3e82830c	0.25490606
203	0xbdde75f3	-0.10862341
204	0xbc9e3d90	-0.019316465
205	0x3e8699c9	0.26289204
206	0xbc590427	-0.013245619
207	0x3c50d5b3	0.012746262
208	0xba0ce303	-0.00053744036
209	0x3e3e8126	0.18603954
210	0x3d8e47df	0.06947302
211	0xbdb514ba	-0.08841844
212	0x3e5913e7	0.21198998
213	0x3d90d10d	0.07071123
214	0xbd6a853e	-0.057255976
215	0xbc76a89b	-0.015054847
216	0x3d2382de	0.039919727
217	0x3d8d7d05	0.06908611
218	0xbc87b1c1	-0.016564252
219	0x3e357bcc	0.17723006
220	0x3e3bf47f	0.18354987
221	0xb31286d6	-3.4115907e-08
222	0x3ddf535a	0.1090457
223	0x3de4e715	0.11176888
224	0x3ce3e5c0	0.027819514
225	0x3c4ea402	0.012612345
226	0xbd26295c	-0.040566787
227	0x3e3b8050	0.18310666
228	0x3df90db1	0.121608146
229	0xbe742751	-0.23843123
230	0x3e0a3fc2	0.13500884
231	0x3e035a27	0.12827359
232	0x3e5bdeb6	0.21471676
233	0x3bc42457	0.0059857774
234	0x3dcf5500	0.10123634
235	0xbd9caf3e	-0.07650612
236	0xbe34d4cb	-0.17659299
237	0xbc654eba	-0.013995821
238	0x3c0ff9f1	0.008787618
239	0x3e4da016	0.20080599
240	0x3dd7852a	0.10523446
241	0xbba37602	-0.004988433
242	0xbd19dda7	-0.0375649
243	0x3b73c425	0.0037195769
244	0xbcd5f432	-0.026117418
245	0xbd8faf37	-0.070158415
246	0x3d131520	0.03590882
247	0x3c9dac65	0.019247243
248	0x3ce276dd	0.027644569
249	0x3c3328ef	0.010935052
250	0x3e014f54	0.12627918
251	0x3e761481	0.24031259
252	0x3e71db69	0.23618855
253	0x367d8530	3.7777463e-06
254	0x3e5aa691	0.21352603
255	0x3dc2b707	0.09507566

layers.1.bias f4 [32]
0	0x3d87608a	0.0661021
1	0x3e899f06	0.26879138
2	0x3da94b85	0.08266357
3	0x3e802faf	0.2503638
4	0x3e570d00	0.21001053
5	0x3e315f53	0.1732152
6	0xbbbe380c	-0.005805021
7	0x3e4a8b97	0.19779812
8	0xbc0ce194	-0.008598704
9	0xb32e3142	-4.055733e-08
10	0xbd62f001	-0.055404667
11	0xbcc28a41	-0.023747565
12	0x3e3006d1	0.171901
13	0xbca41e70	-0.020034045
14	0x3e3f7474	0.18696767
15	0x3e15e0ad	0.14636488
16	0x3d4277f1	0.047477666
17	0x3daf8003	0.08569338
18	0x3d3e4aa0	0.046457887
19	0xbb72398a	-0.0036960565
20	0x3e504dce	0.2034218
21	0x3e7c3779	0.24630536
22	0x3dcde92d	0.100542404
23	0xbcacae03	-0.021079069
24	0x3ddd0574	0.10792056
25	0x3ca1d14f	0.019753126
26	0x3e1ca02a	0.15295473
27	0x3c3efe41	0.011657299
28	0xb7c33aa5	-2.327312e-05
29	0xbd0edaeb	-0.034876745
30	0xbb5f2b81	-0.003405303
31	0xbcfd5ea1	-0.030928912

layers.2.weight f4 [32, 32]
0	0x3e3f6d6d	0.18694086
1	0x3d94ffbe	0.072753415
2	0xbe1a84ba	-0.15089694
3	0x3dd7111c	0.1050131
4	0x3dca5477	0.09879392
5	0xbd11578e	-0.03548389
6	0x3e3e0161	0.18555214
7	0x3e35c539	0.17751016
8	0x3dbdc8bb	0.09266802
9	0xbbb904bf	-0.0056463177
10	0xbd307007	-0.043075588
11	0x3d3f6dc6	0.046735547
12	0x3e3c3414	0.18379241
13	0x3e4d0c97	0.20024334
14	0x3e1cfdb4	0.15331155
15	0x3d93e9d1	0.07222331
16	0x3e3fcc11	0.18730189
17	0x3dc8b8d5	0.09800879
18	0x3d6032a8	0.05473581
19	0x3dd33980	0.10313702
20	0x3e045ea3	0.12926726
21	0x3e06ddaf	0.13170503
22	0x3e30c9f2	0.17264536
23	0xb71692bc	-8.974861e-06
24	0x3e0ede7e	0.13952062
25	0x3d90d00b	0.07070931
26	0x3cdafaa9	0.026730852
27	0x3d6b2905	0.057412166
28	0xbc443037	-0.011974386
29	0x38e07ade	0.00010704038
30	0xbb92452a	-0.0044638114
31	0x3c03f1d3	0.008053261
32	0x3d9f1de0	0.0776937
33	0x3db0ab9e	0.086264834
34	0xbe4cbdca	-0.19994274
35	0xbb275775	-0.0025534306
36	0x3e21e884	0.15811354
37	0xbc811a2b	-0.015759548
38	0x3e221ce4	0.15831333
39	0x3e0db56a	0.13838735
40	0x3e3e5940	0.18588734
41	0x37a5933c	1.9738094e-05
42	0x3d1dc844	0.038521066
43	0x38b4027f	8.583534e-05
44	0x3e0bb1dd	0.13642068
45	0x3e42953b	0.1900224
46	0x3d891d98	0.06695098
47	0x3e41f0ef	0.18939565
48	0x3d470e3b	0.048597556
49	0x3e245ea5	0.16051729
50	0x3e1d7d99	0.15379943
51	0x3e174985	0.14774139
52	0xb9d7aa0e	-0.00041134696
53	0x3e7cbf77	0.24682413
54	0x3e6ba229	0.23011078
55	0x3b506b26	0.0031802147
56	0x3decabf6	0.115562364
57	0xbce5ea93	-0.028065955
58	0x3dfee72e	0.12446438
59	0xb83a5b93	-4.443114e-05
60	0x3c4d4be3	0.0125303
61	0x3c10f3ce	0.00884719
62	0x3c87275d	0.016498262
63	0x3c3bf6be	0.011472402
64	0xbda62b07	-0.081136756
65	0x3de92795	0.11384503
66	0x3e84a50e	0.25907177
67	0x3e849de2	0.25901705
68	0x3cfa5613	0.030558622
69	0x3d461ffe	0.048370354
70	0x3caaf317	0.020867867
71	0x3e54ad4f	0.20769237
72	0x3e72fdf5	0.2372969
73	0x28153e92	8.284729e-15
74	0xad4b48a3	-1.1555343e-11
75	0x3c6a1ce6	0.0142891165
76	0xbbc25e33	-0.0059316396
77	0x3e046b83	0.12931637
78	0xbb727e0f	-0.0037001406
79	0x3e214df1	0.15752389
80	0xbe27abae	-0.16374084
81	0x3e54b340	0.20771503
82	0x3e2f72b1	0.17133595
83	0x3db2170f	0.08695804
84	0x3e88fdbe	0.2675609
85	0x3e354cf0	0.1770513
86	0xbd1e771c	-0.03868781
87	0xbc1c1911	-0.009527461
88	0x3e13f719	0.14449729
89	0xbe0d4417	-0.13795505
90	0x3e208c09	0.15678419
91	0x27706286	3.33601e-15
92	0x2e79b355	5.6775324e-11
93	0xbc131e06	-0.008979326
94	0xbcb9dfcf	-0.022689728
95	0xbda14e86	-0.07876305
96	0xbd68e7fe	-0.05686187
97	0x3dc420fd	0.095766045
98	0x3ded7e75	0.115963854
99	0x3dd9f200	0.10641861
100	0x3dbf379d	0.09336779
101	0xbda155eb	-0.07877716
102	0xbdbb52c5	-0.091466464
103	0x3da276bf	0.07932805
104	0x3db93884	0.090439826
105	0x3cdaf719	0.026729153
106	0x3697d0b3	4.5244465e-06
107	0x3c5433d0	0.012951806
108	0x3dce1521	0.10062624
109	0xbdb1d9a6	-0.08684091
110	0xbd14c575	-0.036321122
111	0xbd6652ae	-0.056231193
112	0xbdc1081a	-0.094253734
113	0x3d74d268	0.05977097
114	0x3dcc77fa	0.09983821
115	0x3dd914f0	0.10599697
116	0xb97cad5d	-0.00024097176
117	0x3d528c3e	0.051403277
118	0x3dc6576a	0.09684642
119	0xbc78c9ba	-0.015184814
120	0x3d8dc95e	0.06923173
121	0xbdca3b11	-0.09874547
122	0x3da7681e	0.08174156
123	0xbbc31dab	-0.0059544644
124	0x35f658fe	1.8354328e-06
125	0xb877e62a	-5.9103746e-05
126	0xba331343	-0.00068311783
127	0xbda0b7c8	-0.078475535
128	0x3db896df	0.090131514
129	0x3e0e2fe4	0.13885456
130	0xbc2a2595	-0.010384937
131	0x3e2979a4	0.16550308
132	0x3dd26444	0.102730304
133	0x3d5d33c6	0.054004453
134	0x3df86cdd	0.12130139
135	0x3d87ece4	0.0663698
136	0x3e4f4e1e	0.20244643
137	0xbaa4a48f	-0.0012561249
138	0xbd5f1605	-0.05446436
139	0x3b76af11	0.0037640969
140	0x3dfc5862	0.12321545
141	0xbc47d1c0	-0.012196004
142	0x3e755f82	0.23962215
143	0xbd0ac28a	-0.033876933
144	0xbd93b07a	-0.072113946
145	0x3e3ad965	0.18246992
146	0x3e8f4b35	0.27987066
147	0x3e5be81a	0.21475258
148	0x3e44ab96	0.1920608
149	0xbc5cde31	-0.013480709
150	0x3e04daaf	0.12974046
151	0x3bf65646	0.007517609
152	0x3e388d80	0.18022728
153	0xbe00d804	-0.12582403
154	0x3dbc59e7	0.09196835
155	0xbca3df02	-0.0200038
156	0x3d034686	0.03204968
157	0x3b5d222a	0.0033742287
158	0xbae89036	-0.0017743174
159	0xbd6c75c3	-0.057729494
160	0x3df06faa	0.11740048
161	0x3ce5b422	0.028039996
162	0xbdd0f9dc	-0.10203907
163	0x3d4df04b	0.05027799
164	0xbd3b8fd0	-0.045791447
165	0x3db1db1b	0.08684369
166	0x3c50e6e5	0.012750362
167	0xbbbe7fc8	-0.0058135726
168	0xbd8ea2fc	-0.069646806
169	0xba2d706b	-0.0006616178
170	0xbc43f909	-0.01196123
171	0x3bf71a4c	0.0075409766
172	0x3d356b10	0.044291556
173	0x3dbb75c4	0.091533214
174	0x3dcbe198	0.09955138
175	0x3e10f76b	0.14156882
176	0x3e186966	0.14883956
177	0x3d9f4afc	0.07777974
178	0xbd0289fe	-0.03186988
179	0xbd8c2dd8	-0.068446815
180	0x3d937436	0.071999
181	0x3c4c1193	0.012455362
182	0x3d4af4ff	0.049550053
183	0xbd020b1c	-0.031748876
184	0xbcd750d9	-0.026283668
185	0x3dc57527	0.09641486
186	0xbcfc0591	-0.030764373
187	0xbd63b929	-0.055596504
188	0xb520f5b7	-5.9962207e-07
189	0x3cfb2d94	0.030661382
190	0x39f1348e	0.00046006258
191	0x3d3b5b9f	0.045741674
192	0x3b6f0d66	0.0036476492
193	0xbce13fee	-0.027496304
194	0xbc8790ff	-0.016548632
195	0xa85867a2	-1.20128805e-14
196	0xba240ded	-0.00062581786
197	0x37dcee1a	2.6336918e-05
198	0x37e0300b	2.6725253e-05
199	0xbd4f5e2a	-0.05062691
200	0xbd5d857b	-0.054082375
201	0x3bc4c145	0.006004485
202	0x3c0981bf	0.00839275
203	0xbc6dba2d	-0.01450972
204	0x2b245f08	5.8396387e-13
205	0x3b214ebf	0.0024613587
206	0xbd0e6101	-0.03476048
207	0xbd527270	-0.051378667
208	0x3cbcf495	0.023065845
209	0x32722108	1.4093764e-08
210	0x3cdcb260	0.026940525
211	0xbbbd76d2	-0.0057819868
212	0xbcec647c	-0.028856508
213	0xafc592ed	-3.5938488e-10
214	0xb894e471	-7.0997405e-05
215	0x3810aec6	3.4495046e-05
216	0x2a1c8c72	1.390431e-13
217	0xbbd61e73	-0.0065343915
218	0xbd3a311f	-0.045457
219	0xbb3081b1	-0.002693277
220	0xbcf3bfb4	-0.029754497
221	0xb732e2a2	-1.0662394e-05
222	0xaa7bf9f1	-2.2379994e-13
223	0xbd5a8177	-0.053346124
224	0x3de878bf	0.113511555
225	0x3d6f83f5	0.058475453
226	0x3e1e7a8f	0.1547644
227	0x3e651e18	0.22374761
228	0x3e83e84e	0.25763172
229	0x3e2333da	0.15937749
230	0xbe065fae	-0.13122436
231	0x3dc38551	0.095469125
232	0xbb163c40	-0.0022924095
233	0x38a360f3	7.790504e-05
234	0x2de84406	2.6405555e-11
235	0x36ec1e37	7.0368656e-06
236	0xbc8d54f2	-0.01725242
237	0xbd24756d	-0.04015105
238	0xbd89e3a5	-0.06732873
239	0x3e57f1c9	0.21088327
240	0xbe7576e7	-0.23971139
241	0x3dfa475c	0.12220642
242	0x3ca388b1	0.01996264
243	0x3e65abef	0.22428869
244	0x3dcd5e8d	0.100278
245	0x3e6f4ac2	0.23368362
246	0x3e4a0e4d	0.19732018
247	0x3bc0865a	0.005875391
248	0x3e158db1	0.14604832
249	0xbe1c0e55	-0.15239842
250	0x3d1191f5	0.035539586
251	0x38b25130	8.502824e-05
252	0xbd16a358	-0.03677687
253	0xbca0f7ec	-0.019649468
254	0x3d544b97	0.0518299
255	0xbd8acd9a	-0.06777497

layers.2.bias f4 [32]
0	0x3d39234f	0.04519969
1	0x3e2743a9	0.16334404
2	0x3df22dda	0.11825152
3	0x3d615dc7	0.055021074
4	0x3df7ff9e	0.12109302
5	0x3ce55d27	0.02799852
6	0xbd5384eb	-0.051640432
7	0x3e386128	0.18005812
8	0xbd07e8f4	-0.033181146
9	0xbcf63b7c	-0.030057661
10	0xbc0e6d9e	-0.008693127
11	0x3d4db469	0.05022088
12	0x3e2d8510	0.1694529
13	0xbd968513	-0.07349601
14	0x3cfca657	0.030841036
15	0x3e280528	0.16408217
16	0x3e4e30c7	0.20135795
17	0x3e66f185	0.2255307
18	0xa9117fd7	-3.230735e-14
19	0x3cc543d1	0.024080189
20	0x3e089435	0.13337786
21	0x3d2a07b0	0.041511238
22	0x3e38441d	0.17994733
23	0xbcd74c61	-0.026281537
24	0xbbf3f7b0	-0.007445298
25	0x3d287f24	0.041136876
26	0x3d82174a	0.06352098
27	0x3d556c2e	0.05210512
28	0xbc22a7fa	-0.009927744
29	0x31908840	4.2064414e-09
30	0x3df3d1d7	0.11905258
31	0x3d54b40c	0.05192952

layers.3.weight f4 [40, 32]
0	0xbe701508	-0.23445523
1	0xbddfc2c8	-0.109258235
2	0xbe01dd8d	-0.12682171
3	0xbba28225	-0.004959362
4	0xbe1451d7	-0.14484344
5	0xbd30e84a	-0.043190278
6	0xbae08387	-0.0017129042
7	0xbe8b448d	-0.27200738
8	0xb43e6d49	-1.7734887e-07
9	0xbd0111b3	-0.03151102
10	0xa9ab0358	-7.5945055e-14
11	0xbd696552	-0.056981392
12	0x3d18c931	0.037301246
13	0xb9de0c8e	-0.00042352494
14	0xbe5a89f1	-0.21341683
15	0x3d24c003	0.04022218
16	0x3d6d444a	0.057926454
17	0x3d0ca753	0.03433926
18	0x3c0fa004	0.008766178
19	0xbe16fabc	-0.14744085
20	0x3c2c7d3c	0.010527905
21	0xbe107f75	-0.14111121
22	0xbde604de	-0.11231397
23	0x3cc832b2	0.024438236
24	0xb88fc3ac	-6.855218e-05
25	0xbe5654c1	-0.20930769
26	0x3bbe7818	0.005812656
27	0xbe00eb78	-0.12589824
28	0xbd1353fe	-0.035968773
29	0x3d21cee4	0.039503947
30	0xbdbafeae	-0.091306075
31	0xbe04134c	-0.12897986
32	0xbc53ef4a	-0.012935469
33	0x3d6223c4	0.05520989
34	0xbca76f4e	-0.020438816
35	0xbd1c2db0	-0.03812951
36	0xbe008922	-0.12552312
37	0x3db7ac30	0.08968389
38	0x3be46196	0.006969641
39	0xbe393e59	-0.1809019
40	0xbd538e93	-0.05164964
41	0xbc7af922	-0.015318187
42	0x3cc48cd8	0.02399294
43	0xbda0a6b2	-0.078442946
44	0xbd9b3d2e	-0.075800285
45	0x3ce6ea13	0.028187787
46	0xbd800963	-0.062517904
47	0xbc3592bb	-0.011082347
48	0xbd8c6523	-0.06855228
49	0x3ca52063	0.020157045
50	0xbb78d878	-0.0037970822
51	0xbe34fb8c	-0.17674083
52	0xbde4c110	-0.11169636
53	0xbd185197	-0.037187185
54	0x3db2e817	0.08735674
55	0x3d6cc68d	0.05780654
56	0xbd05c9d9	-0.0326632
57	0xbd0b0172	-0.033936925
58	0xbe1d82a1	-0.15381862
59	0x3e103787	0.14083682
60	0x3d20aa7e	0.039225094
61	0xbd21d53b	-0.039509993
62	0xbe45ac81	-0.19304086
63	0xbe3ba633	-0.18325119
64	0x3d82ba69	0.06383211
65	0x3cba8bc1	0.022771718
66	0xbda613a4	-0.08109215
67	0x3ccb33d7	0.024804993
68	0xbe2ce246	-0.16883191
69	0xbd114600	-0.035467148
70	0x2dc200e1	2.2055637e-11
71	0xbe40e53e	-0.18837449
72	0xb59a3f46	-1.1492309e-06
73	0xb770be5e	-1.4349438e-05
74	0xaa2b55b6	-1.5217588e-13
75	0x3d0ce206	0.03439524
76	0xbdb538c8	-0.08848721
77	0x3d036126	0.03207507
78	0xbddf6610	-0.10908139
79	0xbd46f476	-0.04857298
80	0xbaa99265	-0.0012937306
81	0xbca08935	-0.019596675
82	0x3d11a613	0.03555877
83	0xbdf5929d	-0.11990855
84	0xbde1f096	-0.11032216
85	0x3d42c9ff	0.04755592
86	0xbe631970	-0.22177672
87	0xbb5eb13c	-0.0033980152
88	0xb5d0ef7b	-1.5566906e-06
89	0xbd92df84	-0.071715385
90	0x3da354d7	0.07975166
91	0xbdc3fc18	-0.095695674
92	0x3d2361da	0.03988824
93	0x3c262ca7	0.010142482
94	0xbde7ddd1	-0.11321605
95	0xbd3c2727	-0.045935776
96	0xbe07e044	-0.13269144
97	0x3b21539f	0.0024616492
98	0xbe00186c	-0.12509316
99	0x3da4a4a3	0.080392145
100	0x3d8bbf6e	0.06823622
101	0xbd627b77	-0.055293527
102	0xaafc45f5	-4.4812735e-13
103	0xbe3ed7fa	-0.18637076
104	0x3cc062d4	0.023484625
105	0x3cccef9f	0.025016604
106	0x344f5068	1.9307629e-07
107	0x3bdabf5d	0.0066756443
108	0xbd6112f0	-0.0549497
109	0xb9848631	-0.00025276982
110	0xbde33d15	-0.11095635
111	0xbdb02f57	-0.08602779
112	0x3dbedbf0	0.093192935
113	0xbd7c3a52	-0.061579056
114	0xaa1667d1	-1.3358695e-13
115	0xbe1bde30	-0.15221477
116	0xbe1ebc8d	-0.15501614
117	0xbde5ff96	-0.1123039
118	0xbe0f8af0	-0.14017844
119	0xbbcf42ff	-0.006325125
120	0xb593c2cf	-1.100905e-06
121	0x3c13d6f7	0.00902342
122	0x3d0f35ba	0.034963347
123	0x3d1c20ab	0.038117092
124	0xbb86b8f2	-0.0041114027
125	0xa7ffdbad	-7.101489e-15
126	0xbdfeb37c	-0.12436578
127	0xbd0218c5	-0.031761903
128	0xbe30a7d5	-0.17251523
129	0x3ae90817	0.00177789
130	0xbe5b074c	-0.21389502
131	0x3d6d7028	0.05796829
132	0xbe3f073e	-0.18655106
133	0xbc7352c6	-0.014851278
134	0x3c7e1830	0.015508696
135	0x3c7b92a4	0.015354786
136	0x3bf82722	0.0075730244
137	0xb7bff2f0	-2.28821e-05
138	0xb2b92e20	-2.155781e-08
139	0xbd66598f	-0.056237753
140	0xbe5ef819	-0.21774329
141	0x3c00d9f1	0.007864461
142	0x3cf397bb	0.029735437
143	0x3db35906	0.08757214
144	0xbe1292e4	-0.14313847
145	0xbe02a38a	-0.12757698
146	0xb83a494b	-4.4414115e-05
147	0xbdb47059	-0.08810491
148	0xbd6f11bc	-0.058366522
149	0xbcd044bb	-0.025423398
150	0xbe15ed92	-0.14641407
151	0x3b93ad54	0.0045067463
152	0x3858198e	5.1522213e-05
153	0xbe0ab803	-0.13546757
154	0x3c990761	0.018680276
155	0xbd8610cb	-0.06546172
156	0xbbf3a829	-0.0074358177
157	0x3c6afbfd	0.014342305
158	0xbd43fce0	-0.047848582
159	0xbdd7df06	-0.10540585
160	0xbe1586dd	-0.14602228
161	0x3d8e26d7	0.06941002
162	0xbd1bc393	-0.03802831
163	0xbd92c532	-0.07166518
164	0xbdb5a1c5	-0.08868746
165	0x3dc50330	0.096197486
166	0xbd2efa47	-0.04271915
167	0xbd641fc7	-0.055694368
168	0xb92fde15	-0.00016772033
169	0x3d62054e	0.05518084
170	0x3cbb1778	0.02283834
171	0x3d0345c3	0.03204895
172	0xbe1f139c	-0.15534824
173	0x3d7d5f8e	0.061858706
174	0xbd1eb4fb	-0.038746815
175	0x3dbde269	0.092717
176	0xbe1c8f71	-0.15289094
177	0xbdbe213c	-0.09283683
178	0xbd38bd79	-0.04510257
179	0xbe11af8f	-0.14227127
180	0xbe06c570	-0.13161254
181	0xbd612bd3	-0.054973435
182	0xbb303bd3	-0.0026891127
183	0x3d4343ef	0.04767221
184	0x38df39e5	0.00010644252
185	0x3d5a2572	0.053258367
186	0xbe4a5b77	-0.19761454
187	0xbd97c721	-0.07411028
188	0x34dea8a8	4.1473436e-07
189	0x2f8cb77d	2.5596228e-10
190	0xbe74544b	-0.2386028
191	0x3be32483	0.006931843
192	0xbe27740d	-0.16352864
193	0xbe149ab2	-0.14512137
194	0xbdd2b836	-0.10289042
195	0x3d8827d7	0.06648224
196	0xbdf5bfc3	-0.11999466
197	0xbbf2d20c	-0.0074102934
198	0x2c925b89	4.159732e-12
199	0x3c88e64a	0.016711373
200	0xb5617752	-8.3992666e-07
201	0x3c104d84	0.008807544
202	0xbc635148	-0.013874359
203	0x3d35925e	0.04432904
204	0xbe19ba56	-0.15012488
205	0xb9bb4fd9	-0.0003572691
206	0xbbb19f8e	-0.0054206317
207	0x3d61b4de	0.05510413
208	0xbd11d4f4	-0.03560348
209	0x3d714a41	0.058908705
210	0x3d3cc9ce	0.046090893
211	0xbd87a755	-0.06623713
212	0xbe8d90ec	-0.2764963
213	0xbde5e808	-0.11225897
214	0xbddb3a01	-0.10704423
215	0x3caa1d70	0.02076599
216	0xba291b30	-0.00064508896
217	0x3cb4c2dc	0.022065572
218	0x3dbef88a	0.09324749
219	0xbd516726	-0.05112376
220	0x3c8fce06	0.017554294
221	0xbd35437e	-0.04425382
222	0x3d3e1f99	0.046416853
223	0xbc48a3f9	-0.012246125
224	0x3cac92af	0.021066038
225	0xbe49f2be	-0.19721505
226	0x389e1f81	7.539895e-05
227	0x3db980c3	0.090577625
228	0xbca1f429	-0.019769745
229	0xbdb6f480	-0.089333534
230	0xbc8ead06	-0.017416488
231	0xbc3d69d1	-0.011560873
232	0x3c9fca51	0.019505652
233	0x38a4e422	7.8626224e-05
234	0xbba5c426	-0.005058783
235	0x3dd63c03	0.10460665
236	0xbdef11fe	-0.116733536
237	0x37776983	1.4746914e-05
238	0xbe0e40dd	-0.13891931
239	0xbe822330	-0.2541747
240	0x3d9365ba	0.07197137
241	0x3e03b689	0.128626
242	0x39c7544f	0.00038019053
243	0xbe8b1912	-0.27167565
244	0xbd220fab	-0.039565723
245	0xbe2327a8	-0.15933096
246	0x3d8b6190	0.06805718
247	0x3d792a9e	0.06083166
248	0x3cb1ba69	0.021695333
249	0xbe8457ab	-0.25848135
250	0x3e4154e5	0.18880041
251	0xbd6521e8	-0.05594054
252	0xbbeefed3	-0.007293561
253	0xa7430df8	-2.7069259e-15
254	0x3c9c1e92	0.019057546
255	0xbdf5d7c3	-0.12004044

layers.3.bias f4 [40]
0	0xbe51bc23	-0.20481925
1	0xbe1df9c2	-0.15427306
2	0xbd8bb18f	-0.06820976
3	0xbd773251	-0.06035072
4	0xbe62d924	-0.22153145
5	0x3cd3fd2f	0.025877563
6	0xbd7b5771	-0.061362687
7	0xbde9edaf	-0.11422288
8	0xbe2fe17b	-0.17175858
9	0xbe01d66d	-0.12679453
10	0x3d455350	0.048175156
11	0x3dfbbaf0	0.12291515
12	0xbe1173d2	-0.14204338
13	0x3da17c85	0.07885078
14	0x3de88e2a	0.11355241
15	0xbd917414	-0.07102218
16	0xbe1bd2b8	-0.15217102
17	0xbe2156f9	-0.15755834
18	0xbe3b5e3c	-0.18297666
19	0xbdd774d2	-0.105203286
20	0xbd3cd942	-0.04610563
21	0x3dc72af3	0.09724989
22	0x3dbab75f	0.091170065
23	0x3d39f420	0.04539883
24	0xbe623b6d	-0.22092982
25	0x3cabf7d9	0.020992206
26	0xbe0964d6	-0.13417372
27	0xbc8e5957	-0.017376585
28	0xbe091c5c	-0.13389724
29	0xbe658598	-0.22414243
30	0x3d809428	0.062782586
31	0x3c6a1430	0.01428704
32	0x3d666188	0.056245357
33	0x3d57c366	0.05267658
34	0x3da2c78f	0.07948219
35	0xbd9cb27b	-0.0765123
36	0xbe113f79	-0.14184369
37	0x3de18bcf	0.110129945
38	0x3d965808	0.073410094
39	0xbd95353c	-0.07285544
